…
  stage: ""
}
test_initialization: false
I0824 23:08:36.967394 44210 solver.cpp:91] Creating training net from net file: /disk2/nik/Analyzer/test/pocwisc7/caffe/model_segnet_final/train.prototxt
I0824 23:08:36.970214 44210 net.cpp:58] Initializing net from parameters: 
name: "VGG_ILSVRC_16_layer"
state {
  phase: TRAIN
  level: 0
  stage: ""
}
layer {
  name: "data"
  type: "HDF5Data"
  top: "data"
  top: "label"
  hdf5_data_param {
    source: "/disk2/nik/Analyzer/test/pocwisc7/HDF5Files/train_combined.txt"
    batch_size: 4
    shuffle: true
  }
}
layer {
  name: "conv1_1_1"
  type: "Convolution"
  bottom: "data"
  top: "conv1_1_1"
  param {
    lr_mult: 1
    decay_mult: 1
  }
  param {
    lr_mult: 2
    decay_mult: 0
  }
  convolution_param {
    num_output: 64
    pad: 1
    kernel_size: 3
    weight_filler {
      type: "msra"
    }
    bias_filler {
      type: "constant"
    }
  }
}
layer {
  name: "conv1_1_1_bn"
  type: "BatchNorm"
  bottom: "conv1_1_1"
  top: "conv1_1_1"
  batch_norm_param {
    use_global_stats: false
  }
}
layer {
  name: "conv1_1_1_scale"
  type: "Scale"
  bottom: "conv1_1_1"
  top: "conv1_1_1"
  scale_param {
    bias_term: true
  }
}
layer {
  name: "relu1_1"
  type: "ReLU"
  bottom: "conv1_1_1"
  top: "conv1_1_1"
}
layer {
  name: "conv1_2"
  type: "Convolution"
  bottom: "conv1_1_1"
  top: "conv1_2"
  param {
    lr_mult: 1
    decay_mult: 1
  }
  param {
    lr_mult: 2
    decay_mult: 0
  }
  convolution_param {
    num_output: 64
    pad: 1
    kernel_size: 3
    weight_filler {
      type: "msra"
    }
    bias_filler {
      type: "constant"
    }
  }
}
layer {
  name: "conv1_2_bn_tmp"
  type: "BatchNorm"
  bottom: "conv1_2"
  top: "conv1_2"
  batch_norm_param {
    use_global_stats: false
  }
}
layer {
  name: "conv1_2_scale"
  type: "Scale"
  bottom: "conv1_2"
  top: "conv1_2"
  scale_param {
    bias_term: true
  }
}
layer {
  name: "relu1_2"
  type: "ReLU"
  bottom: "conv1_2"
  top: "conv1_2"
}
layer {
  name: "pool1"
  type: "Pooling"
  bottom: "conv1_2"
  top: "pool1"
  top: "pool1_mask"
  pooling_param {
    pool: MAX
    kernel_size: 2
    stride: 2
  }
}
layer {
  name: "conv2_1"
  type: "Convolution"
  bottom: "pool1"
  top: "conv2_1"
  param {
    lr_mult: 1
    decay_mult: 1
  }
  param {
    lr_mult: 2
    decay_mult: 0
  }
  convolution_param {
    num_output: 128
    pad: 1
    kernel_size: 3
    weight_filler {
      type: "msra"
    }
    bias_filler {
      type: "constant"
    }
  }
}
layer {
  name: "conv2_1_bn_tmp"
  type: "BatchNorm"
  bottom: "conv2_1"
  top: "conv2_1"
  batch_norm_param {
    use_global_stats: false
  }
}
layer {
  name: "conv2_1_scale"
  type: "Scale"
  bottom: "conv2_1"
  top: "conv2_1"
  scale_param {
    bias_term: true
  }
}
layer {
  name: "relu2_1"
  type: "ReLU"
  bottom: "conv2_1"
  top: "conv2_1"
}
layer {
  name: "conv2_2"
  type: "Convolution"
  bottom: "conv2_1"
  top: "conv2_2"
  param {
    lr_mult: 1
    decay_mult: 1
  }
  param {
    lr_mult: 2
    decay_mult: 0
  }
  convolution_param {
    num_output: 128
    pad: 1
    kernel_size: 3
    weight_filler {
      type: "msra"
    }
    bias_filler {
      type: "constant"
    }
  }
}
layer {
  name: "conv2_2_bn_tmp"
  type: "BatchNorm"
  bottom: "conv2_2"
  top: "conv2_2"
  batch_norm_param {
    use_global_stats: false
  }
}
layer {
  name: "conv2_2_scale"
  type: "Scale"
  bottom: "conv2_2"
  top: "conv2_2"
  scale_param {
    bias_term: true
  }
}
layer {
  name: "relu2_2"
  type: "ReLU"
  bottom: "conv2_2"
  top: "conv2_2"
}
layer {
  name: "pool2"
  type: "Pooling"
  bottom: "conv2_2"
  top: "pool2"
  top: "pool2_mask"
  pooling_param {
    pool: MAX
    kernel_size: 2
    stride: 2
  }
}
layer {
  name: "conv3_1"
  type: "Convolution"
  bottom: "pool2"
  top: "conv3_1"
  param {
    lr_mult: 1
    decay_mult: 1
  }
  param {
    lr_mult: 2
    decay_mult: 0
  }
  convolution_param {
    num_output: 256
    pad: 1
    kernel_size: 3
    weight_filler {
      type: "msra"
    }
    bias_filler {
      type: "constant"
    }
  }
}
layer {
  name: "conv3_1_bn_tmp"
  type: "BatchNorm"
  bottom: "conv3_1"
  top: "conv3_1"
  batch_norm_param {
    use_global_stats: false
  }
}
layer {
  name: "conv3_1_scale"
  type: "Scale"
  bottom: "conv3_1"
  top: "conv3_1"
  scale_param {
    bias_term: true
  }
}
layer {
  name: "relu3_1"
  type: "ReLU"
  bottom: "conv3_1"
  top: "conv3_1"
}
layer {
  name: "conv3_2"
  type: "Convolution"
  bottom: "conv3_1"
  top: "conv3_2"
  param {
    lr_mult: 1
    decay_mult: 1
  }
  param {
    lr_mult: 2
    decay_mult: 0
  }
  convolution_param {
    num_output: 256
    pad: 1
    kernel_size: 3
    weight_filler {
      type: "msra"
    }
    bias_filler {
      type: "constant"
    }
  }
}
layer {
  name: "conv3_2_bn_tmp"
  type: "BatchNorm"
  bottom: "conv3_2"
  top: "conv3_2"
  batch_norm_param {
    use_global_stats: false
  }
}
layer {
  name: "conv3_2_scale"
  type: "Scale"
  bottom: "conv3_2"
  top: "conv3_2"
  scale_param {
    bias_term: true
  }
}
layer {
  name: "relu3_2"
  type: "ReLU"
  bottom: "conv3_2"
  top: "conv3_2"
}
layer {
  name: "conv3_3"
  type: "Convolution"
  bottom: "conv3_2"
  top: "conv3_3"
  param {
    lr_mult: 1
    decay_mult: 1
  }
  param {
    lr_mult: 2
    decay_mult: 0
  }
  convolution_param {
    num_output: 256
    pad: 1
    kernel_size: 3
    weight_filler {
      type: "msra"
    }
    bias_filler {
      type: "constant"
    }
  }
}
layer {
  name: "conv3_3_bn_tmp"
  type: "BatchNorm"
  bottom: "conv3_3"
  top: "conv3_3"
  batch_norm_param {
    use_global_stats: false
  }
}
layer {
  name: "conv3_3_scale"
  type: "Scale"
  bottom: "conv3_3"
  top: "conv3_3"
  scale_param {
    bias_term: true
  }
}
layer {
  name: "relu3_3"
  type: "ReLU"
  bottom: "conv3_3"
  top: "conv3_3"
}
layer {
  name: "pool3"
  type: "Pooling"
  bottom: "conv3_3"
  top: "pool3"
  top: "pool3_mask"
  pooling_param {
    pool: MAX
    kernel_size: 2
    stride: 2
  }
}
layer {
  name: "conv4_1"
  type: "Convolution"
  bottom: "pool3"
  top: "conv4_1"
  param {
    lr_mult: 1
    decay_mult: 1
  }
  param {
    lr_mult: 2
    decay_mult: 0
  }
  convolution_param {
    num_output: 512
    pad: 1
    kernel_size: 3
    weight_filler {
      type: "msra"
    }
    bias_filler {
      type: "constant"
    }
  }
}
layer {
  name: "conv4_1_bn_tmp"
  type: "BatchNorm"
  bottom: "conv4_1"
  top: "conv4_1"
  batch_norm_param {
    use_global_stats: false
  }
}
layer {
  name: "conv4_1_scale"
  type: "Scale"
  bottom: "conv4_1"
  top: "conv4_1"
  scale_param {
    bias_term: true
  }
}
layer {
  name: "relu4_1"
  type: "ReLU"
  bottom: "conv4_1"
  top: "conv4_1"
}
layer {
  name: "conv4_2"
  type: "Convolution"
  bottom: "conv4_1"
  top: "conv4_2"
  param {
    lr_mult: 1
    decay_mult: 1
  }
  param {
    lr_mult: 2
    decay_mult: 0
  }
  convolution_param {
    num_output: 512
    pad: 1
    kernel_size: 3
    weight_filler {
      type: "msra"
    }
    bias_filler {
      type: "constant"
    }
  }
}
layer {
  name: "conv4_2_bn_tmp"
  type: "BatchNorm"
  bottom: "conv4_2"
  top: "conv4_2"
  batch_norm_param {
    use_global_stats: false
  }
}
layer {
  name: "conv4_2_scale"
  type: "Scale"
  bottom: "conv4_2"
  top: "conv4_2"
  scale_param {
    bias_term: true
  }
}
layer {
  name: "relu4_2"
  type: "ReLU"
  bottom: "conv4_2"
  top: "conv4_2"
}
layer {
  name: "conv4_3"
  type: "Convolution"
  bottom: "conv4_2"
  top: "conv4_3"
  param {
    lr_mult: 1
    decay_mult: 1
  }
  param {
    lr_mult: 2
    decay_mult: 0
  }
  convolution_param {
    num_output: 512
    pad: 1
    kernel_size: 3
    weight_filler {
      type: "msra"
    }
    bias_filler {
      type: "constant"
    }
  }
}
layer {
  name: "conv4_3_bn_tmp"
  type: "BatchNorm"
  bottom: "conv4_3"
  top: "conv4_3"
  batch_norm_param {
    use_global_stats: false
  }
}
layer {
  name: "conv4_3_scale"
  type: "Scale"
  bottom: "conv4_3"
  top: "conv4_3"
  scale_param {
    bias_term: true
  }
}
layer {
  name: "relu4_3"
  type: "ReLU"
  bottom: "conv4_3"
  top: "conv4_3"
}
layer {
  name: "pool4"
  type: "Pooling"
  bottom: "conv4_3"
  top: "pool4"
  top: "pool4_mask"
  pooling_param {
    pool: MAX
    kernel_size: 2
    stride: 2
  }
}
layer {
  name: "conv5_1"
  type: "Convolution"
  bottom: "pool4"
  top: "conv5_1"
  param {
    lr_mult: 1
    decay_mult: 1
  }
  param {
    lr_mult: 2
    decay_mult: 0
  }
  convolution_param {
    num_output: 512
    pad: 1
    kernel_size: 3
    weight_filler {
      type: "msra"
    }
    bias_filler {
      type: "constant"
    }
  }
}
layer {
  name: "conv5_1_bn_tmp"
  type: "BatchNorm"
  bottom: "conv5_1"
  top: "conv5_1"
  batch_norm_param {
    use_global_stats: false
  }
}
layer {
  name: "conv5_1_scale"
  type: "Scale"
  bottom: "conv5_1"
  top: "conv5_1"
  scale_param {
    bias_term: true
  }
}
layer {
  name: "relu5_1"
  type: "ReLU"
  bottom: "conv5_1"
  top: "conv5_1"
}
layer {
  name: "conv5_2"
  type: "Convolution"
  bottom: "conv5_1"
  top: "conv5_2"
  param {
    lr_mult: 1
    decay_mult: 1
  }
  param {
    lr_mult: 2
    decay_mult: 0
  }
  convolution_param {
    num_output: 512
    pad: 1
    kernel_size: 3
    weight_filler {
      type: "msra"
    }
    bias_filler {
      type: "constant"
    }
  }
}
layer {
  name: "conv5_2_bn_tmp"
  type: "BatchNorm"
  bottom: "conv5_2"
  top: "conv5_2"
  batch_norm_param {
    use_global_stats: false
  }
}
layer {
  name: "conv5_2_scale"
  type: "Scale"
  bottom: "conv5_2"
  top: "conv5_2"
  scale_param {
    bias_term: true
  }
}
layer {
  name: "relu5_2"
  type: "ReLU"
  bottom: "conv5_2"
  top: "conv5_2"
}
layer {
  name: "conv5_3"
  type: "Convolution"
  bottom: "conv5_2"
  top: "conv5_3"
  param {
    lr_mult: 1
    decay_mult: 1
  }
  param {
    lr_mult: 2
    decay_mult: 0
  }
  convolution_param {
    num_output: 512
    pad: 1
    kernel_size: 3
    weight_filler {
      type: "msra"
    }
    bias_filler {
      type: "constant"
    }
  }
}
layer {
  name: "conv5_3_bn_tmp"
  type: "BatchNorm"
  bottom: "conv5_3"
  top: "conv5_3"
  batch_norm_param {
    use_global_stats: false
  }
}
layer {
  name: "conv5_3_scale"
  type: "Scale"
  bottom: "conv5_3"
  top: "conv5_3"
  scale_param {
    bias_term: true
  }
}
layer {
  name: "relu5_3"
  type: "ReLU"
  bottom: "conv5_3"
  top: "conv5_3"
}
layer {
  name: "pool5"
  type: "Pooling"
  bottom: "conv5_3"
  top: "pool5"
  top: "pool5_mask"
  pooling_param {
    pool: MAX
    kernel_size: 2
    stride: 2
  }
}
layer {
  name: "upsample5"
  type: "Upsample"
  bottom: "pool5"
  bottom: "pool5_mask"
  top: "pool5_D"
  upsample_param {
    scale: 2
    upsample_h: 23
    upsample_w: 30
  }
}
layer {
  name: "conv5_3_D"
  type: "Convolution"
  bottom: "pool5_D"
  top: "conv5_3_D"
  param {
    lr_mult: 1
    decay_mult: 1
  }
  param {
    lr_mult: 2
    decay_mult: 0
  }
  convolution_param {
    num_output: 512
    pad: 1
    kernel_size: 3
    weight_filler {
      type: "msra"
    }
    bias_filler {
      type: "constant"
    }
  }
}
layer {
  name: "conv5_3_D_bn_tmp"
  type: "BatchNorm"
  bottom: "conv5_3_D"
  top: "conv5_3_D"
  batch_norm_param {
    use_global_stats: false
  }
}
layer {
  name: "conv5_3_D_scale"
  type: "Scale"
  bottom: "conv5_3_D"
  top: "conv5_3_D"
  scale_param {
    bias_term: true
  }
}
layer {
  name: "relu5_3_D"
  type: "ReLU"
  bottom: "conv5_3_D"
  top: "conv5_3_D"
}
layer {
  name: "conv5_2_D"
  type: "Convolution"
  bottom: "conv5_3_D"
  top: "conv5_2_D"
  param {
    lr_mult: 1
    decay_mult: 1
  }
  param {
    lr_mult: 2
    decay_mult: 0
  }
  convolution_param {
    num_output: 512
    pad: 1
    kernel_size: 3
    weight_filler {
      type: "msra"
    }
    bias_filler {
      type: "constant"
    }
  }
}
layer {
  name: "conv5_2_D_bn_tmp"
  type: "BatchNorm"
  bottom: "conv5_2_D"
  top: "conv5_2_D"
  batch_norm_param {
    use_global_stats: false
  }
}
layer {
  name: "conv5_2_D_scale"
  type: "Scale"
  bottom: "conv5_2_D"
  top: "conv5_2_D"
  scale_param {
    bias_term: true
  }
}
layer {
  name: "relu5_2_D"
  type: "ReLU"
  bottom: "conv5_2_D"
  top: "conv5_2_D"
}
layer {
  name: "conv5_1_D"
  type: "Convolution"
  bottom: "conv5_2_D"
  top: "conv5_1_D"
  param {
    lr_mult: 1
    decay_mult: 1
  }
  param {
    lr_mult: 2
    decay_mult: 0
  }
  convolution_param {
    num_output: 512
    pad: 1
    kernel_size: 3
    weight_filler {
      type: "msra"
    }
    bias_filler {
      type: "constant"
    }
  }
}
layer {
  name: "conv5_1_D_bn_tmp"
  type: "BatchNorm"
  bottom: "conv5_1_D"
  top: "conv5_1_D"
  batch_norm_param {
    use_global_stats: false
  }
}
layer {
  name: "conv5_1_D_scale"
  type: "Scale"
  bottom: "conv5_1_D"
  top: "conv5_1_D"
  scale_param {
    bias_term: true
  }
}
layer {
  name: "relu5_1_D"
  type: "ReLU"
  bottom: "conv5_1_D"
  top: "conv5_1_D"
}
layer {
  name: "upsample4"
  type: "Upsample"
  bottom: "conv5_1_D"
  bottom: "pool4_mask"
  top: "pool4_D"
  upsample_param {
    scale: 2
    upsample_h: 45
    upsample_w: 60
  }
}
layer {
  name: "conv4_3_D"
  type: "Convolution"
  bottom: "pool4_D"
  top: "conv4_3_D"
  param {
    lr_mult: 1
    decay_mult: 1
  }
  param {
    lr_mult: 2
    decay_mult: 0
  }
  convolution_param {
    num_output: 512
    pad: 1
    kernel_size: 3
    weight_filler {
      type: "msra"
    }
    bias_filler {
      type: "constant"
    }
  }
}
layer {
  name: "conv4_3_D_bn_tmp"
  type: "BatchNorm"
  bottom: "conv4_3_D"
  top: "conv4_3_D"
  batch_norm_param {
    use_global_stats: false
  }
}
layer {
  name: "conv4_3_D_scale"
  type: "Scale"
  bottom: "conv4_3_D"
  top: "conv4_3_D"
  scale_param {
    bias_term: true
  }
}
layer {
  name: "relu4_3_D"
  type: "ReLU"
  bottom: "conv4_3_D"
  top: "conv4_3_D"
}
layer {
  name: "conv4_2_D"
  type: "Convolution"
  bottom: "conv4_3_D"
  top: "conv4_2_D"
  param {
    lr_mult: 1
    decay_mult: 1
  }
  param {
    lr_mult: 2
    decay_mult: 0
  }
  convolution_param {
    num_output: 512
    pad: 1
    kernel_size: 3
    weight_filler {
      type: "msra"
    }
    bias_filler {
      type: "constant"
    }
  }
}
layer {
  name: "conv4_2_D_bn_tmp"
  type: "BatchNorm"
  bottom: "conv4_2_D"
  top: "conv4_2_D"
  batch_norm_param {
    use_global_stats: false
  }
}
layer {
  name: "conv4_2_D_scale"
  type: "Scale"
  bottom: "conv4_2_D"
  top: "conv4_2_D"
  scale_param {
    bias_term: true
  }
}
layer {
  name: "relu4_2_D"
  type: "ReLU"
  bottom: "conv4_2_D"
  top: "conv4_2_D"
}
layer {
  name: "conv4_1_D"
  type: "Convolution"
  bottom: "conv4_2_D"
  top: "conv4_1_D"
  param {
    lr_mult: 1
    decay_mult: 1
  }
  param {
    lr_mult: 2
    decay_mult: 0
  }
  convolution_param {
    num_output: 256
    pad: 1
    kernel_size: 3
    weight_filler {
      type: "msra"
    }
    bias_filler {
      type: "constant"
    }
  }
}
layer {
  name: "conv4_1_D_bn_tmp"
  type: "BatchNorm"
  bottom: "conv4_1_D"
  top: "conv4_1_D"
  batch_norm_param {
    use_global_stats: false
  }
}
layer {
  name: "conv4_1_D_scale"
  type: "Scale"
  bottom: "conv4_1_D"
  top: "conv4_1_D"
  scale_param {
    bias_term: true
  }
}
layer {
  name: "relu4_1_D"
  type: "ReLU"
  bottom: "conv4_1_D"
  top: "conv4_1_D"
}
layer {
  name: "upsample3"
  type: "Upsample"
  bottom: "conv4_1_D"
  bottom: "pool3_mask"
  top: "pool3_D"
  upsample_param {
    scale: 2
  }
}
layer {
  name: "conv3_3_D"
  type: "Convolution"
  bottom: "pool3_D"
  top: "conv3_3_D"
  param {
    lr_mult: 1
    decay_mult: 1
  }
  param {
    lr_mult: 2
    decay_mult: 0
  }
  convolution_param {
    num_output: 256
    pad: 1
    kernel_size: 3
    weight_filler {
      type: "msra"
    }
    bias_filler {
      type: "constant"
    }
  }
}
layer {
  name: "conv3_3_D_bn_tmp"
  type: "BatchNorm"
  bottom: "conv3_3_D"
  top: "conv3_3_D"
  batch_norm_param {
    use_global_stats: false
  }
}
layer {
  name: "conv3_3_D_scale"
  type: "Scale"
  bottom: "conv3_3_D"
  top: "conv3_3_D"
  scale_param {
    bias_term: true
  }
}
layer {
  name: "relu3_3_D"
  type: "ReLU"
  bottom: "conv3_3_D"
  top: "conv3_3_D"
}
layer {
  name: "conv3_2_D"
  type: "Convolution"
  bottom: "conv3_3_D"
  top: "conv3_2_D"
  param {
    lr_mult: 1
    decay_mult: 1
  }
  param {
    lr_mult: 2
    decay_mult: 0
  }
  convolution_param {
    num_output: 256
    pad: 1
    kernel_size: 3
    weight_filler {
      type: "msra"
    }
    bias_filler {
      type: "constant"
    }
  }
}
layer {
  name: "conv3_2_D_bn_tmp"
  type: "BatchNorm"
  bottom: "conv3_2_D"
  top: "conv3_2_D"
  batch_norm_param {
    use_global_stats: false
  }
}
layer {
  name: "conv3_2_D_scale"
  type: "Scale"
  bottom: "conv3_2_D"
  top: "conv3_2_D"
  scale_param {
    bias_term: true
  }
}
layer {
  name: "relu3_2_D"
  type: "ReLU"
  bottom: "conv3_2_D"
  top: "conv3_2_D"
}
layer {
  name: "conv3_1_D"
  type: "Convolution"
  bottom: "conv3_2_D"
  top: "conv3_1_D"
  param {
    lr_mult: 1
    decay_mult: 1
  }
  param {
    lr_mult: 2
    decay_mult: 0
  }
  convolution_param {
    num_output: 128
    pad: 1
    kernel_size: 3
    weight_filler {
      type: "msra"
    }
    bias_filler {
      type: "constant"
    }
  }
}
layer {
  name: "conv3_1_D_bn_tmp"
  type: "BatchNorm"
  bottom: "conv3_1_D"
  top: "conv3_1_D"
  batch_norm_param {
    use_global_stats: false
  }
}
layer {
  name: "conv3_1_D_scale"
  type: "Scale"
  bottom: "conv3_1_D"
  top: "conv3_1_D"
  scale_param {
    bias_term: true
  }
}
layer {
  name: "relu3_1_D"
  type: "ReLU"
  bottom: "conv3_1_D"
  top: "conv3_1_D"
}
layer {
  name: "upsample2"
  type: "Upsample"
  bottom: "conv3_1_D"
  bottom: "pool2_mask"
  top: "pool2_D"
  upsample_param {
    scale: 2
  }
}
layer {
  name: "conv2_2_D"
  type: "Convolution"
  bottom: "pool2_D"
  top: "conv2_2_D"
  param {
    lr_mult: 1
    decay_mult: 1
  }
  param {
    lr_mult: 2
    decay_mult: 0
  }
  convolution_param {
    num_output: 128
    pad: 1
    kernel_size: 3
    weight_filler {
      type: "msra"
    }
    bias_filler {
      type: "constant"
    }
  }
}
layer {
  name: "conv2_2_D_bn_tmp"
  type: "BatchNorm"
  bottom: "conv2_2_D"
  top: "conv2_2_D"
  batch_norm_param {
    use_global_stats: false
  }
}
layer {
  name: "conv2_2_D_scale"
  type: "Scale"
  bottom: "conv2_2_D"
  top: "conv2_2_D"
  scale_param {
    bias_term: true
  }
}
layer {
  name: "relu2_2_D"
  type: "ReLU"
  bottom: "conv2_2_D"
  top: "conv2_2_D"
}
layer {
  name: "conv2_1_D"
  type: "Convolution"
  bottom: "conv2_2_D"
  top: "conv2_1_D"
  param {
    lr_mult: 1
    decay_mult: 1
  }
  param {
    lr_mult: 2
    decay_mult: 0
  }
  convolution_param {
    num_output: 64
    pad: 1
    kernel_size: 3
    weight_filler {
      type: "msra"
    }
    bias_filler {
      type: "constant"
    }
  }
}
layer {
  name: "conv2_1_D_bn_tmp"
  type: "BatchNorm"
  bottom: "conv2_1_D"
  top: "conv2_1_D"
  batch_norm_param {
    use_global_stats: false
  }
}
layer {
  name: "conv2_1_D_scale"
  type: "Scale"
  bottom: "conv2_1_D"
  top: "conv2_1_D"
  scale_param {
    bias_term: true
  }
}
layer {
  name: "relu2_1_D"
  type: "ReLU"
  bottom: "conv2_1_D"
  top: "conv2_1_D"
}
layer {
  name: "upsample1"
  type: "Upsample"
  bottom: "conv2_1_D"
  bottom: "pool1_mask"
  top: "pool1_D"
  upsample_param {
    scale: 2
  }
}
layer {
  name: "conv1_2_D"
  type: "Convolution"
  bottom: "pool1_D"
  top: "conv1_2_D"
  param {
    lr_mult: 1
    decay_mult: 1
  }
  param {
    lr_mult: 2
    decay_mult: 0
  }
  convolution_param {
    num_output: 64
    pad: 1
    kernel_size: 3
    weight_filler {
      type: "msra"
    }
    bias_filler {
      type: "constant"
    }
  }
}
layer {
  name: "conv1_2_D_bn_tmp"
  type: "BatchNorm"
  bottom: "conv1_2_D"
  top: "conv1_2_D"
  batch_norm_param {
    use_global_stats: false
  }
}
layer {
  name: "conv1_2_D_scale"
  type: "Scale"
  bottom: "conv1_2_D"
  top: "conv1_2_D"
  scale_param {
    bias_term: true
  }
}
layer {
  name: "relu1_2_D"
  type: "ReLU"
  bottom: "conv1_2_D"
  top: "conv1_2_D"
}
layer {
  name: "conv1_1_1_D"
  type: "Convolution"
  bottom: "conv1_2_D"
  top: "conv1_1_1_D"
  param {
    lr_mult: 1
    decay_mult: 1
  }
  param {
    lr_mult: 2
    decay_mult: 0
  }
  convolution_param {
    num_output: 2
    pad: 1
    kernel_size: 3
    weight_filler {
      type: "msra"
    }
    bias_filler {
      type: "constant"
    }
  }
}
layer {
  name: "loss"
  type: "SoftmaxWithLoss"
  bottom: "conv1_1_1_D"
  bottom: "label"
  top: "loss"
  loss_param {
    weight_by_label_freqs: true
    class_weighting: 0.7564
    class_weighting: 1.5572
  }
  softmax_param {
    engine: CAFFE
  }
}
layer {
  name: "accuracy"
  type: "Accuracy"
  bottom: "conv1_1_1_D"
  bottom: "label"
  top: "accuracy"
  top: "per_class_accuracy"
}
I0824 23:08:36.970727 44210 layer_factory.hpp:77] Creating layer data
I0824 23:08:36.970749 44210 net.cpp:100] Creating Layer data
I0824 23:08:36.970759 44210 net.cpp:408] data -> data
I0824 23:08:36.970789 44210 net.cpp:408] data -> label
I0824 23:08:36.970811 44210 hdf5_data_layer.cpp:79] Loading list of HDF5 filenames from: /disk2/nik/Analyzer/test/pocwisc7/HDF5Files/train_combined.txt
I0824 23:08:36.973834 44210 hdf5_data_layer.cpp:93] Number of HDF5 files: 48
I0824 23:08:36.975046 44210 hdf5.cpp:32] Datatype class: H5T_FLOAT
I0824 23:08:37.078507 44210 net.cpp:150] Setting up data
I0824 23:08:37.078536 44210 net.cpp:157] Top shape: 4 8 360 480 (5529600)
I0824 23:08:37.078548 44210 net.cpp:157] Top shape: 4 1 360 480 (691200)
I0824 23:08:37.078557 44210 net.cpp:165] Memory required for data: 24883200
I0824 23:08:37.078565 44210 layer_factory.hpp:77] Creating layer label_data_1_split
I0824 23:08:37.078580 44210 net.cpp:100] Creating Layer label_data_1_split
I0824 23:08:37.078589 44210 net.cpp:434] label_data_1_split <- label
I0824 23:08:37.078606 44210 net.cpp:408] label_data_1_split -> label_data_1_split_0
I0824 23:08:37.078619 44210 net.cpp:408] label_data_1_split -> label_data_1_split_1
I0824 23:08:37.078662 44210 net.cpp:150] Setting up label_data_1_split
I0824 23:08:37.078670 44210 net.cpp:157] Top shape: 4 1 360 480 (691200)
I0824 23:08:37.078676 44210 net.cpp:157] Top shape: 4 1 360 480 (691200)
I0824 23:08:37.078680 44210 net.cpp:165] Memory required for data: 30412800
I0824 23:08:37.078685 44210 layer_factory.hpp:77] Creating layer conv1_1_1
I0824 23:08:37.078706 44210 net.cpp:100] Creating Layer conv1_1_1
I0824 23:08:37.078712 44210 net.cpp:434] conv1_1_1 <- data
I0824 23:08:37.078718 44210 net.cpp:408] conv1_1_1 -> conv1_1_1
I0824 23:08:37.600358 44210 net.cpp:150] Setting up conv1_1_1
I0824 23:08:37.600399 44210 net.cpp:157] Top shape: 4 64 360 480 (44236800)
I0824 23:08:37.600404 44210 net.cpp:165] Memory required for data: 207360000
I0824 23:08:37.600436 44210 layer_factory.hpp:77] Creating layer conv1_1_1_bn
I0824 23:08:37.600455 44210 net.cpp:100] Creating Layer conv1_1_1_bn
I0824 23:08:37.600462 44210 net.cpp:434] conv1_1_1_bn <- conv1_1_1
I0824 23:08:37.600471 44210 net.cpp:395] conv1_1_1_bn -> conv1_1_1 (in-place)
I0824 23:08:37.600872 44210 net.cpp:150] Setting up conv1_1_1_bn
I0824 23:08:37.600883 44210 net.cpp:157] Top shape: 4 64 360 480 (44236800)
I0824 23:08:37.600893 44210 net.cpp:165] Memory required for data: 384307200
I0824 23:08:37.600906 44210 layer_factory.hpp:77] Creating layer conv1_1_1_scale
I0824 23:08:37.600924 44210 net.cpp:100] Creating Layer conv1_1_1_scale
I0824 23:08:37.600930 44210 net.cpp:434] conv1_1_1_scale <- conv1_1_1
I0824 23:08:37.600936 44210 net.cpp:395] conv1_1_1_scale -> conv1_1_1 (in-place)
I0824 23:08:37.600988 44210 layer_factory.hpp:77] Creating layer conv1_1_1_scale
I0824 23:08:37.602650 44210 net.cpp:150] Setting up conv1_1_1_scale
I0824 23:08:37.602668 44210 net.cpp:157] Top shape: 4 64 360 480 (44236800)
I0824 23:08:37.602676 44210 net.cpp:165] Memory required for data: 561254400
I0824 23:08:37.602685 44210 layer_factory.hpp:77] Creating layer relu1_1
I0824 23:08:37.602696 44210 net.cpp:100] Creating Layer relu1_1
I0824 23:08:37.602702 44210 net.cpp:434] relu1_1 <- conv1_1_1
I0824 23:08:37.602708 44210 net.cpp:395] relu1_1 -> conv1_1_1 (in-place)
I0824 23:08:37.602941 44210 net.cpp:150] Setting up relu1_1
I0824 23:08:37.602953 44210 net.cpp:157] Top shape: 4 64 360 480 (44236800)
I0824 23:08:37.602958 44210 net.cpp:165] Memory required for data: 738201600
I0824 23:08:37.602962 44210 layer_factory.hpp:77] Creating layer conv1_2
I0824 23:08:37.602977 44210 net.cpp:100] Creating Layer conv1_2
I0824 23:08:37.602982 44210 net.cpp:434] conv1_2 <- conv1_1_1
I0824 23:08:37.602989 44210 net.cpp:408] conv1_2 -> conv1_2
I0824 23:08:37.607216 44210 net.cpp:150] Setting up conv1_2
I0824 23:08:37.607234 44210 net.cpp:157] Top shape: 4 64 360 480 (44236800)
I0824 23:08:37.607244 44210 net.cpp:165] Memory required for data: 915148800
I0824 23:08:37.607257 44210 layer_factory.hpp:77] Creating layer conv1_2_bn_tmp
I0824 23:08:37.607267 44210 net.cpp:100] Creating Layer conv1_2_bn_tmp
I0824 23:08:37.607276 44210 net.cpp:434] conv1_2_bn_tmp <- conv1_2
I0824 23:08:37.607282 44210 net.cpp:395] conv1_2_bn_tmp -> conv1_2 (in-place)
I0824 23:08:37.608834 44210 net.cpp:150] Setting up conv1_2_bn_tmp
I0824 23:08:37.608850 44210 net.cpp:157] Top shape: 4 64 360 480 (44236800)
I0824 23:08:37.608857 44210 net.cpp:165] Memory required for data: 1092096000
I0824 23:08:37.608868 44210 layer_factory.hpp:77] Creating layer conv1_2_scale
I0824 23:08:37.608878 44210 net.cpp:100] Creating Layer conv1_2_scale
I0824 23:08:37.608885 44210 net.cpp:434] conv1_2_scale <- conv1_2
I0824 23:08:37.608891 44210 net.cpp:395] conv1_2_scale -> conv1_2 (in-place)
I0824 23:08:37.608937 44210 layer_factory.hpp:77] Creating layer conv1_2_scale
I0824 23:08:37.609313 44210 net.cpp:150] Setting up conv1_2_scale
I0824 23:08:37.609323 44210 net.cpp:157] Top shape: 4 64 360 480 (44236800)
I0824 23:08:37.609328 44210 net.cpp:165] Memory required for data: 1269043200
I0824 23:08:37.609334 44210 layer_factory.hpp:77] Creating layer relu1_2
I0824 23:08:37.609342 44210 net.cpp:100] Creating Layer relu1_2
I0824 23:08:37.609347 44210 net.cpp:434] relu1_2 <- conv1_2
I0824 23:08:37.609352 44210 net.cpp:395] relu1_2 -> conv1_2 (in-place)
I0824 23:08:37.609560 44210 net.cpp:150] Setting up relu1_2
I0824 23:08:37.609570 44210 net.cpp:157] Top shape: 4 64 360 480 (44236800)
I0824 23:08:37.609575 44210 net.cpp:165] Memory required for data: 1445990400
I0824 23:08:37.609578 44210 layer_factory.hpp:77] Creating layer pool1
I0824 23:08:37.609586 44210 layer_factory.cpp:91] cuDNN does not support multiple tops. Using Caffe's own pooling layer.
I0824 23:08:37.609592 44210 net.cpp:100] Creating Layer pool1
I0824 23:08:37.609597 44210 net.cpp:434] pool1 <- conv1_2
I0824 23:08:37.609603 44210 net.cpp:408] pool1 -> pool1
I0824 23:08:37.609614 44210 net.cpp:408] pool1 -> pool1_mask
I0824 23:08:37.609673 44210 net.cpp:150] Setting up pool1
I0824 23:08:37.609680 44210 net.cpp:157] Top shape: 4 64 180 240 (11059200)
I0824 23:08:37.609685 44210 net.cpp:157] Top shape: 4 64 180 240 (11059200)
I0824 23:08:37.609690 44210 net.cpp:165] Memory required for data: 1534464000
I0824 23:08:37.609695 44210 layer_factory.hpp:77] Creating layer conv2_1
I0824 23:08:37.609709 44210 net.cpp:100] Creating Layer conv2_1
I0824 23:08:37.609714 44210 net.cpp:434] conv2_1 <- pool1
I0824 23:08:37.609719 44210 net.cpp:408] conv2_1 -> conv2_1
I0824 23:08:37.615838 44210 net.cpp:150] Setting up conv2_1
I0824 23:08:37.615855 44210 net.cpp:157] Top shape: 4 128 180 240 (22118400)
I0824 23:08:37.615867 44210 net.cpp:165] Memory required for data: 1622937600
I0824 23:08:37.615876 44210 layer_factory.hpp:77] Creating layer conv2_1_bn_tmp
I0824 23:08:37.615885 44210 net.cpp:100] Creating Layer conv2_1_bn_tmp
I0824 23:08:37.615890 44210 net.cpp:434] conv2_1_bn_tmp <- conv2_1
I0824 23:08:37.615895 44210 net.cpp:395] conv2_1_bn_tmp -> conv2_1 (in-place)
I0824 23:08:37.616127 44210 net.cpp:150] Setting up conv2_1_bn_tmp
I0824 23:08:37.616137 44210 net.cpp:157] Top shape: 4 128 180 240 (22118400)
I0824 23:08:37.616140 44210 net.cpp:165] Memory required for data: 1711411200
I0824 23:08:37.616160 44210 layer_factory.hpp:77] Creating layer conv2_1_scale
I0824 23:08:37.616183 44210 net.cpp:100] Creating Layer conv2_1_scale
I0824 23:08:37.616188 44210 net.cpp:434] conv2_1_scale <- conv2_1
I0824 23:08:37.616194 44210 net.cpp:395] conv2_1_scale -> conv2_1 (in-place)
I0824 23:08:37.616240 44210 layer_factory.hpp:77] Creating layer conv2_1_scale
I0824 23:08:37.616417 44210 net.cpp:150] Setting up conv2_1_scale
I0824 23:08:37.616427 44210 net.cpp:157] Top shape: 4 128 180 240 (22118400)
I0824 23:08:37.616431 44210 net.cpp:165] Memory required for data: 1799884800
I0824 23:08:37.616439 44210 layer_factory.hpp:77] Creating layer relu2_1
I0824 23:08:37.616449 44210 net.cpp:100] Creating Layer relu2_1
I0824 23:08:37.616454 44210 net.cpp:434] relu2_1 <- conv2_1
I0824 23:08:37.616461 44210 net.cpp:395] relu2_1 -> conv2_1 (in-place)
I0824 23:08:37.617497 44210 net.cpp:150] Setting up relu2_1
I0824 23:08:37.617513 44210 net.cpp:157] Top shape: 4 128 180 240 (22118400)
I0824 23:08:37.617518 44210 net.cpp:165] Memory required for data: 1888358400
I0824 23:08:37.617525 44210 layer_factory.hpp:77] Creating layer conv2_2
I0824 23:08:37.617538 44210 net.cpp:100] Creating Layer conv2_2
I0824 23:08:37.617544 44210 net.cpp:434] conv2_2 <- conv2_1
I0824 23:08:37.617552 44210 net.cpp:408] conv2_2 -> conv2_2
I0824 23:08:37.624904 44210 net.cpp:150] Setting up conv2_2
I0824 23:08:37.624922 44210 net.cpp:157] Top shape: 4 128 180 240 (22118400)
I0824 23:08:37.624930 44210 net.cpp:165] Memory required for data: 1976832000
I0824 23:08:37.624939 44210 layer_factory.hpp:77] Creating layer conv2_2_bn_tmp
I0824 23:08:37.624951 44210 net.cpp:100] Creating Layer conv2_2_bn_tmp
I0824 23:08:37.624958 44210 net.cpp:434] conv2_2_bn_tmp <- conv2_2
I0824 23:08:37.624963 44210 net.cpp:395] conv2_2_bn_tmp -> conv2_2 (in-place)
I0824 23:08:37.625197 44210 net.cpp:150] Setting up conv2_2_bn_tmp
I0824 23:08:37.625207 44210 net.cpp:157] Top shape: 4 128 180 240 (22118400)
I0824 23:08:37.625211 44210 net.cpp:165] Memory required for data: 2065305600
I0824 23:08:37.625221 44210 layer_factory.hpp:77] Creating layer conv2_2_scale
I0824 23:08:37.625231 44210 net.cpp:100] Creating Layer conv2_2_scale
I0824 23:08:37.625239 44210 net.cpp:434] conv2_2_scale <- conv2_2
I0824 23:08:37.625246 44210 net.cpp:395] conv2_2_scale -> conv2_2 (in-place)
I0824 23:08:37.625288 44210 layer_factory.hpp:77] Creating layer conv2_2_scale
I0824 23:08:37.625474 44210 net.cpp:150] Setting up conv2_2_scale
I0824 23:08:37.625484 44210 net.cpp:157] Top shape: 4 128 180 240 (22118400)
I0824 23:08:37.625488 44210 net.cpp:165] Memory required for data: 2153779200
I0824 23:08:37.625495 44210 layer_factory.hpp:77] Creating layer relu2_2
I0824 23:08:37.625502 44210 net.cpp:100] Creating Layer relu2_2
I0824 23:08:37.625507 44210 net.cpp:434] relu2_2 <- conv2_2
I0824 23:08:37.625514 44210 net.cpp:395] relu2_2 -> conv2_2 (in-place)
I0824 23:08:37.625711 44210 net.cpp:150] Setting up relu2_2
I0824 23:08:37.625721 44210 net.cpp:157] Top shape: 4 128 180 240 (22118400)
I0824 23:08:37.625726 44210 net.cpp:165] Memory required for data: 2242252800
I0824 23:08:37.625732 44210 layer_factory.hpp:77] Creating layer pool2
I0824 23:08:37.625738 44210 layer_factory.cpp:91] cuDNN does not support multiple tops. Using Caffe's own pooling layer.
I0824 23:08:37.625744 44210 net.cpp:100] Creating Layer pool2
I0824 23:08:37.625749 44210 net.cpp:434] pool2 <- conv2_2
I0824 23:08:37.625756 44210 net.cpp:408] pool2 -> pool2
I0824 23:08:37.625764 44210 net.cpp:408] pool2 -> pool2_mask
I0824 23:08:37.625811 44210 net.cpp:150] Setting up pool2
I0824 23:08:37.625818 44210 net.cpp:157] Top shape: 4 128 90 120 (5529600)
I0824 23:08:37.625823 44210 net.cpp:157] Top shape: 4 128 90 120 (5529600)
I0824 23:08:37.625828 44210 net.cpp:165] Memory required for data: 2286489600
I0824 23:08:37.625831 44210 layer_factory.hpp:77] Creating layer conv3_1
I0824 23:08:37.625844 44210 net.cpp:100] Creating Layer conv3_1
I0824 23:08:37.625849 44210 net.cpp:434] conv3_1 <- pool2
I0824 23:08:37.625855 44210 net.cpp:408] conv3_1 -> conv3_1
I0824 23:08:37.637965 44210 net.cpp:150] Setting up conv3_1
I0824 23:08:37.637996 44210 net.cpp:157] Top shape: 4 256 90 120 (11059200)
I0824 23:08:37.638007 44210 net.cpp:165] Memory required for data: 2330726400
I0824 23:08:37.638016 44210 layer_factory.hpp:77] Creating layer conv3_1_bn_tmp
I0824 23:08:37.638026 44210 net.cpp:100] Creating Layer conv3_1_bn_tmp
I0824 23:08:37.638033 44210 net.cpp:434] conv3_1_bn_tmp <- conv3_1
I0824 23:08:37.638041 44210 net.cpp:395] conv3_1_bn_tmp -> conv3_1 (in-place)
I0824 23:08:37.638262 44210 net.cpp:150] Setting up conv3_1_bn_tmp
I0824 23:08:37.638270 44210 net.cpp:157] Top shape: 4 256 90 120 (11059200)
I0824 23:08:37.638279 44210 net.cpp:165] Memory required for data: 2374963200
I0824 23:08:37.638293 44210 layer_factory.hpp:77] Creating layer conv3_1_scale
I0824 23:08:37.638303 44210 net.cpp:100] Creating Layer conv3_1_scale
I0824 23:08:37.638309 44210 net.cpp:434] conv3_1_scale <- conv3_1
I0824 23:08:37.638314 44210 net.cpp:395] conv3_1_scale -> conv3_1 (in-place)
I0824 23:08:37.638357 44210 layer_factory.hpp:77] Creating layer conv3_1_scale
I0824 23:08:37.638494 44210 net.cpp:150] Setting up conv3_1_scale
I0824 23:08:37.638502 44210 net.cpp:157] Top shape: 4 256 90 120 (11059200)
I0824 23:08:37.638509 44210 net.cpp:165] Memory required for data: 2419200000
I0824 23:08:37.638517 44210 layer_factory.hpp:77] Creating layer relu3_1
I0824 23:08:37.638526 44210 net.cpp:100] Creating Layer relu3_1
I0824 23:08:37.638531 44210 net.cpp:434] relu3_1 <- conv3_1
I0824 23:08:37.638537 44210 net.cpp:395] relu3_1 -> conv3_1 (in-place)
I0824 23:08:37.638736 44210 net.cpp:150] Setting up relu3_1
I0824 23:08:37.638746 44210 net.cpp:157] Top shape: 4 256 90 120 (11059200)
I0824 23:08:37.638751 44210 net.cpp:165] Memory required for data: 2463436800
I0824 23:08:37.638756 44210 layer_factory.hpp:77] Creating layer conv3_2
I0824 23:08:37.638768 44210 net.cpp:100] Creating Layer conv3_2
I0824 23:08:37.638773 44210 net.cpp:434] conv3_2 <- conv3_1
I0824 23:08:37.638782 44210 net.cpp:408] conv3_2 -> conv3_2
I0824 23:08:37.662006 44210 net.cpp:150] Setting up conv3_2
I0824 23:08:37.662024 44210 net.cpp:157] Top shape: 4 256 90 120 (11059200)
I0824 23:08:37.662034 44210 net.cpp:165] Memory required for data: 2507673600
I0824 23:08:37.662042 44210 layer_factory.hpp:77] Creating layer conv3_2_bn_tmp
I0824 23:08:37.662056 44210 net.cpp:100] Creating Layer conv3_2_bn_tmp
I0824 23:08:37.662065 44210 net.cpp:434] conv3_2_bn_tmp <- conv3_2
I0824 23:08:37.662070 44210 net.cpp:395] conv3_2_bn_tmp -> conv3_2 (in-place)
I0824 23:08:37.662286 44210 net.cpp:150] Setting up conv3_2_bn_tmp
I0824 23:08:37.662294 44210 net.cpp:157] Top shape: 4 256 90 120 (11059200)
I0824 23:08:37.662298 44210 net.cpp:165] Memory required for data: 2551910400
I0824 23:08:37.662307 44210 layer_factory.hpp:77] Creating layer conv3_2_scale
I0824 23:08:37.662319 44210 net.cpp:100] Creating Layer conv3_2_scale
I0824 23:08:37.662324 44210 net.cpp:434] conv3_2_scale <- conv3_2
I0824 23:08:37.662330 44210 net.cpp:395] conv3_2_scale -> conv3_2 (in-place)
I0824 23:08:37.662374 44210 layer_factory.hpp:77] Creating layer conv3_2_scale
I0824 23:08:37.662513 44210 net.cpp:150] Setting up conv3_2_scale
I0824 23:08:37.662523 44210 net.cpp:157] Top shape: 4 256 90 120 (11059200)
I0824 23:08:37.662528 44210 net.cpp:165] Memory required for data: 2596147200
I0824 23:08:37.662534 44210 layer_factory.hpp:77] Creating layer relu3_2
I0824 23:08:37.662541 44210 net.cpp:100] Creating Layer relu3_2
I0824 23:08:37.662547 44210 net.cpp:434] relu3_2 <- conv3_2
I0824 23:08:37.662552 44210 net.cpp:395] relu3_2 -> conv3_2 (in-place)
I0824 23:08:37.662755 44210 net.cpp:150] Setting up relu3_2
I0824 23:08:37.662765 44210 net.cpp:157] Top shape: 4 256 90 120 (11059200)
I0824 23:08:37.662770 44210 net.cpp:165] Memory required for data: 2640384000
I0824 23:08:37.662775 44210 layer_factory.hpp:77] Creating layer conv3_3
I0824 23:08:37.662786 44210 net.cpp:100] Creating Layer conv3_3
I0824 23:08:37.662791 44210 net.cpp:434] conv3_3 <- conv3_2
I0824 23:08:37.662797 44210 net.cpp:408] conv3_3 -> conv3_3
I0824 23:08:37.686049 44210 net.cpp:150] Setting up conv3_3
I0824 23:08:37.686081 44210 net.cpp:157] Top shape: 4 256 90 120 (11059200)
I0824 23:08:37.686090 44210 net.cpp:165] Memory required for data: 2684620800
I0824 23:08:37.686100 44210 layer_factory.hpp:77] Creating layer conv3_3_bn_tmp
I0824 23:08:37.686113 44210 net.cpp:100] Creating Layer conv3_3_bn_tmp
I0824 23:08:37.686121 44210 net.cpp:434] conv3_3_bn_tmp <- conv3_3
I0824 23:08:37.686127 44210 net.cpp:395] conv3_3_bn_tmp -> conv3_3 (in-place)
I0824 23:08:37.686347 44210 net.cpp:150] Setting up conv3_3_bn_tmp
I0824 23:08:37.686357 44210 net.cpp:157] Top shape: 4 256 90 120 (11059200)
I0824 23:08:37.686360 44210 net.cpp:165] Memory required for data: 2728857600
I0824 23:08:37.686375 44210 layer_factory.hpp:77] Creating layer conv3_3_scale
I0824 23:08:37.686388 44210 net.cpp:100] Creating Layer conv3_3_scale
I0824 23:08:37.686393 44210 net.cpp:434] conv3_3_scale <- conv3_3
I0824 23:08:37.686398 44210 net.cpp:395] conv3_3_scale -> conv3_3 (in-place)
I0824 23:08:37.686444 44210 layer_factory.hpp:77] Creating layer conv3_3_scale
I0824 23:08:37.686583 44210 net.cpp:150] Setting up conv3_3_scale
I0824 23:08:37.686591 44210 net.cpp:157] Top shape: 4 256 90 120 (11059200)
I0824 23:08:37.686596 44210 net.cpp:165] Memory required for data: 2773094400
I0824 23:08:37.686604 44210 layer_factory.hpp:77] Creating layer relu3_3
I0824 23:08:37.686611 44210 net.cpp:100] Creating Layer relu3_3
I0824 23:08:37.686616 44210 net.cpp:434] relu3_3 <- conv3_3
I0824 23:08:37.686621 44210 net.cpp:395] relu3_3 -> conv3_3 (in-place)
I0824 23:08:37.686827 44210 net.cpp:150] Setting up relu3_3
I0824 23:08:37.686837 44210 net.cpp:157] Top shape: 4 256 90 120 (11059200)
I0824 23:08:37.686842 44210 net.cpp:165] Memory required for data: 2817331200
I0824 23:08:37.686846 44210 layer_factory.hpp:77] Creating layer pool3
I0824 23:08:37.686851 44210 layer_factory.cpp:91] cuDNN does not support multiple tops. Using Caffe's own pooling layer.
I0824 23:08:37.686861 44210 net.cpp:100] Creating Layer pool3
I0824 23:08:37.686867 44210 net.cpp:434] pool3 <- conv3_3
I0824 23:08:37.686873 44210 net.cpp:408] pool3 -> pool3
I0824 23:08:37.686882 44210 net.cpp:408] pool3 -> pool3_mask
I0824 23:08:37.686930 44210 net.cpp:150] Setting up pool3
I0824 23:08:37.686939 44210 net.cpp:157] Top shape: 4 256 45 60 (2764800)
I0824 23:08:37.686944 44210 net.cpp:157] Top shape: 4 256 45 60 (2764800)
I0824 23:08:37.686949 44210 net.cpp:165] Memory required for data: 2839449600
I0824 23:08:37.686951 44210 layer_factory.hpp:77] Creating layer conv4_1
I0824 23:08:37.686964 44210 net.cpp:100] Creating Layer conv4_1
I0824 23:08:37.686969 44210 net.cpp:434] conv4_1 <- pool3
I0824 23:08:37.686975 44210 net.cpp:408] conv4_1 -> conv4_1
I0824 23:08:37.733089 44210 net.cpp:150] Setting up conv4_1
I0824 23:08:37.733108 44210 net.cpp:157] Top shape: 4 512 45 60 (5529600)
I0824 23:08:37.733119 44210 net.cpp:165] Memory required for data: 2861568000
I0824 23:08:37.733130 44210 layer_factory.hpp:77] Creating layer conv4_1_bn_tmp
I0824 23:08:37.733140 44210 net.cpp:100] Creating Layer conv4_1_bn_tmp
I0824 23:08:37.733147 44210 net.cpp:434] conv4_1_bn_tmp <- conv4_1
I0824 23:08:37.733155 44210 net.cpp:395] conv4_1_bn_tmp -> conv4_1 (in-place)
I0824 23:08:37.733388 44210 net.cpp:150] Setting up conv4_1_bn_tmp
I0824 23:08:37.733399 44210 net.cpp:157] Top shape: 4 512 45 60 (5529600)
I0824 23:08:37.733403 44210 net.cpp:165] Memory required for data: 2883686400
I0824 23:08:37.733412 44210 layer_factory.hpp:77] Creating layer conv4_1_scale
I0824 23:08:37.733423 44210 net.cpp:100] Creating Layer conv4_1_scale
I0824 23:08:37.733428 44210 net.cpp:434] conv4_1_scale <- conv4_1
I0824 23:08:37.733434 44210 net.cpp:395] conv4_1_scale -> conv4_1 (in-place)
I0824 23:08:37.733479 44210 layer_factory.hpp:77] Creating layer conv4_1_scale
I0824 23:08:37.733606 44210 net.cpp:150] Setting up conv4_1_scale
I0824 23:08:37.733614 44210 net.cpp:157] Top shape: 4 512 45 60 (5529600)
I0824 23:08:37.733618 44210 net.cpp:165] Memory required for data: 2905804800
I0824 23:08:37.733625 44210 layer_factory.hpp:77] Creating layer relu4_1
I0824 23:08:37.733649 44210 net.cpp:100] Creating Layer relu4_1
I0824 23:08:37.733654 44210 net.cpp:434] relu4_1 <- conv4_1
I0824 23:08:37.733660 44210 net.cpp:395] relu4_1 -> conv4_1 (in-place)
I0824 23:08:37.733873 44210 net.cpp:150] Setting up relu4_1
I0824 23:08:37.733883 44210 net.cpp:157] Top shape: 4 512 45 60 (5529600)
I0824 23:08:37.733888 44210 net.cpp:165] Memory required for data: 2927923200
I0824 23:08:37.733892 44210 layer_factory.hpp:77] Creating layer conv4_2
I0824 23:08:37.733904 44210 net.cpp:100] Creating Layer conv4_2
I0824 23:08:37.733911 44210 net.cpp:434] conv4_2 <- conv4_1
I0824 23:08:37.733917 44210 net.cpp:408] conv4_2 -> conv4_2
I0824 23:08:37.817332 44210 net.cpp:150] Setting up conv4_2
I0824 23:08:37.817350 44210 net.cpp:157] Top shape: 4 512 45 60 (5529600)
I0824 23:08:37.817356 44210 net.cpp:165] Memory required for data: 2950041600
I0824 23:08:37.817384 44210 layer_factory.hpp:77] Creating layer conv4_2_bn_tmp
I0824 23:08:37.817394 44210 net.cpp:100] Creating Layer conv4_2_bn_tmp
I0824 23:08:37.817399 44210 net.cpp:434] conv4_2_bn_tmp <- conv4_2
I0824 23:08:37.817406 44210 net.cpp:395] conv4_2_bn_tmp -> conv4_2 (in-place)
I0824 23:08:37.817617 44210 net.cpp:150] Setting up conv4_2_bn_tmp
I0824 23:08:37.817627 44210 net.cpp:157] Top shape: 4 512 45 60 (5529600)
I0824 23:08:37.817631 44210 net.cpp:165] Memory required for data: 2972160000
I0824 23:08:37.817641 44210 layer_factory.hpp:77] Creating layer conv4_2_scale
I0824 23:08:37.817656 44210 net.cpp:100] Creating Layer conv4_2_scale
I0824 23:08:37.817663 44210 net.cpp:434] conv4_2_scale <- conv4_2
I0824 23:08:37.817668 44210 net.cpp:395] conv4_2_scale -> conv4_2 (in-place)
I0824 23:08:37.817715 44210 layer_factory.hpp:77] Creating layer conv4_2_scale
I0824 23:08:37.817842 44210 net.cpp:150] Setting up conv4_2_scale
I0824 23:08:37.817852 44210 net.cpp:157] Top shape: 4 512 45 60 (5529600)
I0824 23:08:37.817854 44210 net.cpp:165] Memory required for data: 2994278400
I0824 23:08:37.817862 44210 layer_factory.hpp:77] Creating layer relu4_2
I0824 23:08:37.817870 44210 net.cpp:100] Creating Layer relu4_2
I0824 23:08:37.817875 44210 net.cpp:434] relu4_2 <- conv4_2
I0824 23:08:37.817881 44210 net.cpp:395] relu4_2 -> conv4_2 (in-place)
I0824 23:08:37.818939 44210 net.cpp:150] Setting up relu4_2
I0824 23:08:37.818955 44210 net.cpp:157] Top shape: 4 512 45 60 (5529600)
I0824 23:08:37.818960 44210 net.cpp:165] Memory required for data: 3016396800
I0824 23:08:37.818965 44210 layer_factory.hpp:77] Creating layer conv4_3
I0824 23:08:37.818979 44210 net.cpp:100] Creating Layer conv4_3
I0824 23:08:37.818985 44210 net.cpp:434] conv4_3 <- conv4_2
I0824 23:08:37.818994 44210 net.cpp:408] conv4_3 -> conv4_3
I0824 23:08:37.902564 44210 net.cpp:150] Setting up conv4_3
I0824 23:08:37.902582 44210 net.cpp:157] Top shape: 4 512 45 60 (5529600)
I0824 23:08:37.902587 44210 net.cpp:165] Memory required for data: 3038515200
I0824 23:08:37.902611 44210 layer_factory.hpp:77] Creating layer conv4_3_bn_tmp
I0824 23:08:37.902623 44210 net.cpp:100] Creating Layer conv4_3_bn_tmp
I0824 23:08:37.902631 44210 net.cpp:434] conv4_3_bn_tmp <- conv4_3
I0824 23:08:37.902637 44210 net.cpp:395] conv4_3_bn_tmp -> conv4_3 (in-place)
I0824 23:08:37.902853 44210 net.cpp:150] Setting up conv4_3_bn_tmp
I0824 23:08:37.902863 44210 net.cpp:157] Top shape: 4 512 45 60 (5529600)
I0824 23:08:37.902871 44210 net.cpp:165] Memory required for data: 3060633600
I0824 23:08:37.902881 44210 layer_factory.hpp:77] Creating layer conv4_3_scale
I0824 23:08:37.902890 44210 net.cpp:100] Creating Layer conv4_3_scale
I0824 23:08:37.902895 44210 net.cpp:434] conv4_3_scale <- conv4_3
I0824 23:08:37.902901 44210 net.cpp:395] conv4_3_scale -> conv4_3 (in-place)
I0824 23:08:37.902945 44210 layer_factory.hpp:77] Creating layer conv4_3_scale
I0824 23:08:37.903076 44210 net.cpp:150] Setting up conv4_3_scale
I0824 23:08:37.903085 44210 net.cpp:157] Top shape: 4 512 45 60 (5529600)
I0824 23:08:37.903090 44210 net.cpp:165] Memory required for data: 3082752000
I0824 23:08:37.903097 44210 layer_factory.hpp:77] Creating layer relu4_3
I0824 23:08:37.903120 44210 net.cpp:100] Creating Layer relu4_3
I0824 23:08:37.903126 44210 net.cpp:434] relu4_3 <- conv4_3
I0824 23:08:37.903132 44210 net.cpp:395] relu4_3 -> conv4_3 (in-place)
I0824 23:08:37.903338 44210 net.cpp:150] Setting up relu4_3
I0824 23:08:37.903348 44210 net.cpp:157] Top shape: 4 512 45 60 (5529600)
I0824 23:08:37.903353 44210 net.cpp:165] Memory required for data: 3104870400
I0824 23:08:37.903357 44210 layer_factory.hpp:77] Creating layer pool4
I0824 23:08:37.903362 44210 layer_factory.cpp:91] cuDNN does not support multiple tops. Using Caffe's own pooling layer.
I0824 23:08:37.903370 44210 net.cpp:100] Creating Layer pool4
I0824 23:08:37.903375 44210 net.cpp:434] pool4 <- conv4_3
I0824 23:08:37.903383 44210 net.cpp:408] pool4 -> pool4
I0824 23:08:37.903393 44210 net.cpp:408] pool4 -> pool4_mask
I0824 23:08:37.903441 44210 net.cpp:150] Setting up pool4
I0824 23:08:37.903450 44210 net.cpp:157] Top shape: 4 512 23 30 (1413120)
I0824 23:08:37.903453 44210 net.cpp:157] Top shape: 4 512 23 30 (1413120)
I0824 23:08:37.903458 44210 net.cpp:165] Memory required for data: 3116175360
I0824 23:08:37.903463 44210 layer_factory.hpp:77] Creating layer conv5_1
I0824 23:08:37.903477 44210 net.cpp:100] Creating Layer conv5_1
I0824 23:08:37.903482 44210 net.cpp:434] conv5_1 <- pool4
I0824 23:08:37.903489 44210 net.cpp:408] conv5_1 -> conv5_1
I0824 23:08:37.987026 44210 net.cpp:150] Setting up conv5_1
I0824 23:08:37.987046 44210 net.cpp:157] Top shape: 4 512 23 30 (1413120)
I0824 23:08:37.987057 44210 net.cpp:165] Memory required for data: 3121827840
I0824 23:08:37.987066 44210 layer_factory.hpp:77] Creating layer conv5_1_bn_tmp
I0824 23:08:37.987074 44210 net.cpp:100] Creating Layer conv5_1_bn_tmp
I0824 23:08:37.987083 44210 net.cpp:434] conv5_1_bn_tmp <- conv5_1
I0824 23:08:37.987090 44210 net.cpp:395] conv5_1_bn_tmp -> conv5_1 (in-place)
I0824 23:08:37.987308 44210 net.cpp:150] Setting up conv5_1_bn_tmp
I0824 23:08:37.987316 44210 net.cpp:157] Top shape: 4 512 23 30 (1413120)
I0824 23:08:37.987320 44210 net.cpp:165] Memory required for data: 3127480320
I0824 23:08:37.987335 44210 layer_factory.hpp:77] Creating layer conv5_1_scale
I0824 23:08:37.987345 44210 net.cpp:100] Creating Layer conv5_1_scale
I0824 23:08:37.987350 44210 net.cpp:434] conv5_1_scale <- conv5_1
I0824 23:08:37.987356 44210 net.cpp:395] conv5_1_scale -> conv5_1 (in-place)
I0824 23:08:37.987404 44210 layer_factory.hpp:77] Creating layer conv5_1_scale
I0824 23:08:37.987527 44210 net.cpp:150] Setting up conv5_1_scale
I0824 23:08:37.987536 44210 net.cpp:157] Top shape: 4 512 23 30 (1413120)
I0824 23:08:37.987540 44210 net.cpp:165] Memory required for data: 3133132800
I0824 23:08:37.987547 44210 layer_factory.hpp:77] Creating layer relu5_1
I0824 23:08:37.987557 44210 net.cpp:100] Creating Layer relu5_1
I0824 23:08:37.987563 44210 net.cpp:434] relu5_1 <- conv5_1
I0824 23:08:37.987568 44210 net.cpp:395] relu5_1 -> conv5_1 (in-place)
I0824 23:08:37.987772 44210 net.cpp:150] Setting up relu5_1
I0824 23:08:37.987782 44210 net.cpp:157] Top shape: 4 512 23 30 (1413120)
I0824 23:08:37.987787 44210 net.cpp:165] Memory required for data: 3138785280
I0824 23:08:37.987793 44210 layer_factory.hpp:77] Creating layer conv5_2
I0824 23:08:37.987807 44210 net.cpp:100] Creating Layer conv5_2
I0824 23:08:37.987812 44210 net.cpp:434] conv5_2 <- conv5_1
I0824 23:08:37.987821 44210 net.cpp:408] conv5_2 -> conv5_2
I0824 23:08:38.072044 44210 net.cpp:150] Setting up conv5_2
I0824 23:08:38.072067 44210 net.cpp:157] Top shape: 4 512 23 30 (1413120)
I0824 23:08:38.072079 44210 net.cpp:165] Memory required for data: 3144437760
I0824 23:08:38.072091 44210 layer_factory.hpp:77] Creating layer conv5_2_bn_tmp
I0824 23:08:38.072104 44210 net.cpp:100] Creating Layer conv5_2_bn_tmp
I0824 23:08:38.072113 44210 net.cpp:434] conv5_2_bn_tmp <- conv5_2
I0824 23:08:38.072125 44210 net.cpp:395] conv5_2_bn_tmp -> conv5_2 (in-place)
I0824 23:08:38.072350 44210 net.cpp:150] Setting up conv5_2_bn_tmp
I0824 23:08:38.072360 44210 net.cpp:157] Top shape: 4 512 23 30 (1413120)
I0824 23:08:38.072381 44210 net.cpp:165] Memory required for data: 3150090240
I0824 23:08:38.072391 44210 layer_factory.hpp:77] Creating layer conv5_2_scale
I0824 23:08:38.072403 44210 net.cpp:100] Creating Layer conv5_2_scale
I0824 23:08:38.072408 44210 net.cpp:434] conv5_2_scale <- conv5_2
I0824 23:08:38.072414 44210 net.cpp:395] conv5_2_scale -> conv5_2 (in-place)
I0824 23:08:38.072468 44210 layer_factory.hpp:77] Creating layer conv5_2_scale
I0824 23:08:38.072599 44210 net.cpp:150] Setting up conv5_2_scale
I0824 23:08:38.072608 44210 net.cpp:157] Top shape: 4 512 23 30 (1413120)
I0824 23:08:38.072613 44210 net.cpp:165] Memory required for data: 3155742720
I0824 23:08:38.072620 44210 layer_factory.hpp:77] Creating layer relu5_2
I0824 23:08:38.072629 44210 net.cpp:100] Creating Layer relu5_2
I0824 23:08:38.072634 44210 net.cpp:434] relu5_2 <- conv5_2
I0824 23:08:38.072640 44210 net.cpp:395] relu5_2 -> conv5_2 (in-place)
I0824 23:08:38.072849 44210 net.cpp:150] Setting up relu5_2
I0824 23:08:38.072860 44210 net.cpp:157] Top shape: 4 512 23 30 (1413120)
I0824 23:08:38.072865 44210 net.cpp:165] Memory required for data: 3161395200
I0824 23:08:38.072870 44210 layer_factory.hpp:77] Creating layer conv5_3
I0824 23:08:38.072885 44210 net.cpp:100] Creating Layer conv5_3
I0824 23:08:38.072890 44210 net.cpp:434] conv5_3 <- conv5_2
I0824 23:08:38.072898 44210 net.cpp:408] conv5_3 -> conv5_3
I0824 23:08:38.156597 44210 net.cpp:150] Setting up conv5_3
I0824 23:08:38.156617 44210 net.cpp:157] Top shape: 4 512 23 30 (1413120)
I0824 23:08:38.156626 44210 net.cpp:165] Memory required for data: 3167047680
I0824 23:08:38.156635 44210 layer_factory.hpp:77] Creating layer conv5_3_bn_tmp
I0824 23:08:38.156646 44210 net.cpp:100] Creating Layer conv5_3_bn_tmp
I0824 23:08:38.156652 44210 net.cpp:434] conv5_3_bn_tmp <- conv5_3
I0824 23:08:38.156661 44210 net.cpp:395] conv5_3_bn_tmp -> conv5_3 (in-place)
I0824 23:08:38.156886 44210 net.cpp:150] Setting up conv5_3_bn_tmp
I0824 23:08:38.156895 44210 net.cpp:157] Top shape: 4 512 23 30 (1413120)
I0824 23:08:38.156898 44210 net.cpp:165] Memory required for data: 3172700160
I0824 23:08:38.156908 44210 layer_factory.hpp:77] Creating layer conv5_3_scale
I0824 23:08:38.156919 44210 net.cpp:100] Creating Layer conv5_3_scale
I0824 23:08:38.156925 44210 net.cpp:434] conv5_3_scale <- conv5_3
I0824 23:08:38.156931 44210 net.cpp:395] conv5_3_scale -> conv5_3 (in-place)
I0824 23:08:38.156981 44210 layer_factory.hpp:77] Creating layer conv5_3_scale
I0824 23:08:38.157112 44210 net.cpp:150] Setting up conv5_3_scale
I0824 23:08:38.157121 44210 net.cpp:157] Top shape: 4 512 23 30 (1413120)
I0824 23:08:38.157124 44210 net.cpp:165] Memory required for data: 3178352640
I0824 23:08:38.157131 44210 layer_factory.hpp:77] Creating layer relu5_3
I0824 23:08:38.157140 44210 net.cpp:100] Creating Layer relu5_3
I0824 23:08:38.157145 44210 net.cpp:434] relu5_3 <- conv5_3
I0824 23:08:38.157150 44210 net.cpp:395] relu5_3 -> conv5_3 (in-place)
I0824 23:08:38.157358 44210 net.cpp:150] Setting up relu5_3
I0824 23:08:38.157387 44210 net.cpp:157] Top shape: 4 512 23 30 (1413120)
I0824 23:08:38.157392 44210 net.cpp:165] Memory required for data: 3184005120
I0824 23:08:38.157397 44210 layer_factory.hpp:77] Creating layer pool5
I0824 23:08:38.157402 44210 layer_factory.cpp:91] cuDNN does not support multiple tops. Using Caffe's own pooling layer.
I0824 23:08:38.157410 44210 net.cpp:100] Creating Layer pool5
I0824 23:08:38.157415 44210 net.cpp:434] pool5 <- conv5_3
I0824 23:08:38.157423 44210 net.cpp:408] pool5 -> pool5
I0824 23:08:38.157433 44210 net.cpp:408] pool5 -> pool5_mask
I0824 23:08:38.157485 44210 net.cpp:150] Setting up pool5
I0824 23:08:38.157493 44210 net.cpp:157] Top shape: 4 512 12 15 (368640)
I0824 23:08:38.157498 44210 net.cpp:157] Top shape: 4 512 12 15 (368640)
I0824 23:08:38.157502 44210 net.cpp:165] Memory required for data: 3186954240
I0824 23:08:38.157506 44210 layer_factory.hpp:77] Creating layer upsample5
I0824 23:08:38.157521 44210 net.cpp:100] Creating Layer upsample5
I0824 23:08:38.157526 44210 net.cpp:434] upsample5 <- pool5
I0824 23:08:38.157546 44210 net.cpp:434] upsample5 <- pool5_mask
I0824 23:08:38.157554 44210 net.cpp:408] upsample5 -> pool5_D
I0824 23:08:38.157598 44210 net.cpp:150] Setting up upsample5
I0824 23:08:38.157606 44210 net.cpp:157] Top shape: 4 512 23 30 (1413120)
I0824 23:08:38.157610 44210 net.cpp:165] Memory required for data: 3192606720
I0824 23:08:38.157613 44210 layer_factory.hpp:77] Creating layer conv5_3_D
I0824 23:08:38.157627 44210 net.cpp:100] Creating Layer conv5_3_D
I0824 23:08:38.157634 44210 net.cpp:434] conv5_3_D <- pool5_D
I0824 23:08:38.157641 44210 net.cpp:408] conv5_3_D -> conv5_3_D
I0824 23:08:38.242136 44210 net.cpp:150] Setting up conv5_3_D
I0824 23:08:38.242154 44210 net.cpp:157] Top shape: 4 512 23 30 (1413120)
I0824 23:08:38.242166 44210 net.cpp:165] Memory required for data: 3198259200
I0824 23:08:38.242174 44210 layer_factory.hpp:77] Creating layer conv5_3_D_bn_tmp
I0824 23:08:38.242184 44210 net.cpp:100] Creating Layer conv5_3_D_bn_tmp
I0824 23:08:38.242192 44210 net.cpp:434] conv5_3_D_bn_tmp <- conv5_3_D
I0824 23:08:38.242199 44210 net.cpp:395] conv5_3_D_bn_tmp -> conv5_3_D (in-place)
I0824 23:08:38.242429 44210 net.cpp:150] Setting up conv5_3_D_bn_tmp
I0824 23:08:38.242439 44210 net.cpp:157] Top shape: 4 512 23 30 (1413120)
I0824 23:08:38.242441 44210 net.cpp:165] Memory required for data: 3203911680
I0824 23:08:38.242456 44210 layer_factory.hpp:77] Creating layer conv5_3_D_scale
I0824 23:08:38.242466 44210 net.cpp:100] Creating Layer conv5_3_D_scale
I0824 23:08:38.242471 44210 net.cpp:434] conv5_3_D_scale <- conv5_3_D
I0824 23:08:38.242478 44210 net.cpp:395] conv5_3_D_scale -> conv5_3_D (in-place)
I0824 23:08:38.242528 44210 layer_factory.hpp:77] Creating layer conv5_3_D_scale
I0824 23:08:38.242660 44210 net.cpp:150] Setting up conv5_3_D_scale
I0824 23:08:38.242668 44210 net.cpp:157] Top shape: 4 512 23 30 (1413120)
I0824 23:08:38.242672 44210 net.cpp:165] Memory required for data: 3209564160
I0824 23:08:38.242679 44210 layer_factory.hpp:77] Creating layer relu5_3_D
I0824 23:08:38.242686 44210 net.cpp:100] Creating Layer relu5_3_D
I0824 23:08:38.242691 44210 net.cpp:434] relu5_3_D <- conv5_3_D
I0824 23:08:38.242698 44210 net.cpp:395] relu5_3_D -> conv5_3_D (in-place)
I0824 23:08:38.242918 44210 net.cpp:150] Setting up relu5_3_D
I0824 23:08:38.242928 44210 net.cpp:157] Top shape: 4 512 23 30 (1413120)
I0824 23:08:38.242933 44210 net.cpp:165] Memory required for data: 3215216640
I0824 23:08:38.242936 44210 layer_factory.hpp:77] Creating layer conv5_2_D
I0824 23:08:38.242974 44210 net.cpp:100] Creating Layer conv5_2_D
I0824 23:08:38.242980 44210 net.cpp:434] conv5_2_D <- conv5_3_D
I0824 23:08:38.242990 44210 net.cpp:408] conv5_2_D -> conv5_2_D
I0824 23:08:38.326680 44210 net.cpp:150] Setting up conv5_2_D
I0824 23:08:38.326699 44210 net.cpp:157] Top shape: 4 512 23 30 (1413120)
I0824 23:08:38.326702 44210 net.cpp:165] Memory required for data: 3220869120
I0824 23:08:38.326711 44210 layer_factory.hpp:77] Creating layer conv5_2_D_bn_tmp
I0824 23:08:38.326720 44210 net.cpp:100] Creating Layer conv5_2_D_bn_tmp
I0824 23:08:38.326726 44210 net.cpp:434] conv5_2_D_bn_tmp <- conv5_2_D
I0824 23:08:38.326733 44210 net.cpp:395] conv5_2_D_bn_tmp -> conv5_2_D (in-place)
I0824 23:08:38.326962 44210 net.cpp:150] Setting up conv5_2_D_bn_tmp
I0824 23:08:38.326972 44210 net.cpp:157] Top shape: 4 512 23 30 (1413120)
I0824 23:08:38.326974 44210 net.cpp:165] Memory required for data: 3226521600
I0824 23:08:38.326985 44210 layer_factory.hpp:77] Creating layer conv5_2_D_scale
I0824 23:08:38.326995 44210 net.cpp:100] Creating Layer conv5_2_D_scale
I0824 23:08:38.327002 44210 net.cpp:434] conv5_2_D_scale <- conv5_2_D
I0824 23:08:38.327008 44210 net.cpp:395] conv5_2_D_scale -> conv5_2_D (in-place)
I0824 23:08:38.327060 44210 layer_factory.hpp:77] Creating layer conv5_2_D_scale
I0824 23:08:38.327193 44210 net.cpp:150] Setting up conv5_2_D_scale
I0824 23:08:38.327201 44210 net.cpp:157] Top shape: 4 512 23 30 (1413120)
I0824 23:08:38.327205 44210 net.cpp:165] Memory required for data: 3232174080
I0824 23:08:38.327229 44210 layer_factory.hpp:77] Creating layer relu5_2_D
I0824 23:08:38.327237 44210 net.cpp:100] Creating Layer relu5_2_D
I0824 23:08:38.327244 44210 net.cpp:434] relu5_2_D <- conv5_2_D
I0824 23:08:38.327250 44210 net.cpp:395] relu5_2_D -> conv5_2_D (in-place)
I0824 23:08:38.328336 44210 net.cpp:150] Setting up relu5_2_D
I0824 23:08:38.328351 44210 net.cpp:157] Top shape: 4 512 23 30 (1413120)
I0824 23:08:38.328356 44210 net.cpp:165] Memory required for data: 3237826560
I0824 23:08:38.328361 44210 layer_factory.hpp:77] Creating layer conv5_1_D
I0824 23:08:38.328375 44210 net.cpp:100] Creating Layer conv5_1_D
I0824 23:08:38.328382 44210 net.cpp:434] conv5_1_D <- conv5_2_D
I0824 23:08:38.328390 44210 net.cpp:408] conv5_1_D -> conv5_1_D
I0824 23:08:38.412014 44210 net.cpp:150] Setting up conv5_1_D
I0824 23:08:38.412034 44210 net.cpp:157] Top shape: 4 512 23 30 (1413120)
I0824 23:08:38.412045 44210 net.cpp:165] Memory required for data: 3243479040
I0824 23:08:38.412053 44210 layer_factory.hpp:77] Creating layer conv5_1_D_bn_tmp
I0824 23:08:38.412065 44210 net.cpp:100] Creating Layer conv5_1_D_bn_tmp
I0824 23:08:38.412070 44210 net.cpp:434] conv5_1_D_bn_tmp <- conv5_1_D
I0824 23:08:38.412078 44210 net.cpp:395] conv5_1_D_bn_tmp -> conv5_1_D (in-place)
I0824 23:08:38.412315 44210 net.cpp:150] Setting up conv5_1_D_bn_tmp
I0824 23:08:38.412324 44210 net.cpp:157] Top shape: 4 512 23 30 (1413120)
I0824 23:08:38.412333 44210 net.cpp:165] Memory required for data: 3249131520
I0824 23:08:38.412343 44210 layer_factory.hpp:77] Creating layer conv5_1_D_scale
I0824 23:08:38.412353 44210 net.cpp:100] Creating Layer conv5_1_D_scale
I0824 23:08:38.412358 44210 net.cpp:434] conv5_1_D_scale <- conv5_1_D
I0824 23:08:38.412365 44210 net.cpp:395] conv5_1_D_scale -> conv5_1_D (in-place)
I0824 23:08:38.412416 44210 layer_factory.hpp:77] Creating layer conv5_1_D_scale
I0824 23:08:38.412552 44210 net.cpp:150] Setting up conv5_1_D_scale
I0824 23:08:38.412560 44210 net.cpp:157] Top shape: 4 512 23 30 (1413120)
I0824 23:08:38.412564 44210 net.cpp:165] Memory required for data: 3254784000
I0824 23:08:38.412571 44210 layer_factory.hpp:77] Creating layer relu5_1_D
I0824 23:08:38.412580 44210 net.cpp:100] Creating Layer relu5_1_D
I0824 23:08:38.412585 44210 net.cpp:434] relu5_1_D <- conv5_1_D
I0824 23:08:38.412591 44210 net.cpp:395] relu5_1_D -> conv5_1_D (in-place)
I0824 23:08:38.412801 44210 net.cpp:150] Setting up relu5_1_D
I0824 23:08:38.412811 44210 net.cpp:157] Top shape: 4 512 23 30 (1413120)
I0824 23:08:38.412816 44210 net.cpp:165] Memory required for data: 3260436480
I0824 23:08:38.412819 44210 layer_factory.hpp:77] Creating layer upsample4
I0824 23:08:38.412828 44210 net.cpp:100] Creating Layer upsample4
I0824 23:08:38.412833 44210 net.cpp:434] upsample4 <- conv5_1_D
I0824 23:08:38.412838 44210 net.cpp:434] upsample4 <- pool4_mask
I0824 23:08:38.412847 44210 net.cpp:408] upsample4 -> pool4_D
I0824 23:08:38.412883 44210 net.cpp:150] Setting up upsample4
I0824 23:08:38.412892 44210 net.cpp:157] Top shape: 4 512 45 60 (5529600)
I0824 23:08:38.412896 44210 net.cpp:165] Memory required for data: 3282554880
I0824 23:08:38.412900 44210 layer_factory.hpp:77] Creating layer conv4_3_D
I0824 23:08:38.412914 44210 net.cpp:100] Creating Layer conv4_3_D
I0824 23:08:38.412919 44210 net.cpp:434] conv4_3_D <- pool4_D
I0824 23:08:38.412926 44210 net.cpp:408] conv4_3_D -> conv4_3_D
I0824 23:08:38.496631 44210 net.cpp:150] Setting up conv4_3_D
I0824 23:08:38.496651 44210 net.cpp:157] Top shape: 4 512 45 60 (5529600)
I0824 23:08:38.496661 44210 net.cpp:165] Memory required for data: 3304673280
I0824 23:08:38.496670 44210 layer_factory.hpp:77] Creating layer conv4_3_D_bn_tmp
I0824 23:08:38.496680 44210 net.cpp:100] Creating Layer conv4_3_D_bn_tmp
I0824 23:08:38.496686 44210 net.cpp:434] conv4_3_D_bn_tmp <- conv4_3_D
I0824 23:08:38.496693 44210 net.cpp:395] conv4_3_D_bn_tmp -> conv4_3_D (in-place)
I0824 23:08:38.496933 44210 net.cpp:150] Setting up conv4_3_D_bn_tmp
I0824 23:08:38.496942 44210 net.cpp:157] Top shape: 4 512 45 60 (5529600)
I0824 23:08:38.496964 44210 net.cpp:165] Memory required for data: 3326791680
I0824 23:08:38.496975 44210 layer_factory.hpp:77] Creating layer conv4_3_D_scale
I0824 23:08:38.496987 44210 net.cpp:100] Creating Layer conv4_3_D_scale
I0824 23:08:38.496992 44210 net.cpp:434] conv4_3_D_scale <- conv4_3_D
I0824 23:08:38.496999 44210 net.cpp:395] conv4_3_D_scale -> conv4_3_D (in-place)
I0824 23:08:38.497048 44210 layer_factory.hpp:77] Creating layer conv4_3_D_scale
I0824 23:08:38.497200 44210 net.cpp:150] Setting up conv4_3_D_scale
I0824 23:08:38.497210 44210 net.cpp:157] Top shape: 4 512 45 60 (5529600)
I0824 23:08:38.497213 44210 net.cpp:165] Memory required for data: 3348910080
I0824 23:08:38.497220 44210 layer_factory.hpp:77] Creating layer relu4_3_D
I0824 23:08:38.497229 44210 net.cpp:100] Creating Layer relu4_3_D
I0824 23:08:38.497234 44210 net.cpp:434] relu4_3_D <- conv4_3_D
I0824 23:08:38.497241 44210 net.cpp:395] relu4_3_D -> conv4_3_D (in-place)
I0824 23:08:38.497470 44210 net.cpp:150] Setting up relu4_3_D
I0824 23:08:38.497481 44210 net.cpp:157] Top shape: 4 512 45 60 (5529600)
I0824 23:08:38.497488 44210 net.cpp:165] Memory required for data: 3371028480
I0824 23:08:38.497491 44210 layer_factory.hpp:77] Creating layer conv4_2_D
I0824 23:08:38.497509 44210 net.cpp:100] Creating Layer conv4_2_D
I0824 23:08:38.497514 44210 net.cpp:434] conv4_2_D <- conv4_3_D
I0824 23:08:38.497522 44210 net.cpp:408] conv4_2_D -> conv4_2_D
I0824 23:08:38.582813 44210 net.cpp:150] Setting up conv4_2_D
I0824 23:08:38.582834 44210 net.cpp:157] Top shape: 4 512 45 60 (5529600)
I0824 23:08:38.582845 44210 net.cpp:165] Memory required for data: 3393146880
I0824 23:08:38.582857 44210 layer_factory.hpp:77] Creating layer conv4_2_D_bn_tmp
I0824 23:08:38.582871 44210 net.cpp:100] Creating Layer conv4_2_D_bn_tmp
I0824 23:08:38.582883 44210 net.cpp:434] conv4_2_D_bn_tmp <- conv4_2_D
I0824 23:08:38.582895 44210 net.cpp:395] conv4_2_D_bn_tmp -> conv4_2_D (in-place)
I0824 23:08:38.583137 44210 net.cpp:150] Setting up conv4_2_D_bn_tmp
I0824 23:08:38.583145 44210 net.cpp:157] Top shape: 4 512 45 60 (5529600)
I0824 23:08:38.583149 44210 net.cpp:165] Memory required for data: 3415265280
I0824 23:08:38.583158 44210 layer_factory.hpp:77] Creating layer conv4_2_D_scale
I0824 23:08:38.583171 44210 net.cpp:100] Creating Layer conv4_2_D_scale
I0824 23:08:38.583176 44210 net.cpp:434] conv4_2_D_scale <- conv4_2_D
I0824 23:08:38.583183 44210 net.cpp:395] conv4_2_D_scale -> conv4_2_D (in-place)
I0824 23:08:38.583228 44210 layer_factory.hpp:77] Creating layer conv4_2_D_scale
I0824 23:08:38.583379 44210 net.cpp:150] Setting up conv4_2_D_scale
I0824 23:08:38.583386 44210 net.cpp:157] Top shape: 4 512 45 60 (5529600)
I0824 23:08:38.583390 44210 net.cpp:165] Memory required for data: 3437383680
I0824 23:08:38.583397 44210 layer_factory.hpp:77] Creating layer relu4_2_D
I0824 23:08:38.583405 44210 net.cpp:100] Creating Layer relu4_2_D
I0824 23:08:38.583410 44210 net.cpp:434] relu4_2_D <- conv4_2_D
I0824 23:08:38.583417 44210 net.cpp:395] relu4_2_D -> conv4_2_D (in-place)
I0824 23:08:38.583626 44210 net.cpp:150] Setting up relu4_2_D
I0824 23:08:38.583636 44210 net.cpp:157] Top shape: 4 512 45 60 (5529600)
I0824 23:08:38.583640 44210 net.cpp:165] Memory required for data: 3459502080
I0824 23:08:38.583644 44210 layer_factory.hpp:77] Creating layer conv4_1_D
I0824 23:08:38.583660 44210 net.cpp:100] Creating Layer conv4_1_D
I0824 23:08:38.583665 44210 net.cpp:434] conv4_1_D <- conv4_2_D
I0824 23:08:38.583674 44210 net.cpp:408] conv4_1_D -> conv4_1_D
I0824 23:08:38.627575 44210 net.cpp:150] Setting up conv4_1_D
I0824 23:08:38.627593 44210 net.cpp:157] Top shape: 4 256 45 60 (2764800)
I0824 23:08:38.627604 44210 net.cpp:165] Memory required for data: 3470561280
I0824 23:08:38.627612 44210 layer_factory.hpp:77] Creating layer conv4_1_D_bn_tmp
I0824 23:08:38.627622 44210 net.cpp:100] Creating Layer conv4_1_D_bn_tmp
I0824 23:08:38.627629 44210 net.cpp:434] conv4_1_D_bn_tmp <- conv4_1_D
I0824 23:08:38.627637 44210 net.cpp:395] conv4_1_D_bn_tmp -> conv4_1_D (in-place)
I0824 23:08:38.627881 44210 net.cpp:150] Setting up conv4_1_D_bn_tmp
I0824 23:08:38.627907 44210 net.cpp:157] Top shape: 4 256 45 60 (2764800)
I0824 23:08:38.627915 44210 net.cpp:165] Memory required for data: 3481620480
I0824 23:08:38.627969 44210 layer_factory.hpp:77] Creating layer conv4_1_D_scale
I0824 23:08:38.627979 44210 net.cpp:100] Creating Layer conv4_1_D_scale
I0824 23:08:38.627985 44210 net.cpp:434] conv4_1_D_scale <- conv4_1_D
I0824 23:08:38.627991 44210 net.cpp:395] conv4_1_D_scale -> conv4_1_D (in-place)
I0824 23:08:38.628046 44210 layer_factory.hpp:77] Creating layer conv4_1_D_scale
I0824 23:08:38.628191 44210 net.cpp:150] Setting up conv4_1_D_scale
I0824 23:08:38.628201 44210 net.cpp:157] Top shape: 4 256 45 60 (2764800)
I0824 23:08:38.628203 44210 net.cpp:165] Memory required for data: 3492679680
I0824 23:08:38.628211 44210 layer_factory.hpp:77] Creating layer relu4_1_D
I0824 23:08:38.628221 44210 net.cpp:100] Creating Layer relu4_1_D
I0824 23:08:38.628226 44210 net.cpp:434] relu4_1_D <- conv4_1_D
I0824 23:08:38.628232 44210 net.cpp:395] relu4_1_D -> conv4_1_D (in-place)
I0824 23:08:38.628454 44210 net.cpp:150] Setting up relu4_1_D
I0824 23:08:38.628464 44210 net.cpp:157] Top shape: 4 256 45 60 (2764800)
I0824 23:08:38.628469 44210 net.cpp:165] Memory required for data: 3503738880
I0824 23:08:38.628473 44210 layer_factory.hpp:77] Creating layer upsample3
I0824 23:08:38.628484 44210 net.cpp:100] Creating Layer upsample3
I0824 23:08:38.628489 44210 net.cpp:434] upsample3 <- conv4_1_D
I0824 23:08:38.628495 44210 net.cpp:434] upsample3 <- pool3_mask
I0824 23:08:38.628504 44210 net.cpp:408] upsample3 -> pool3_D
I0824 23:08:38.628513 44210 upsample_layer.cpp:27] Params 'pad_out_{}_' are deprecated. Please declare upsample height and width useing the upsample_h, upsample_w parameters.
I0824 23:08:38.628547 44210 net.cpp:150] Setting up upsample3
I0824 23:08:38.628556 44210 net.cpp:157] Top shape: 4 256 90 120 (11059200)
I0824 23:08:38.628561 44210 net.cpp:165] Memory required for data: 3547975680
I0824 23:08:38.628564 44210 layer_factory.hpp:77] Creating layer conv3_3_D
I0824 23:08:38.628578 44210 net.cpp:100] Creating Layer conv3_3_D
I0824 23:08:38.628583 44210 net.cpp:434] conv3_3_D <- pool3_D
I0824 23:08:38.628594 44210 net.cpp:408] conv3_3_D -> conv3_3_D
I0824 23:08:38.652086 44210 net.cpp:150] Setting up conv3_3_D
I0824 23:08:38.652103 44210 net.cpp:157] Top shape: 4 256 90 120 (11059200)
I0824 23:08:38.652113 44210 net.cpp:165] Memory required for data: 3592212480
I0824 23:08:38.652122 44210 layer_factory.hpp:77] Creating layer conv3_3_D_bn_tmp
I0824 23:08:38.652133 44210 net.cpp:100] Creating Layer conv3_3_D_bn_tmp
I0824 23:08:38.652140 44210 net.cpp:434] conv3_3_D_bn_tmp <- conv3_3_D
I0824 23:08:38.652148 44210 net.cpp:395] conv3_3_D_bn_tmp -> conv3_3_D (in-place)
I0824 23:08:38.652405 44210 net.cpp:150] Setting up conv3_3_D_bn_tmp
I0824 23:08:38.652413 44210 net.cpp:157] Top shape: 4 256 90 120 (11059200)
I0824 23:08:38.652417 44210 net.cpp:165] Memory required for data: 3636449280
I0824 23:08:38.652426 44210 layer_factory.hpp:77] Creating layer conv3_3_D_scale
I0824 23:08:38.652438 44210 net.cpp:100] Creating Layer conv3_3_D_scale
I0824 23:08:38.652444 44210 net.cpp:434] conv3_3_D_scale <- conv3_3_D
I0824 23:08:38.652451 44210 net.cpp:395] conv3_3_D_scale -> conv3_3_D (in-place)
I0824 23:08:38.652500 44210 layer_factory.hpp:77] Creating layer conv3_3_D_scale
I0824 23:08:38.652664 44210 net.cpp:150] Setting up conv3_3_D_scale
I0824 23:08:38.652673 44210 net.cpp:157] Top shape: 4 256 90 120 (11059200)
I0824 23:08:38.652678 44210 net.cpp:165] Memory required for data: 3680686080
I0824 23:08:38.652685 44210 layer_factory.hpp:77] Creating layer relu3_3_D
I0824 23:08:38.652694 44210 net.cpp:100] Creating Layer relu3_3_D
I0824 23:08:38.652699 44210 net.cpp:434] relu3_3_D <- conv3_3_D
I0824 23:08:38.652705 44210 net.cpp:395] relu3_3_D -> conv3_3_D (in-place)
I0824 23:08:38.652925 44210 net.cpp:150] Setting up relu3_3_D
I0824 23:08:38.652935 44210 net.cpp:157] Top shape: 4 256 90 120 (11059200)
I0824 23:08:38.652940 44210 net.cpp:165] Memory required for data: 3724922880
I0824 23:08:38.652958 44210 layer_factory.hpp:77] Creating layer conv3_2_D
I0824 23:08:38.652972 44210 net.cpp:100] Creating Layer conv3_2_D
I0824 23:08:38.652977 44210 net.cpp:434] conv3_2_D <- conv3_3_D
I0824 23:08:38.652987 44210 net.cpp:408] conv3_2_D -> conv3_2_D
I0824 23:08:38.676457 44210 net.cpp:150] Setting up conv3_2_D
I0824 23:08:38.676476 44210 net.cpp:157] Top shape: 4 256 90 120 (11059200)
I0824 23:08:38.676489 44210 net.cpp:165] Memory required for data: 3769159680
I0824 23:08:38.676499 44210 layer_factory.hpp:77] Creating layer conv3_2_D_bn_tmp
I0824 23:08:38.676512 44210 net.cpp:100] Creating Layer conv3_2_D_bn_tmp
I0824 23:08:38.676519 44210 net.cpp:434] conv3_2_D_bn_tmp <- conv3_2_D
I0824 23:08:38.676527 44210 net.cpp:395] conv3_2_D_bn_tmp -> conv3_2_D (in-place)
I0824 23:08:38.676791 44210 net.cpp:150] Setting up conv3_2_D_bn_tmp
I0824 23:08:38.676801 44210 net.cpp:157] Top shape: 4 256 90 120 (11059200)
I0824 23:08:38.676810 44210 net.cpp:165] Memory required for data: 3813396480
I0824 23:08:38.676820 44210 layer_factory.hpp:77] Creating layer conv3_2_D_scale
I0824 23:08:38.676828 44210 net.cpp:100] Creating Layer conv3_2_D_scale
I0824 23:08:38.676834 44210 net.cpp:434] conv3_2_D_scale <- conv3_2_D
I0824 23:08:38.676841 44210 net.cpp:395] conv3_2_D_scale -> conv3_2_D (in-place)
I0824 23:08:38.676892 44210 layer_factory.hpp:77] Creating layer conv3_2_D_scale
I0824 23:08:38.677054 44210 net.cpp:150] Setting up conv3_2_D_scale
I0824 23:08:38.677063 44210 net.cpp:157] Top shape: 4 256 90 120 (11059200)
I0824 23:08:38.677067 44210 net.cpp:165] Memory required for data: 3857633280
I0824 23:08:38.677074 44210 layer_factory.hpp:77] Creating layer relu3_2_D
I0824 23:08:38.677084 44210 net.cpp:100] Creating Layer relu3_2_D
I0824 23:08:38.677089 44210 net.cpp:434] relu3_2_D <- conv3_2_D
I0824 23:08:38.677096 44210 net.cpp:395] relu3_2_D -> conv3_2_D (in-place)
I0824 23:08:38.678210 44210 net.cpp:150] Setting up relu3_2_D
I0824 23:08:38.678226 44210 net.cpp:157] Top shape: 4 256 90 120 (11059200)
I0824 23:08:38.678231 44210 net.cpp:165] Memory required for data: 3901870080
I0824 23:08:38.678236 44210 layer_factory.hpp:77] Creating layer conv3_1_D
I0824 23:08:38.678251 44210 net.cpp:100] Creating Layer conv3_1_D
I0824 23:08:38.678257 44210 net.cpp:434] conv3_1_D <- conv3_2_D
I0824 23:08:38.678267 44210 net.cpp:408] conv3_1_D -> conv3_1_D
I0824 23:08:38.692014 44210 net.cpp:150] Setting up conv3_1_D
I0824 23:08:38.692032 44210 net.cpp:157] Top shape: 4 128 90 120 (5529600)
I0824 23:08:38.692041 44210 net.cpp:165] Memory required for data: 3923988480
I0824 23:08:38.692050 44210 layer_factory.hpp:77] Creating layer conv3_1_D_bn_tmp
I0824 23:08:38.692061 44210 net.cpp:100] Creating Layer conv3_1_D_bn_tmp
I0824 23:08:38.692068 44210 net.cpp:434] conv3_1_D_bn_tmp <- conv3_1_D
I0824 23:08:38.692075 44210 net.cpp:395] conv3_1_D_bn_tmp -> conv3_1_D (in-place)
I0824 23:08:38.692338 44210 net.cpp:150] Setting up conv3_1_D_bn_tmp
I0824 23:08:38.692348 44210 net.cpp:157] Top shape: 4 128 90 120 (5529600)
I0824 23:08:38.692356 44210 net.cpp:165] Memory required for data: 3946106880
I0824 23:08:38.692366 44210 layer_factory.hpp:77] Creating layer conv3_1_D_scale
I0824 23:08:38.692375 44210 net.cpp:100] Creating Layer conv3_1_D_scale
I0824 23:08:38.692380 44210 net.cpp:434] conv3_1_D_scale <- conv3_1_D
I0824 23:08:38.692386 44210 net.cpp:395] conv3_1_D_scale -> conv3_1_D (in-place)
I0824 23:08:38.692437 44210 layer_factory.hpp:77] Creating layer conv3_1_D_scale
I0824 23:08:38.692607 44210 net.cpp:150] Setting up conv3_1_D_scale
I0824 23:08:38.692616 44210 net.cpp:157] Top shape: 4 128 90 120 (5529600)
I0824 23:08:38.692620 44210 net.cpp:165] Memory required for data: 3968225280
I0824 23:08:38.692626 44210 layer_factory.hpp:77] Creating layer relu3_1_D
I0824 23:08:38.692636 44210 net.cpp:100] Creating Layer relu3_1_D
I0824 23:08:38.692641 44210 net.cpp:434] relu3_1_D <- conv3_1_D
I0824 23:08:38.692647 44210 net.cpp:395] relu3_1_D -> conv3_1_D (in-place)
I0824 23:08:38.692867 44210 net.cpp:150] Setting up relu3_1_D
I0824 23:08:38.692890 44210 net.cpp:157] Top shape: 4 128 90 120 (5529600)
I0824 23:08:38.692896 44210 net.cpp:165] Memory required for data: 3990343680
I0824 23:08:38.692900 44210 layer_factory.hpp:77] Creating layer upsample2
I0824 23:08:38.692909 44210 net.cpp:100] Creating Layer upsample2
I0824 23:08:38.692914 44210 net.cpp:434] upsample2 <- conv3_1_D
I0824 23:08:38.692919 44210 net.cpp:434] upsample2 <- pool2_mask
I0824 23:08:38.692927 44210 net.cpp:408] upsample2 -> pool2_D
I0824 23:08:38.692936 44210 upsample_layer.cpp:27] Params 'pad_out_{}_' are deprecated. Please declare upsample height and width useing the upsample_h, upsample_w parameters.
I0824 23:08:38.692972 44210 net.cpp:150] Setting up upsample2
I0824 23:08:38.692981 44210 net.cpp:157] Top shape: 4 128 180 240 (22118400)
I0824 23:08:38.692986 44210 net.cpp:165] Memory required for data: 4078817280
I0824 23:08:38.692988 44210 layer_factory.hpp:77] Creating layer conv2_2_D
I0824 23:08:38.693001 44210 net.cpp:100] Creating Layer conv2_2_D
I0824 23:08:38.693006 44210 net.cpp:434] conv2_2_D <- pool2_D
I0824 23:08:38.693014 44210 net.cpp:408] conv2_2_D -> conv2_2_D
I0824 23:08:38.700687 44210 net.cpp:150] Setting up conv2_2_D
I0824 23:08:38.700706 44210 net.cpp:157] Top shape: 4 128 180 240 (22118400)
I0824 23:08:38.700713 44210 net.cpp:165] Memory required for data: 4167290880
I0824 23:08:38.700722 44210 layer_factory.hpp:77] Creating layer conv2_2_D_bn_tmp
I0824 23:08:38.700736 44210 net.cpp:100] Creating Layer conv2_2_D_bn_tmp
I0824 23:08:38.700742 44210 net.cpp:434] conv2_2_D_bn_tmp <- conv2_2_D
I0824 23:08:38.700752 44210 net.cpp:395] conv2_2_D_bn_tmp -> conv2_2_D (in-place)
I0824 23:08:38.701058 44210 net.cpp:150] Setting up conv2_2_D_bn_tmp
I0824 23:08:38.701068 44210 net.cpp:157] Top shape: 4 128 180 240 (22118400)
I0824 23:08:38.701078 44210 net.cpp:165] Memory required for data: 4255764480
I0824 23:08:38.701087 44210 layer_factory.hpp:77] Creating layer conv2_2_D_scale
I0824 23:08:38.701097 44210 net.cpp:100] Creating Layer conv2_2_D_scale
I0824 23:08:38.701102 44210 net.cpp:434] conv2_2_D_scale <- conv2_2_D
I0824 23:08:38.701108 44210 net.cpp:395] conv2_2_D_scale -> conv2_2_D (in-place)
I0824 23:08:38.701161 44210 layer_factory.hpp:77] Creating layer conv2_2_D_scale
I0824 23:08:38.702672 44210 net.cpp:150] Setting up conv2_2_D_scale
I0824 23:08:38.702688 44210 net.cpp:157] Top shape: 4 128 180 240 (22118400)
I0824 23:08:38.702693 44210 net.cpp:165] Memory required for data: 4344238080
I0824 23:08:38.702702 44210 layer_factory.hpp:77] Creating layer relu2_2_D
I0824 23:08:38.702711 44210 net.cpp:100] Creating Layer relu2_2_D
I0824 23:08:38.702718 44210 net.cpp:434] relu2_2_D <- conv2_2_D
I0824 23:08:38.702725 44210 net.cpp:395] relu2_2_D -> conv2_2_D (in-place)
I0824 23:08:38.702961 44210 net.cpp:150] Setting up relu2_2_D
I0824 23:08:38.702971 44210 net.cpp:157] Top shape: 4 128 180 240 (22118400)
I0824 23:08:38.702976 44210 net.cpp:165] Memory required for data: 4432711680
I0824 23:08:38.702980 44210 layer_factory.hpp:77] Creating layer conv2_1_D
I0824 23:08:38.702993 44210 net.cpp:100] Creating Layer conv2_1_D
I0824 23:08:38.702999 44210 net.cpp:434] conv2_1_D <- conv2_2_D
I0824 23:08:38.703008 44210 net.cpp:408] conv2_1_D -> conv2_1_D
I0824 23:08:38.708256 44210 net.cpp:150] Setting up conv2_1_D
I0824 23:08:38.708274 44210 net.cpp:157] Top shape: 4 64 180 240 (11059200)
I0824 23:08:38.708281 44210 net.cpp:165] Memory required for data: 4476948480
I0824 23:08:38.708290 44210 layer_factory.hpp:77] Creating layer conv2_1_D_bn_tmp
I0824 23:08:38.708304 44210 net.cpp:100] Creating Layer conv2_1_D_bn_tmp
I0824 23:08:38.708312 44210 net.cpp:434] conv2_1_D_bn_tmp <- conv2_1_D
I0824 23:08:38.708318 44210 net.cpp:395] conv2_1_D_bn_tmp -> conv2_1_D (in-place)
I0824 23:08:38.708621 44210 net.cpp:150] Setting up conv2_1_D_bn_tmp
I0824 23:08:38.708631 44210 net.cpp:157] Top shape: 4 64 180 240 (11059200)
I0824 23:08:38.708636 44210 net.cpp:165] Memory required for data: 4521185280
I0824 23:08:38.708645 44210 layer_factory.hpp:77] Creating layer conv2_1_D_scale
I0824 23:08:38.708668 44210 net.cpp:100] Creating Layer conv2_1_D_scale
I0824 23:08:38.708673 44210 net.cpp:434] conv2_1_D_scale <- conv2_1_D
I0824 23:08:38.708680 44210 net.cpp:395] conv2_1_D_scale -> conv2_1_D (in-place)
I0824 23:08:38.708739 44210 layer_factory.hpp:77] Creating layer conv2_1_D_scale
I0824 23:08:38.708961 44210 net.cpp:150] Setting up conv2_1_D_scale
I0824 23:08:38.708971 44210 net.cpp:157] Top shape: 4 64 180 240 (11059200)
I0824 23:08:38.708976 44210 net.cpp:165] Memory required for data: 4565422080
I0824 23:08:38.708983 44210 layer_factory.hpp:77] Creating layer relu2_1_D
I0824 23:08:38.708992 44210 net.cpp:100] Creating Layer relu2_1_D
I0824 23:08:38.708997 44210 net.cpp:434] relu2_1_D <- conv2_1_D
I0824 23:08:38.709002 44210 net.cpp:395] relu2_1_D -> conv2_1_D (in-place)
I0824 23:08:38.709231 44210 net.cpp:150] Setting up relu2_1_D
I0824 23:08:38.709241 44210 net.cpp:157] Top shape: 4 64 180 240 (11059200)
I0824 23:08:38.709246 44210 net.cpp:165] Memory required for data: 4609658880
I0824 23:08:38.709250 44210 layer_factory.hpp:77] Creating layer upsample1
I0824 23:08:38.709259 44210 net.cpp:100] Creating Layer upsample1
I0824 23:08:38.709264 44210 net.cpp:434] upsample1 <- conv2_1_D
I0824 23:08:38.709270 44210 net.cpp:434] upsample1 <- pool1_mask
I0824 23:08:38.709280 44210 net.cpp:408] upsample1 -> pool1_D
I0824 23:08:38.709288 44210 upsample_layer.cpp:27] Params 'pad_out_{}_' are deprecated. Please declare upsample height and width useing the upsample_h, upsample_w parameters.
I0824 23:08:38.709323 44210 net.cpp:150] Setting up upsample1
I0824 23:08:38.709331 44210 net.cpp:157] Top shape: 4 64 360 480 (44236800)
I0824 23:08:38.709336 44210 net.cpp:165] Memory required for data: 4786606080
I0824 23:08:38.709339 44210 layer_factory.hpp:77] Creating layer conv1_2_D
I0824 23:08:38.709352 44210 net.cpp:100] Creating Layer conv1_2_D
I0824 23:08:38.709357 44210 net.cpp:434] conv1_2_D <- pool1_D
I0824 23:08:38.709379 44210 net.cpp:408] conv1_2_D -> conv1_2_D
I0824 23:08:38.713910 44210 net.cpp:150] Setting up conv1_2_D
I0824 23:08:38.713928 44210 net.cpp:157] Top shape: 4 64 360 480 (44236800)
I0824 23:08:38.713938 44210 net.cpp:165] Memory required for data: 4963553280
I0824 23:08:38.713948 44210 layer_factory.hpp:77] Creating layer conv1_2_D_bn_tmp
I0824 23:08:38.713963 44210 net.cpp:100] Creating Layer conv1_2_D_bn_tmp
I0824 23:08:38.713968 44210 net.cpp:434] conv1_2_D_bn_tmp <- conv1_2_D
I0824 23:08:38.713975 44210 net.cpp:395] conv1_2_D_bn_tmp -> conv1_2_D (in-place)
I0824 23:08:38.714371 44210 net.cpp:150] Setting up conv1_2_D_bn_tmp
I0824 23:08:38.714380 44210 net.cpp:157] Top shape: 4 64 360 480 (44236800)
I0824 23:08:38.714385 44210 net.cpp:165] Memory required for data: 5140500480
I0824 23:08:38.714396 44210 layer_factory.hpp:77] Creating layer conv1_2_D_scale
I0824 23:08:38.714406 44210 net.cpp:100] Creating Layer conv1_2_D_scale
I0824 23:08:38.714411 44210 net.cpp:434] conv1_2_D_scale <- conv1_2_D
I0824 23:08:38.714417 44210 net.cpp:395] conv1_2_D_scale -> conv1_2_D (in-place)
I0824 23:08:38.714470 44210 layer_factory.hpp:77] Creating layer conv1_2_D_scale
I0824 23:08:38.716159 44210 net.cpp:150] Setting up conv1_2_D_scale
I0824 23:08:38.716176 44210 net.cpp:157] Top shape: 4 64 360 480 (44236800)
I0824 23:08:38.716181 44210 net.cpp:165] Memory required for data: 5317447680
I0824 23:08:38.716189 44210 layer_factory.hpp:77] Creating layer relu1_2_D
I0824 23:08:38.716198 44210 net.cpp:100] Creating Layer relu1_2_D
I0824 23:08:38.716204 44210 net.cpp:434] relu1_2_D <- conv1_2_D
I0824 23:08:38.716212 44210 net.cpp:395] relu1_2_D -> conv1_2_D (in-place)
I0824 23:08:38.716446 44210 net.cpp:150] Setting up relu1_2_D
I0824 23:08:38.716457 44210 net.cpp:157] Top shape: 4 64 360 480 (44236800)
I0824 23:08:38.716461 44210 net.cpp:165] Memory required for data: 5494394880
I0824 23:08:38.716466 44210 layer_factory.hpp:77] Creating layer conv1_1_1_D
I0824 23:08:38.716478 44210 net.cpp:100] Creating Layer conv1_1_1_D
I0824 23:08:38.716485 44210 net.cpp:434] conv1_1_1_D <- conv1_2_D
I0824 23:08:38.716508 44210 net.cpp:408] conv1_1_1_D -> conv1_1_1_D
I0824 23:08:38.718585 44210 net.cpp:150] Setting up conv1_1_1_D
I0824 23:08:38.718602 44210 net.cpp:157] Top shape: 4 2 360 480 (1382400)
I0824 23:08:38.718608 44210 net.cpp:165] Memory required for data: 5499924480
I0824 23:08:38.718617 44210 layer_factory.hpp:77] Creating layer conv1_1_1_D_conv1_1_1_D_0_split
I0824 23:08:38.718626 44210 net.cpp:100] Creating Layer conv1_1_1_D_conv1_1_1_D_0_split
I0824 23:08:38.718632 44210 net.cpp:434] conv1_1_1_D_conv1_1_1_D_0_split <- conv1_1_1_D
I0824 23:08:38.718641 44210 net.cpp:408] conv1_1_1_D_conv1_1_1_D_0_split -> conv1_1_1_D_conv1_1_1_D_0_split_0
I0824 23:08:38.718650 44210 net.cpp:408] conv1_1_1_D_conv1_1_1_D_0_split -> conv1_1_1_D_conv1_1_1_D_0_split_1
I0824 23:08:38.718708 44210 net.cpp:150] Setting up conv1_1_1_D_conv1_1_1_D_0_split
I0824 23:08:38.718715 44210 net.cpp:157] Top shape: 4 2 360 480 (1382400)
I0824 23:08:38.718722 44210 net.cpp:157] Top shape: 4 2 360 480 (1382400)
I0824 23:08:38.718725 44210 net.cpp:165] Memory required for data: 5510983680
I0824 23:08:38.718730 44210 layer_factory.hpp:77] Creating layer loss
I0824 23:08:38.718746 44210 net.cpp:100] Creating Layer loss
I0824 23:08:38.718752 44210 net.cpp:434] loss <- conv1_1_1_D_conv1_1_1_D_0_split_0
I0824 23:08:38.718757 44210 net.cpp:434] loss <- label_data_1_split_0
I0824 23:08:38.718766 44210 net.cpp:408] loss -> loss
I0824 23:08:38.718786 44210 layer_factory.hpp:77] Creating layer loss
I0824 23:08:38.722909 44210 net.cpp:150] Setting up loss
I0824 23:08:38.722925 44210 net.cpp:157] Top shape: (1)
I0824 23:08:38.722934 44210 net.cpp:160]     with loss weight 1
I0824 23:08:38.722973 44210 net.cpp:165] Memory required for data: 5510983684
I0824 23:08:38.722978 44210 layer_factory.hpp:77] Creating layer accuracy
I0824 23:08:38.722991 44210 net.cpp:100] Creating Layer accuracy
I0824 23:08:38.722996 44210 net.cpp:434] accuracy <- conv1_1_1_D_conv1_1_1_D_0_split_1
I0824 23:08:38.723003 44210 net.cpp:434] accuracy <- label_data_1_split_1
I0824 23:08:38.723012 44210 net.cpp:408] accuracy -> accuracy
I0824 23:08:38.723021 44210 net.cpp:408] accuracy -> per_class_accuracy
I0824 23:08:38.723080 44210 net.cpp:150] Setting up accuracy
I0824 23:08:38.723088 44210 net.cpp:157] Top shape: (1)
I0824 23:08:38.723093 44210 net.cpp:157] Top shape: 2 (2)
I0824 23:08:38.723098 44210 net.cpp:165] Memory required for data: 5510983696
I0824 23:08:38.723101 44210 net.cpp:228] accuracy does not need backward computation.
I0824 23:08:38.723105 44210 net.cpp:226] loss needs backward computation.
I0824 23:08:38.723110 44210 net.cpp:226] conv1_1_1_D_conv1_1_1_D_0_split needs backward computation.
I0824 23:08:38.723114 44210 net.cpp:226] conv1_1_1_D needs backward computation.
…
