…
  stage: ""
}
test_initialization: false
I0912 06:18:57.901862 28411 solver.cpp:91] Creating training net from net file: /disk2/nik/Analyzer/test/pocwisc7/caffe/model_segnet_final/train.prototxt
I0912 06:18:57.904655 28411 net.cpp:58] Initializing net from parameters: 
name: "VGG_ILSVRC_16_layer"
state {
  phase: TRAIN
  level: 0
  stage: ""
}
layer {
  name: "data"
  type: "HDF5Data"
  top: "data"
  top: "label"
  hdf5_data_param {
    source: "/disk2/nik/Analyzer/test/pocwisc7/HDF5Files/train_combined.txt"
    batch_size: 4
    shuffle: true
  }
}
layer {
  name: "conv1_1_1"
  type: "Convolution"
  bottom: "data"
  top: "conv1_1_1"
  param {
    lr_mult: 1
    decay_mult: 1
  }
  param {
    lr_mult: 2
    decay_mult: 0
  }
  convolution_param {
    num_output: 64
    pad: 1
    kernel_size: 3
    weight_filler {
      type: "msra"
    }
    bias_filler {
      type: "constant"
    }
  }
}
layer {
  name: "conv1_1_1_bn"
  type: "BatchNorm"
  bottom: "conv1_1_1"
  top: "conv1_1_1"
  batch_norm_param {
    use_global_stats: false
  }
}
layer {
  name: "conv1_1_1_scale"
  type: "Scale"
  bottom: "conv1_1_1"
  top: "conv1_1_1"
  scale_param {
    bias_term: true
  }
}
layer {
  name: "relu1_1"
  type: "ReLU"
  bottom: "conv1_1_1"
  top: "conv1_1_1"
}
layer {
  name: "conv1_2"
  type: "Convolution"
  bottom: "conv1_1_1"
  top: "conv1_2"
  param {
    lr_mult: 1
    decay_mult: 1
  }
  param {
    lr_mult: 2
    decay_mult: 0
  }
  convolution_param {
    num_output: 64
    pad: 1
    kernel_size: 3
    weight_filler {
      type: "msra"
    }
    bias_filler {
      type: "constant"
    }
  }
}
layer {
  name: "conv1_2_bn_tmp"
  type: "BatchNorm"
  bottom: "conv1_2"
  top: "conv1_2"
  batch_norm_param {
    use_global_stats: false
  }
}
layer {
  name: "conv1_2_scale"
  type: "Scale"
  bottom: "conv1_2"
  top: "conv1_2"
  scale_param {
    bias_term: true
  }
}
layer {
  name: "relu1_2"
  type: "ReLU"
  bottom: "conv1_2"
  top: "conv1_2"
}
layer {
  name: "pool1"
  type: "Pooling"
  bottom: "conv1_2"
  top: "pool1"
  top: "pool1_mask"
  pooling_param {
    pool: MAX
    kernel_size: 2
    stride: 2
  }
}
layer {
  name: "conv2_1"
  type: "Convolution"
  bottom: "pool1"
  top: "conv2_1"
  param {
    lr_mult: 1
    decay_mult: 1
  }
  param {
    lr_mult: 2
    decay_mult: 0
  }
  convolution_param {
    num_output: 128
    pad: 1
    kernel_size: 3
    weight_filler {
      type: "msra"
    }
    bias_filler {
      type: "constant"
    }
  }
}
layer {
  name: "conv2_1_bn_tmp"
  type: "BatchNorm"
  bottom: "conv2_1"
  top: "conv2_1"
  batch_norm_param {
    use_global_stats: false
  }
}
layer {
  name: "conv2_1_scale"
  type: "Scale"
  bottom: "conv2_1"
  top: "conv2_1"
  scale_param {
    bias_term: true
  }
}
layer {
  name: "relu2_1"
  type: "ReLU"
  bottom: "conv2_1"
  top: "conv2_1"
}
layer {
  name: "conv2_2"
  type: "Convolution"
  bottom: "conv2_1"
  top: "conv2_2"
  param {
    lr_mult: 1
    decay_mult: 1
  }
  param {
    lr_mult: 2
    decay_mult: 0
  }
  convolution_param {
    num_output: 128
    pad: 1
    kernel_size: 3
    weight_filler {
      type: "msra"
    }
    bias_filler {
      type: "constant"
    }
  }
}
layer {
  name: "conv2_2_bn_tmp"
  type: "BatchNorm"
  bottom: "conv2_2"
  top: "conv2_2"
  batch_norm_param {
    use_global_stats: false
  }
}
layer {
  name: "conv2_2_scale"
  type: "Scale"
  bottom: "conv2_2"
  top: "conv2_2"
  scale_param {
    bias_term: true
  }
}
layer {
  name: "relu2_2"
  type: "ReLU"
  bottom: "conv2_2"
  top: "conv2_2"
}
layer {
  name: "pool2"
  type: "Pooling"
  bottom: "conv2_2"
  top: "pool2"
  top: "pool2_mask"
  pooling_param {
    pool: MAX
    kernel_size: 2
    stride: 2
  }
}
layer {
  name: "conv3_1"
  type: "Convolution"
  bottom: "pool2"
  top: "conv3_1"
  param {
    lr_mult: 1
    decay_mult: 1
  }
  param {
    lr_mult: 2
    decay_mult: 0
  }
  convolution_param {
    num_output: 256
    pad: 1
    kernel_size: 3
    weight_filler {
      type: "msra"
    }
    bias_filler {
      type: "constant"
    }
  }
}
layer {
  name: "conv3_1_bn_tmp"
  type: "BatchNorm"
  bottom: "conv3_1"
  top: "conv3_1"
  batch_norm_param {
    use_global_stats: false
  }
}
layer {
  name: "conv3_1_scale"
  type: "Scale"
  bottom: "conv3_1"
  top: "conv3_1"
  scale_param {
    bias_term: true
  }
}
layer {
  name: "relu3_1"
  type: "ReLU"
  bottom: "conv3_1"
  top: "conv3_1"
}
layer {
  name: "conv3_2"
  type: "Convolution"
  bottom: "conv3_1"
  top: "conv3_2"
  param {
    lr_mult: 1
    decay_mult: 1
  }
  param {
    lr_mult: 2
    decay_mult: 0
  }
  convolution_param {
    num_output: 256
    pad: 1
    kernel_size: 3
    weight_filler {
      type: "msra"
    }
    bias_filler {
      type: "constant"
    }
  }
}
layer {
  name: "conv3_2_bn_tmp"
  type: "BatchNorm"
  bottom: "conv3_2"
  top: "conv3_2"
  batch_norm_param {
    use_global_stats: false
  }
}
layer {
  name: "conv3_2_scale"
  type: "Scale"
  bottom: "conv3_2"
  top: "conv3_2"
  scale_param {
    bias_term: true
  }
}
layer {
  name: "relu3_2"
  type: "ReLU"
  bottom: "conv3_2"
  top: "conv3_2"
}
layer {
  name: "conv3_3"
  type: "Convolution"
  bottom: "conv3_2"
  top: "conv3_3"
  param {
    lr_mult: 1
    decay_mult: 1
  }
  param {
    lr_mult: 2
    decay_mult: 0
  }
  convolution_param {
    num_output: 256
    pad: 1
    kernel_size: 3
    weight_filler {
      type: "msra"
    }
    bias_filler {
      type: "constant"
    }
  }
}
layer {
  name: "conv3_3_bn_tmp"
  type: "BatchNorm"
  bottom: "conv3_3"
  top: "conv3_3"
  batch_norm_param {
    use_global_stats: false
  }
}
layer {
  name: "conv3_3_scale"
  type: "Scale"
  bottom: "conv3_3"
  top: "conv3_3"
  scale_param {
    bias_term: true
  }
}
layer {
  name: "relu3_3"
  type: "ReLU"
  bottom: "conv3_3"
  top: "conv3_3"
}
layer {
  name: "pool3"
  type: "Pooling"
  bottom: "conv3_3"
  top: "pool3"
  top: "pool3_mask"
  pooling_param {
    pool: MAX
    kernel_size: 2
    stride: 2
  }
}
layer {
  name: "conv4_1"
  type: "Convolution"
  bottom: "pool3"
  top: "conv4_1"
  param {
    lr_mult: 1
    decay_mult: 1
  }
  param {
    lr_mult: 2
    decay_mult: 0
  }
  convolution_param {
    num_output: 512
    pad: 1
    kernel_size: 3
    weight_filler {
      type: "msra"
    }
    bias_filler {
      type: "constant"
    }
  }
}
layer {
  name: "conv4_1_bn_tmp"
  type: "BatchNorm"
  bottom: "conv4_1"
  top: "conv4_1"
  batch_norm_param {
    use_global_stats: false
  }
}
layer {
  name: "conv4_1_scale"
  type: "Scale"
  bottom: "conv4_1"
  top: "conv4_1"
  scale_param {
    bias_term: true
  }
}
layer {
  name: "relu4_1"
  type: "ReLU"
  bottom: "conv4_1"
  top: "conv4_1"
}
layer {
  name: "conv4_2"
  type: "Convolution"
  bottom: "conv4_1"
  top: "conv4_2"
  param {
    lr_mult: 1
    decay_mult: 1
  }
  param {
    lr_mult: 2
    decay_mult: 0
  }
  convolution_param {
    num_output: 512
    pad: 1
    kernel_size: 3
    weight_filler {
      type: "msra"
    }
    bias_filler {
      type: "constant"
    }
  }
}
layer {
  name: "conv4_2_bn_tmp"
  type: "BatchNorm"
  bottom: "conv4_2"
  top: "conv4_2"
  batch_norm_param {
    use_global_stats: false
  }
}
layer {
  name: "conv4_2_scale"
  type: "Scale"
  bottom: "conv4_2"
  top: "conv4_2"
  scale_param {
    bias_term: true
  }
}
layer {
  name: "relu4_2"
  type: "ReLU"
  bottom: "conv4_2"
  top: "conv4_2"
}
layer {
  name: "conv4_3"
  type: "Convolution"
  bottom: "conv4_2"
  top: "conv4_3"
  param {
    lr_mult: 1
    decay_mult: 1
  }
  param {
    lr_mult: 2
    decay_mult: 0
  }
  convolution_param {
    num_output: 512
    pad: 1
    kernel_size: 3
    weight_filler {
      type: "msra"
    }
    bias_filler {
      type: "constant"
    }
  }
}
layer {
  name: "conv4_3_bn_tmp"
  type: "BatchNorm"
  bottom: "conv4_3"
  top: "conv4_3"
  batch_norm_param {
    use_global_stats: false
  }
}
layer {
  name: "conv4_3_scale"
  type: "Scale"
  bottom: "conv4_3"
  top: "conv4_3"
  scale_param {
    bias_term: true
  }
}
layer {
  name: "relu4_3"
  type: "ReLU"
  bottom: "conv4_3"
  top: "conv4_3"
}
layer {
  name: "pool4"
  type: "Pooling"
  bottom: "conv4_3"
  top: "pool4"
  top: "pool4_mask"
  pooling_param {
    pool: MAX
    kernel_size: 2
    stride: 2
  }
}
layer {
  name: "conv5_1"
  type: "Convolution"
  bottom: "pool4"
  top: "conv5_1"
  param {
    lr_mult: 1
    decay_mult: 1
  }
  param {
    lr_mult: 2
    decay_mult: 0
  }
  convolution_param {
    num_output: 512
    pad: 1
    kernel_size: 3
    weight_filler {
      type: "msra"
    }
    bias_filler {
      type: "constant"
    }
  }
}
layer {
  name: "conv5_1_bn_tmp"
  type: "BatchNorm"
  bottom: "conv5_1"
  top: "conv5_1"
  batch_norm_param {
    use_global_stats: false
  }
}
layer {
  name: "conv5_1_scale"
  type: "Scale"
  bottom: "conv5_1"
  top: "conv5_1"
  scale_param {
    bias_term: true
  }
}
layer {
  name: "relu5_1"
  type: "ReLU"
  bottom: "conv5_1"
  top: "conv5_1"
}
layer {
  name: "conv5_2"
  type: "Convolution"
  bottom: "conv5_1"
  top: "conv5_2"
  param {
    lr_mult: 1
    decay_mult: 1
  }
  param {
    lr_mult: 2
    decay_mult: 0
  }
  convolution_param {
    num_output: 512
    pad: 1
    kernel_size: 3
    weight_filler {
      type: "msra"
    }
    bias_filler {
      type: "constant"
    }
  }
}
layer {
  name: "conv5_2_bn_tmp"
  type: "BatchNorm"
  bottom: "conv5_2"
  top: "conv5_2"
  batch_norm_param {
    use_global_stats: false
  }
}
layer {
  name: "conv5_2_scale"
  type: "Scale"
  bottom: "conv5_2"
  top: "conv5_2"
  scale_param {
    bias_term: true
  }
}
layer {
  name: "relu5_2"
  type: "ReLU"
  bottom: "conv5_2"
  top: "conv5_2"
}
layer {
  name: "conv5_3"
  type: "Convolution"
  bottom: "conv5_2"
  top: "conv5_3"
  param {
    lr_mult: 1
    decay_mult: 1
  }
  param {
    lr_mult: 2
    decay_mult: 0
  }
  convolution_param {
    num_output: 512
    pad: 1
    kernel_size: 3
    weight_filler {
      type: "msra"
    }
    bias_filler {
      type: "constant"
    }
  }
}
layer {
  name: "conv5_3_bn_tmp"
  type: "BatchNorm"
  bottom: "conv5_3"
  top: "conv5_3"
  batch_norm_param {
    use_global_stats: false
  }
}
layer {
  name: "conv5_3_scale"
  type: "Scale"
  bottom: "conv5_3"
  top: "conv5_3"
  scale_param {
    bias_term: true
  }
}
layer {
  name: "relu5_3"
  type: "ReLU"
  bottom: "conv5_3"
  top: "conv5_3"
}
layer {
  name: "pool5"
  type: "Pooling"
  bottom: "conv5_3"
  top: "pool5"
  top: "pool5_mask"
  pooling_param {
    pool: MAX
    kernel_size: 2
    stride: 2
  }
}
layer {
  name: "upsample5"
  type: "Upsample"
  bottom: "pool5"
  bottom: "pool5_mask"
  top: "pool5_D"
  upsample_param {
    scale: 2
    upsample_h: 23
    upsample_w: 30
  }
}
layer {
  name: "conv5_3_D"
  type: "Convolution"
  bottom: "pool5_D"
  top: "conv5_3_D"
  param {
    lr_mult: 1
    decay_mult: 1
  }
  param {
    lr_mult: 2
    decay_mult: 0
  }
  convolution_param {
    num_output: 512
    pad: 1
    kernel_size: 3
    weight_filler {
      type: "msra"
    }
    bias_filler {
      type: "constant"
    }
  }
}
layer {
  name: "conv5_3_D_bn_tmp"
  type: "BatchNorm"
  bottom: "conv5_3_D"
  top: "conv5_3_D"
  batch_norm_param {
    use_global_stats: false
  }
}
layer {
  name: "conv5_3_D_scale"
  type: "Scale"
  bottom: "conv5_3_D"
  top: "conv5_3_D"
  scale_param {
    bias_term: true
  }
}
layer {
  name: "relu5_3_D"
  type: "ReLU"
  bottom: "conv5_3_D"
  top: "conv5_3_D"
}
layer {
  name: "conv5_2_D"
  type: "Convolution"
  bottom: "conv5_3_D"
  top: "conv5_2_D"
  param {
    lr_mult: 1
    decay_mult: 1
  }
  param {
    lr_mult: 2
    decay_mult: 0
  }
  convolution_param {
    num_output: 512
    pad: 1
    kernel_size: 3
    weight_filler {
      type: "msra"
    }
    bias_filler {
      type: "constant"
    }
  }
}
layer {
  name: "conv5_2_D_bn_tmp"
  type: "BatchNorm"
  bottom: "conv5_2_D"
  top: "conv5_2_D"
  batch_norm_param {
    use_global_stats: false
  }
}
layer {
  name: "conv5_2_D_scale"
  type: "Scale"
  bottom: "conv5_2_D"
  top: "conv5_2_D"
  scale_param {
    bias_term: true
  }
}
layer {
  name: "relu5_2_D"
  type: "ReLU"
  bottom: "conv5_2_D"
  top: "conv5_2_D"
}
layer {
  name: "conv5_1_D"
  type: "Convolution"
  bottom: "conv5_2_D"
  top: "conv5_1_D"
  param {
    lr_mult: 1
    decay_mult: 1
  }
  param {
    lr_mult: 2
    decay_mult: 0
  }
  convolution_param {
    num_output: 512
    pad: 1
    kernel_size: 3
    weight_filler {
      type: "msra"
    }
    bias_filler {
      type: "constant"
    }
  }
}
layer {
  name: "conv5_1_D_bn_tmp"
  type: "BatchNorm"
  bottom: "conv5_1_D"
  top: "conv5_1_D"
  batch_norm_param {
    use_global_stats: false
  }
}
layer {
  name: "conv5_1_D_scale"
  type: "Scale"
  bottom: "conv5_1_D"
  top: "conv5_1_D"
  scale_param {
    bias_term: true
  }
}
layer {
  name: "relu5_1_D"
  type: "ReLU"
  bottom: "conv5_1_D"
  top: "conv5_1_D"
}
layer {
  name: "upsample4"
  type: "Upsample"
  bottom: "conv5_1_D"
  bottom: "pool4_mask"
  top: "pool4_D"
  upsample_param {
    scale: 2
    upsample_h: 45
    upsample_w: 60
  }
}
layer {
  name: "conv4_3_D"
  type: "Convolution"
  bottom: "pool4_D"
  top: "conv4_3_D"
  param {
    lr_mult: 1
    decay_mult: 1
  }
  param {
    lr_mult: 2
    decay_mult: 0
  }
  convolution_param {
    num_output: 512
    pad: 1
    kernel_size: 3
    weight_filler {
      type: "msra"
    }
    bias_filler {
      type: "constant"
    }
  }
}
layer {
  name: "conv4_3_D_bn_tmp"
  type: "BatchNorm"
  bottom: "conv4_3_D"
  top: "conv4_3_D"
  batch_norm_param {
    use_global_stats: false
  }
}
layer {
  name: "conv4_3_D_scale"
  type: "Scale"
  bottom: "conv4_3_D"
  top: "conv4_3_D"
  scale_param {
    bias_term: true
  }
}
layer {
  name: "relu4_3_D"
  type: "ReLU"
  bottom: "conv4_3_D"
  top: "conv4_3_D"
}
layer {
  name: "conv4_2_D"
  type: "Convolution"
  bottom: "conv4_3_D"
  top: "conv4_2_D"
  param {
    lr_mult: 1
    decay_mult: 1
  }
  param {
    lr_mult: 2
    decay_mult: 0
  }
  convolution_param {
    num_output: 512
    pad: 1
    kernel_size: 3
    weight_filler {
      type: "msra"
    }
    bias_filler {
      type: "constant"
    }
  }
}
layer {
  name: "conv4_2_D_bn_tmp"
  type: "BatchNorm"
  bottom: "conv4_2_D"
  top: "conv4_2_D"
  batch_norm_param {
    use_global_stats: false
  }
}
layer {
  name: "conv4_2_D_scale"
  type: "Scale"
  bottom: "conv4_2_D"
  top: "conv4_2_D"
  scale_param {
    bias_term: true
  }
}
layer {
  name: "relu4_2_D"
  type: "ReLU"
  bottom: "conv4_2_D"
  top: "conv4_2_D"
}
layer {
  name: "conv4_1_D"
  type: "Convolution"
  bottom: "conv4_2_D"
  top: "conv4_1_D"
  param {
    lr_mult: 1
    decay_mult: 1
  }
  param {
    lr_mult: 2
    decay_mult: 0
  }
  convolution_param {
    num_output: 256
    pad: 1
    kernel_size: 3
    weight_filler {
      type: "msra"
    }
    bias_filler {
      type: "constant"
    }
  }
}
layer {
  name: "conv4_1_D_bn_tmp"
  type: "BatchNorm"
  bottom: "conv4_1_D"
  top: "conv4_1_D"
  batch_norm_param {
    use_global_stats: false
  }
}
layer {
  name: "conv4_1_D_scale"
  type: "Scale"
  bottom: "conv4_1_D"
  top: "conv4_1_D"
  scale_param {
    bias_term: true
  }
}
layer {
  name: "relu4_1_D"
  type: "ReLU"
  bottom: "conv4_1_D"
  top: "conv4_1_D"
}
layer {
  name: "upsample3"
  type: "Upsample"
  bottom: "conv4_1_D"
  bottom: "pool3_mask"
  top: "pool3_D"
  upsample_param {
    scale: 2
  }
}
layer {
  name: "conv3_3_D"
  type: "Convolution"
  bottom: "pool3_D"
  top: "conv3_3_D"
  param {
    lr_mult: 1
    decay_mult: 1
  }
  param {
    lr_mult: 2
    decay_mult: 0
  }
  convolution_param {
    num_output: 256
    pad: 1
    kernel_size: 3
    weight_filler {
      type: "msra"
    }
    bias_filler {
      type: "constant"
    }
  }
}
layer {
  name: "conv3_3_D_bn_tmp"
  type: "BatchNorm"
  bottom: "conv3_3_D"
  top: "conv3_3_D"
  batch_norm_param {
    use_global_stats: false
  }
}
layer {
  name: "conv3_3_D_scale"
  type: "Scale"
  bottom: "conv3_3_D"
  top: "conv3_3_D"
  scale_param {
    bias_term: true
  }
}
layer {
  name: "relu3_3_D"
  type: "ReLU"
  bottom: "conv3_3_D"
  top: "conv3_3_D"
}
layer {
  name: "conv3_2_D"
  type: "Convolution"
  bottom: "conv3_3_D"
  top: "conv3_2_D"
  param {
    lr_mult: 1
    decay_mult: 1
  }
  param {
    lr_mult: 2
    decay_mult: 0
  }
  convolution_param {
    num_output: 256
    pad: 1
    kernel_size: 3
    weight_filler {
      type: "msra"
    }
    bias_filler {
      type: "constant"
    }
  }
}
layer {
  name: "conv3_2_D_bn_tmp"
  type: "BatchNorm"
  bottom: "conv3_2_D"
  top: "conv3_2_D"
  batch_norm_param {
    use_global_stats: false
  }
}
layer {
  name: "conv3_2_D_scale"
  type: "Scale"
  bottom: "conv3_2_D"
  top: "conv3_2_D"
  scale_param {
    bias_term: true
  }
}
layer {
  name: "relu3_2_D"
  type: "ReLU"
  bottom: "conv3_2_D"
  top: "conv3_2_D"
}
layer {
  name: "conv3_1_D"
  type: "Convolution"
  bottom: "conv3_2_D"
  top: "conv3_1_D"
  param {
    lr_mult: 1
    decay_mult: 1
  }
  param {
    lr_mult: 2
    decay_mult: 0
  }
  convolution_param {
    num_output: 128
    pad: 1
    kernel_size: 3
    weight_filler {
      type: "msra"
    }
    bias_filler {
      type: "constant"
    }
  }
}
layer {
  name: "conv3_1_D_bn_tmp"
  type: "BatchNorm"
  bottom: "conv3_1_D"
  top: "conv3_1_D"
  batch_norm_param {
    use_global_stats: false
  }
}
layer {
  name: "conv3_1_D_scale"
  type: "Scale"
  bottom: "conv3_1_D"
  top: "conv3_1_D"
  scale_param {
    bias_term: true
  }
}
layer {
  name: "relu3_1_D"
  type: "ReLU"
  bottom: "conv3_1_D"
  top: "conv3_1_D"
}
layer {
  name: "upsample2"
  type: "Upsample"
  bottom: "conv3_1_D"
  bottom: "pool2_mask"
  top: "pool2_D"
  upsample_param {
    scale: 2
  }
}
layer {
  name: "conv2_2_D"
  type: "Convolution"
  bottom: "pool2_D"
  top: "conv2_2_D"
  param {
    lr_mult: 1
    decay_mult: 1
  }
  param {
    lr_mult: 2
    decay_mult: 0
  }
  convolution_param {
    num_output: 128
    pad: 1
    kernel_size: 3
    weight_filler {
      type: "msra"
    }
    bias_filler {
      type: "constant"
    }
  }
}
layer {
  name: "conv2_2_D_bn_tmp"
  type: "BatchNorm"
  bottom: "conv2_2_D"
  top: "conv2_2_D"
  batch_norm_param {
    use_global_stats: false
  }
}
layer {
  name: "conv2_2_D_scale"
  type: "Scale"
  bottom: "conv2_2_D"
  top: "conv2_2_D"
  scale_param {
    bias_term: true
  }
}
layer {
  name: "relu2_2_D"
  type: "ReLU"
  bottom: "conv2_2_D"
  top: "conv2_2_D"
}
layer {
  name: "conv2_1_D"
  type: "Convolution"
  bottom: "conv2_2_D"
  top: "conv2_1_D"
  param {
    lr_mult: 1
    decay_mult: 1
  }
  param {
    lr_mult: 2
    decay_mult: 0
  }
  convolution_param {
    num_output: 64
    pad: 1
    kernel_size: 3
    weight_filler {
      type: "msra"
    }
    bias_filler {
      type: "constant"
    }
  }
}
layer {
  name: "conv2_1_D_bn_tmp"
  type: "BatchNorm"
  bottom: "conv2_1_D"
  top: "conv2_1_D"
  batch_norm_param {
    use_global_stats: false
  }
}
layer {
  name: "conv2_1_D_scale"
  type: "Scale"
  bottom: "conv2_1_D"
  top: "conv2_1_D"
  scale_param {
    bias_term: true
  }
}
layer {
  name: "relu2_1_D"
  type: "ReLU"
  bottom: "conv2_1_D"
  top: "conv2_1_D"
}
layer {
  name: "upsample1"
  type: "Upsample"
  bottom: "conv2_1_D"
  bottom: "pool1_mask"
  top: "pool1_D"
  upsample_param {
    scale: 2
  }
}
layer {
  name: "conv1_2_D"
  type: "Convolution"
  bottom: "pool1_D"
  top: "conv1_2_D"
  param {
    lr_mult: 1
    decay_mult: 1
  }
  param {
    lr_mult: 2
    decay_mult: 0
  }
  convolution_param {
    num_output: 64
    pad: 1
    kernel_size: 3
    weight_filler {
      type: "msra"
    }
    bias_filler {
      type: "constant"
    }
  }
}
layer {
  name: "conv1_2_D_bn_tmp"
  type: "BatchNorm"
  bottom: "conv1_2_D"
  top: "conv1_2_D"
  batch_norm_param {
    use_global_stats: false
  }
}
layer {
  name: "conv1_2_D_scale"
  type: "Scale"
  bottom: "conv1_2_D"
  top: "conv1_2_D"
  scale_param {
    bias_term: true
  }
}
layer {
  name: "relu1_2_D"
  type: "ReLU"
  bottom: "conv1_2_D"
  top: "conv1_2_D"
}
layer {
  name: "conv1_1_1_D"
  type: "Convolution"
  bottom: "conv1_2_D"
  top: "conv1_1_1_D"
  param {
    lr_mult: 1
    decay_mult: 1
  }
  param {
    lr_mult: 2
    decay_mult: 0
  }
  convolution_param {
    num_output: 2
    pad: 1
    kernel_size: 3
    weight_filler {
      type: "msra"
    }
    bias_filler {
      type: "constant"
    }
  }
}
layer {
  name: "loss"
  type: "SoftmaxWithLoss"
  bottom: "conv1_1_1_D"
  bottom: "label"
  top: "loss"
  loss_param {
    weight_by_label_freqs: true
    class_weighting: 0.7564
    class_weighting: 1.5572
  }
  softmax_param {
    engine: CAFFE
  }
}
layer {
  name: "accuracy"
  type: "Accuracy"
  bottom: "conv1_1_1_D"
  bottom: "label"
  top: "accuracy"
  top: "per_class_accuracy"
}
I0912 06:18:57.905151 28411 layer_factory.hpp:77] Creating layer data
I0912 06:18:57.905170 28411 net.cpp:100] Creating Layer data
I0912 06:18:57.905180 28411 net.cpp:408] data -> data
I0912 06:18:57.905210 28411 net.cpp:408] data -> label
I0912 06:18:57.905230 28411 hdf5_data_layer.cpp:79] Loading list of HDF5 filenames from: /disk2/nik/Analyzer/test/pocwisc7/HDF5Files/train_combined.txt
I0912 06:18:57.905553 28411 hdf5_data_layer.cpp:93] Number of HDF5 files: 29
I0912 06:18:57.906751 28411 hdf5.cpp:32] Datatype class: H5T_FLOAT
I0912 06:18:57.932046 28411 net.cpp:150] Setting up data
I0912 06:18:57.932073 28411 net.cpp:157] Top shape: 4 8 360 480 (5529600)
I0912 06:18:57.932086 28411 net.cpp:157] Top shape: 4 1 360 480 (691200)
I0912 06:18:57.932090 28411 net.cpp:165] Memory required for data: 24883200
I0912 06:18:57.932099 28411 layer_factory.hpp:77] Creating layer label_data_1_split
I0912 06:18:57.932112 28411 net.cpp:100] Creating Layer label_data_1_split
I0912 06:18:57.932119 28411 net.cpp:434] label_data_1_split <- label
I0912 06:18:57.932137 28411 net.cpp:408] label_data_1_split -> label_data_1_split_0
I0912 06:18:57.932150 28411 net.cpp:408] label_data_1_split -> label_data_1_split_1
I0912 06:18:57.932191 28411 net.cpp:150] Setting up label_data_1_split
I0912 06:18:57.932199 28411 net.cpp:157] Top shape: 4 1 360 480 (691200)
I0912 06:18:57.932204 28411 net.cpp:157] Top shape: 4 1 360 480 (691200)
I0912 06:18:57.932209 28411 net.cpp:165] Memory required for data: 30412800
I0912 06:18:57.932212 28411 layer_factory.hpp:77] Creating layer conv1_1_1
I0912 06:18:57.932231 28411 net.cpp:100] Creating Layer conv1_1_1
I0912 06:18:57.932236 28411 net.cpp:434] conv1_1_1 <- data
I0912 06:18:57.932242 28411 net.cpp:408] conv1_1_1 -> conv1_1_1
I0912 06:18:58.764576 28411 net.cpp:150] Setting up conv1_1_1
I0912 06:18:58.764612 28411 net.cpp:157] Top shape: 4 64 360 480 (44236800)
I0912 06:18:58.764616 28411 net.cpp:165] Memory required for data: 207360000
I0912 06:18:58.764642 28411 layer_factory.hpp:77] Creating layer conv1_1_1_bn
I0912 06:18:58.764657 28411 net.cpp:100] Creating Layer conv1_1_1_bn
I0912 06:18:58.764663 28411 net.cpp:434] conv1_1_1_bn <- conv1_1_1
I0912 06:18:58.764670 28411 net.cpp:395] conv1_1_1_bn -> conv1_1_1 (in-place)
I0912 06:18:58.765069 28411 net.cpp:150] Setting up conv1_1_1_bn
I0912 06:18:58.765077 28411 net.cpp:157] Top shape: 4 64 360 480 (44236800)
I0912 06:18:58.765081 28411 net.cpp:165] Memory required for data: 384307200
I0912 06:18:58.765094 28411 layer_factory.hpp:77] Creating layer conv1_1_1_scale
I0912 06:18:58.765106 28411 net.cpp:100] Creating Layer conv1_1_1_scale
I0912 06:18:58.765111 28411 net.cpp:434] conv1_1_1_scale <- conv1_1_1
I0912 06:18:58.765116 28411 net.cpp:395] conv1_1_1_scale -> conv1_1_1 (in-place)
I0912 06:18:58.765164 28411 layer_factory.hpp:77] Creating layer conv1_1_1_scale
I0912 06:18:58.766778 28411 net.cpp:150] Setting up conv1_1_1_scale
I0912 06:18:58.766793 28411 net.cpp:157] Top shape: 4 64 360 480 (44236800)
I0912 06:18:58.766803 28411 net.cpp:165] Memory required for data: 561254400
I0912 06:18:58.766811 28411 layer_factory.hpp:77] Creating layer relu1_1
I0912 06:18:58.766824 28411 net.cpp:100] Creating Layer relu1_1
I0912 06:18:58.766829 28411 net.cpp:434] relu1_1 <- conv1_1_1
I0912 06:18:58.766834 28411 net.cpp:395] relu1_1 -> conv1_1_1 (in-place)
I0912 06:18:58.767071 28411 net.cpp:150] Setting up relu1_1
I0912 06:18:58.767079 28411 net.cpp:157] Top shape: 4 64 360 480 (44236800)
I0912 06:18:58.767084 28411 net.cpp:165] Memory required for data: 738201600
I0912 06:18:58.767088 28411 layer_factory.hpp:77] Creating layer conv1_2
I0912 06:18:58.767101 28411 net.cpp:100] Creating Layer conv1_2
I0912 06:18:58.767105 28411 net.cpp:434] conv1_2 <- conv1_1_1
I0912 06:18:58.767112 28411 net.cpp:408] conv1_2 -> conv1_2
I0912 06:18:58.771303 28411 net.cpp:150] Setting up conv1_2
I0912 06:18:58.771320 28411 net.cpp:157] Top shape: 4 64 360 480 (44236800)
I0912 06:18:58.771329 28411 net.cpp:165] Memory required for data: 915148800
I0912 06:18:58.771340 28411 layer_factory.hpp:77] Creating layer conv1_2_bn_tmp
I0912 06:18:58.771353 28411 net.cpp:100] Creating Layer conv1_2_bn_tmp
I0912 06:18:58.771363 28411 net.cpp:434] conv1_2_bn_tmp <- conv1_2
I0912 06:18:58.771368 28411 net.cpp:395] conv1_2_bn_tmp -> conv1_2 (in-place)
I0912 06:18:58.772895 28411 net.cpp:150] Setting up conv1_2_bn_tmp
I0912 06:18:58.772910 28411 net.cpp:157] Top shape: 4 64 360 480 (44236800)
I0912 06:18:58.772918 28411 net.cpp:165] Memory required for data: 1092096000
I0912 06:18:58.772928 28411 layer_factory.hpp:77] Creating layer conv1_2_scale
I0912 06:18:58.772938 28411 net.cpp:100] Creating Layer conv1_2_scale
I0912 06:18:58.772944 28411 net.cpp:434] conv1_2_scale <- conv1_2
I0912 06:18:58.772949 28411 net.cpp:395] conv1_2_scale -> conv1_2 (in-place)
I0912 06:18:58.772992 28411 layer_factory.hpp:77] Creating layer conv1_2_scale
I0912 06:18:58.773370 28411 net.cpp:150] Setting up conv1_2_scale
I0912 06:18:58.773380 28411 net.cpp:157] Top shape: 4 64 360 480 (44236800)
I0912 06:18:58.773383 28411 net.cpp:165] Memory required for data: 1269043200
I0912 06:18:58.773391 28411 layer_factory.hpp:77] Creating layer relu1_2
I0912 06:18:58.773398 28411 net.cpp:100] Creating Layer relu1_2
I0912 06:18:58.773403 28411 net.cpp:434] relu1_2 <- conv1_2
I0912 06:18:58.773408 28411 net.cpp:395] relu1_2 -> conv1_2 (in-place)
I0912 06:18:58.773607 28411 net.cpp:150] Setting up relu1_2
I0912 06:18:58.773617 28411 net.cpp:157] Top shape: 4 64 360 480 (44236800)
I0912 06:18:58.773620 28411 net.cpp:165] Memory required for data: 1445990400
I0912 06:18:58.773624 28411 layer_factory.hpp:77] Creating layer pool1
I0912 06:18:58.773629 28411 layer_factory.cpp:91] cuDNN does not support multiple tops. Using Caffe's own pooling layer.
I0912 06:18:58.773636 28411 net.cpp:100] Creating Layer pool1
I0912 06:18:58.773641 28411 net.cpp:434] pool1 <- conv1_2
I0912 06:18:58.773648 28411 net.cpp:408] pool1 -> pool1
I0912 06:18:58.773658 28411 net.cpp:408] pool1 -> pool1_mask
I0912 06:18:58.773711 28411 net.cpp:150] Setting up pool1
I0912 06:18:58.773718 28411 net.cpp:157] Top shape: 4 64 180 240 (11059200)
I0912 06:18:58.773722 28411 net.cpp:157] Top shape: 4 64 180 240 (11059200)
I0912 06:18:58.773727 28411 net.cpp:165] Memory required for data: 1534464000
I0912 06:18:58.773730 28411 layer_factory.hpp:77] Creating layer conv2_1
I0912 06:18:58.773739 28411 net.cpp:100] Creating Layer conv2_1
I0912 06:18:58.773744 28411 net.cpp:434] conv2_1 <- pool1
I0912 06:18:58.773751 28411 net.cpp:408] conv2_1 -> conv2_1
I0912 06:18:58.779850 28411 net.cpp:150] Setting up conv2_1
I0912 06:18:58.779866 28411 net.cpp:157] Top shape: 4 128 180 240 (22118400)
I0912 06:18:58.779876 28411 net.cpp:165] Memory required for data: 1622937600
I0912 06:18:58.779884 28411 layer_factory.hpp:77] Creating layer conv2_1_bn_tmp
I0912 06:18:58.779893 28411 net.cpp:100] Creating Layer conv2_1_bn_tmp
I0912 06:18:58.779902 28411 net.cpp:434] conv2_1_bn_tmp <- conv2_1
I0912 06:18:58.779908 28411 net.cpp:395] conv2_1_bn_tmp -> conv2_1 (in-place)
I0912 06:18:58.780141 28411 net.cpp:150] Setting up conv2_1_bn_tmp
I0912 06:18:58.780149 28411 net.cpp:157] Top shape: 4 128 180 240 (22118400)
I0912 06:18:58.780153 28411 net.cpp:165] Memory required for data: 1711411200
I0912 06:18:58.780165 28411 layer_factory.hpp:77] Creating layer conv2_1_scale
I0912 06:18:58.780189 28411 net.cpp:100] Creating Layer conv2_1_scale
I0912 06:18:58.780192 28411 net.cpp:434] conv2_1_scale <- conv2_1
I0912 06:18:58.780197 28411 net.cpp:395] conv2_1_scale -> conv2_1 (in-place)
I0912 06:18:58.780239 28411 layer_factory.hpp:77] Creating layer conv2_1_scale
I0912 06:18:58.780416 28411 net.cpp:150] Setting up conv2_1_scale
I0912 06:18:58.780423 28411 net.cpp:157] Top shape: 4 128 180 240 (22118400)
I0912 06:18:58.780429 28411 net.cpp:165] Memory required for data: 1799884800
I0912 06:18:58.780436 28411 layer_factory.hpp:77] Creating layer relu2_1
I0912 06:18:58.780443 28411 net.cpp:100] Creating Layer relu2_1
I0912 06:18:58.780447 28411 net.cpp:434] relu2_1 <- conv2_1
I0912 06:18:58.780452 28411 net.cpp:395] relu2_1 -> conv2_1 (in-place)
I0912 06:18:58.781476 28411 net.cpp:150] Setting up relu2_1
I0912 06:18:58.781491 28411 net.cpp:157] Top shape: 4 128 180 240 (22118400)
I0912 06:18:58.781497 28411 net.cpp:165] Memory required for data: 1888358400
I0912 06:18:58.781502 28411 layer_factory.hpp:77] Creating layer conv2_2
I0912 06:18:58.781512 28411 net.cpp:100] Creating Layer conv2_2
I0912 06:18:58.781517 28411 net.cpp:434] conv2_2 <- conv2_1
I0912 06:18:58.781523 28411 net.cpp:408] conv2_2 -> conv2_2
I0912 06:18:58.788859 28411 net.cpp:150] Setting up conv2_2
I0912 06:18:58.788875 28411 net.cpp:157] Top shape: 4 128 180 240 (22118400)
I0912 06:18:58.788885 28411 net.cpp:165] Memory required for data: 1976832000
I0912 06:18:58.788893 28411 layer_factory.hpp:77] Creating layer conv2_2_bn_tmp
I0912 06:18:58.788905 28411 net.cpp:100] Creating Layer conv2_2_bn_tmp
I0912 06:18:58.788913 28411 net.cpp:434] conv2_2_bn_tmp <- conv2_2
I0912 06:18:58.788918 28411 net.cpp:395] conv2_2_bn_tmp -> conv2_2 (in-place)
I0912 06:18:58.789156 28411 net.cpp:150] Setting up conv2_2_bn_tmp
I0912 06:18:58.789165 28411 net.cpp:157] Top shape: 4 128 180 240 (22118400)
I0912 06:18:58.789167 28411 net.cpp:165] Memory required for data: 2065305600
I0912 06:18:58.789176 28411 layer_factory.hpp:77] Creating layer conv2_2_scale
I0912 06:18:58.789182 28411 net.cpp:100] Creating Layer conv2_2_scale
I0912 06:18:58.789191 28411 net.cpp:434] conv2_2_scale <- conv2_2
I0912 06:18:58.789196 28411 net.cpp:395] conv2_2_scale -> conv2_2 (in-place)
I0912 06:18:58.789234 28411 layer_factory.hpp:77] Creating layer conv2_2_scale
I0912 06:18:58.789418 28411 net.cpp:150] Setting up conv2_2_scale
I0912 06:18:58.789427 28411 net.cpp:157] Top shape: 4 128 180 240 (22118400)
I0912 06:18:58.789430 28411 net.cpp:165] Memory required for data: 2153779200
I0912 06:18:58.789438 28411 layer_factory.hpp:77] Creating layer relu2_2
I0912 06:18:58.789444 28411 net.cpp:100] Creating Layer relu2_2
I0912 06:18:58.789449 28411 net.cpp:434] relu2_2 <- conv2_2
I0912 06:18:58.789454 28411 net.cpp:395] relu2_2 -> conv2_2 (in-place)
I0912 06:18:58.789650 28411 net.cpp:150] Setting up relu2_2
I0912 06:18:58.789659 28411 net.cpp:157] Top shape: 4 128 180 240 (22118400)
I0912 06:18:58.789665 28411 net.cpp:165] Memory required for data: 2242252800
I0912 06:18:58.789669 28411 layer_factory.hpp:77] Creating layer pool2
I0912 06:18:58.789674 28411 layer_factory.cpp:91] cuDNN does not support multiple tops. Using Caffe's own pooling layer.
I0912 06:18:58.789679 28411 net.cpp:100] Creating Layer pool2
I0912 06:18:58.789683 28411 net.cpp:434] pool2 <- conv2_2
I0912 06:18:58.789688 28411 net.cpp:408] pool2 -> pool2
I0912 06:18:58.789697 28411 net.cpp:408] pool2 -> pool2_mask
I0912 06:18:58.789741 28411 net.cpp:150] Setting up pool2
I0912 06:18:58.789747 28411 net.cpp:157] Top shape: 4 128 90 120 (5529600)
I0912 06:18:58.789752 28411 net.cpp:157] Top shape: 4 128 90 120 (5529600)
I0912 06:18:58.789754 28411 net.cpp:165] Memory required for data: 2286489600
I0912 06:18:58.789758 28411 layer_factory.hpp:77] Creating layer conv3_1
I0912 06:18:58.789767 28411 net.cpp:100] Creating Layer conv3_1
I0912 06:18:58.789772 28411 net.cpp:434] conv3_1 <- pool2
I0912 06:18:58.789778 28411 net.cpp:408] conv3_1 -> conv3_1
I0912 06:18:58.801939 28411 net.cpp:150] Setting up conv3_1
I0912 06:18:58.801970 28411 net.cpp:157] Top shape: 4 256 90 120 (11059200)
I0912 06:18:58.801978 28411 net.cpp:165] Memory required for data: 2330726400
I0912 06:18:58.801987 28411 layer_factory.hpp:77] Creating layer conv3_1_bn_tmp
I0912 06:18:58.801996 28411 net.cpp:100] Creating Layer conv3_1_bn_tmp
I0912 06:18:58.802006 28411 net.cpp:434] conv3_1_bn_tmp <- conv3_1
I0912 06:18:58.802011 28411 net.cpp:395] conv3_1_bn_tmp -> conv3_1 (in-place)
I0912 06:18:58.802232 28411 net.cpp:150] Setting up conv3_1_bn_tmp
I0912 06:18:58.802239 28411 net.cpp:157] Top shape: 4 256 90 120 (11059200)
I0912 06:18:58.802243 28411 net.cpp:165] Memory required for data: 2374963200
I0912 06:18:58.802256 28411 layer_factory.hpp:77] Creating layer conv3_1_scale
I0912 06:18:58.802265 28411 net.cpp:100] Creating Layer conv3_1_scale
I0912 06:18:58.802270 28411 net.cpp:434] conv3_1_scale <- conv3_1
I0912 06:18:58.802275 28411 net.cpp:395] conv3_1_scale -> conv3_1 (in-place)
I0912 06:18:58.802317 28411 layer_factory.hpp:77] Creating layer conv3_1_scale
I0912 06:18:58.802453 28411 net.cpp:150] Setting up conv3_1_scale
I0912 06:18:58.802460 28411 net.cpp:157] Top shape: 4 256 90 120 (11059200)
I0912 06:18:58.802464 28411 net.cpp:165] Memory required for data: 2419200000
I0912 06:18:58.802470 28411 layer_factory.hpp:77] Creating layer relu3_1
I0912 06:18:58.802477 28411 net.cpp:100] Creating Layer relu3_1
I0912 06:18:58.802482 28411 net.cpp:434] relu3_1 <- conv3_1
I0912 06:18:58.802487 28411 net.cpp:395] relu3_1 -> conv3_1 (in-place)
I0912 06:18:58.802685 28411 net.cpp:150] Setting up relu3_1
I0912 06:18:58.802695 28411 net.cpp:157] Top shape: 4 256 90 120 (11059200)
I0912 06:18:58.802697 28411 net.cpp:165] Memory required for data: 2463436800
I0912 06:18:58.802702 28411 layer_factory.hpp:77] Creating layer conv3_2
I0912 06:18:58.802713 28411 net.cpp:100] Creating Layer conv3_2
I0912 06:18:58.802718 28411 net.cpp:434] conv3_2 <- conv3_1
I0912 06:18:58.802724 28411 net.cpp:408] conv3_2 -> conv3_2
I0912 06:18:58.825876 28411 net.cpp:150] Setting up conv3_2
I0912 06:18:58.825892 28411 net.cpp:157] Top shape: 4 256 90 120 (11059200)
I0912 06:18:58.825902 28411 net.cpp:165] Memory required for data: 2507673600
I0912 06:18:58.825911 28411 layer_factory.hpp:77] Creating layer conv3_2_bn_tmp
I0912 06:18:58.825918 28411 net.cpp:100] Creating Layer conv3_2_bn_tmp
I0912 06:18:58.825922 28411 net.cpp:434] conv3_2_bn_tmp <- conv3_2
I0912 06:18:58.825928 28411 net.cpp:395] conv3_2_bn_tmp -> conv3_2 (in-place)
I0912 06:18:58.826141 28411 net.cpp:150] Setting up conv3_2_bn_tmp
I0912 06:18:58.826149 28411 net.cpp:157] Top shape: 4 256 90 120 (11059200)
I0912 06:18:58.826153 28411 net.cpp:165] Memory required for data: 2551910400
I0912 06:18:58.826161 28411 layer_factory.hpp:77] Creating layer conv3_2_scale
I0912 06:18:58.826169 28411 net.cpp:100] Creating Layer conv3_2_scale
I0912 06:18:58.826179 28411 net.cpp:434] conv3_2_scale <- conv3_2
I0912 06:18:58.826184 28411 net.cpp:395] conv3_2_scale -> conv3_2 (in-place)
I0912 06:18:58.826227 28411 layer_factory.hpp:77] Creating layer conv3_2_scale
I0912 06:18:58.826364 28411 net.cpp:150] Setting up conv3_2_scale
I0912 06:18:58.826371 28411 net.cpp:157] Top shape: 4 256 90 120 (11059200)
I0912 06:18:58.826375 28411 net.cpp:165] Memory required for data: 2596147200
I0912 06:18:58.826381 28411 layer_factory.hpp:77] Creating layer relu3_2
I0912 06:18:58.826388 28411 net.cpp:100] Creating Layer relu3_2
I0912 06:18:58.826392 28411 net.cpp:434] relu3_2 <- conv3_2
I0912 06:18:58.826400 28411 net.cpp:395] relu3_2 -> conv3_2 (in-place)
I0912 06:18:58.826601 28411 net.cpp:150] Setting up relu3_2
I0912 06:18:58.826611 28411 net.cpp:157] Top shape: 4 256 90 120 (11059200)
I0912 06:18:58.826614 28411 net.cpp:165] Memory required for data: 2640384000
I0912 06:18:58.826618 28411 layer_factory.hpp:77] Creating layer conv3_3
I0912 06:18:58.826629 28411 net.cpp:100] Creating Layer conv3_3
I0912 06:18:58.826634 28411 net.cpp:434] conv3_3 <- conv3_2
I0912 06:18:58.826642 28411 net.cpp:408] conv3_3 -> conv3_3
I0912 06:18:58.852172 28411 net.cpp:150] Setting up conv3_3
I0912 06:18:58.852205 28411 net.cpp:157] Top shape: 4 256 90 120 (11059200)
I0912 06:18:58.852216 28411 net.cpp:165] Memory required for data: 2684620800
I0912 06:18:58.852228 28411 layer_factory.hpp:77] Creating layer conv3_3_bn_tmp
I0912 06:18:58.852242 28411 net.cpp:100] Creating Layer conv3_3_bn_tmp
I0912 06:18:58.852252 28411 net.cpp:434] conv3_3_bn_tmp <- conv3_3
I0912 06:18:58.852263 28411 net.cpp:395] conv3_3_bn_tmp -> conv3_3 (in-place)
I0912 06:18:58.852484 28411 net.cpp:150] Setting up conv3_3_bn_tmp
I0912 06:18:58.852493 28411 net.cpp:157] Top shape: 4 256 90 120 (11059200)
I0912 06:18:58.852496 28411 net.cpp:165] Memory required for data: 2728857600
I0912 06:18:58.852504 28411 layer_factory.hpp:77] Creating layer conv3_3_scale
I0912 06:18:58.852514 28411 net.cpp:100] Creating Layer conv3_3_scale
I0912 06:18:58.852520 28411 net.cpp:434] conv3_3_scale <- conv3_3
I0912 06:18:58.852525 28411 net.cpp:395] conv3_3_scale -> conv3_3 (in-place)
I0912 06:18:58.852566 28411 layer_factory.hpp:77] Creating layer conv3_3_scale
I0912 06:18:58.852710 28411 net.cpp:150] Setting up conv3_3_scale
I0912 06:18:58.852717 28411 net.cpp:157] Top shape: 4 256 90 120 (11059200)
I0912 06:18:58.852721 28411 net.cpp:165] Memory required for data: 2773094400
I0912 06:18:58.852728 28411 layer_factory.hpp:77] Creating layer relu3_3
I0912 06:18:58.852735 28411 net.cpp:100] Creating Layer relu3_3
I0912 06:18:58.852741 28411 net.cpp:434] relu3_3 <- conv3_3
I0912 06:18:58.852746 28411 net.cpp:395] relu3_3 -> conv3_3 (in-place)
I0912 06:18:58.852951 28411 net.cpp:150] Setting up relu3_3
I0912 06:18:58.852959 28411 net.cpp:157] Top shape: 4 256 90 120 (11059200)
I0912 06:18:58.852964 28411 net.cpp:165] Memory required for data: 2817331200
I0912 06:18:58.852968 28411 layer_factory.hpp:77] Creating layer pool3
I0912 06:18:58.852972 28411 layer_factory.cpp:91] cuDNN does not support multiple tops. Using Caffe's own pooling layer.
I0912 06:18:58.852988 28411 net.cpp:100] Creating Layer pool3
I0912 06:18:58.852993 28411 net.cpp:434] pool3 <- conv3_3
I0912 06:18:58.852999 28411 net.cpp:408] pool3 -> pool3
I0912 06:18:58.853008 28411 net.cpp:408] pool3 -> pool3_mask
I0912 06:18:58.853055 28411 net.cpp:150] Setting up pool3
I0912 06:18:58.853063 28411 net.cpp:157] Top shape: 4 256 45 60 (2764800)
I0912 06:18:58.853068 28411 net.cpp:157] Top shape: 4 256 45 60 (2764800)
I0912 06:18:58.853072 28411 net.cpp:165] Memory required for data: 2839449600
I0912 06:18:58.853076 28411 layer_factory.hpp:77] Creating layer conv4_1
I0912 06:18:58.853088 28411 net.cpp:100] Creating Layer conv4_1
I0912 06:18:58.853093 28411 net.cpp:434] conv4_1 <- pool3
I0912 06:18:58.853099 28411 net.cpp:408] conv4_1 -> conv4_1
I0912 06:18:58.899008 28411 net.cpp:150] Setting up conv4_1
I0912 06:18:58.899025 28411 net.cpp:157] Top shape: 4 512 45 60 (5529600)
I0912 06:18:58.899030 28411 net.cpp:165] Memory required for data: 2861568000
I0912 06:18:58.899039 28411 layer_factory.hpp:77] Creating layer conv4_1_bn_tmp
I0912 06:18:58.899047 28411 net.cpp:100] Creating Layer conv4_1_bn_tmp
I0912 06:18:58.899051 28411 net.cpp:434] conv4_1_bn_tmp <- conv4_1
I0912 06:18:58.899057 28411 net.cpp:395] conv4_1_bn_tmp -> conv4_1 (in-place)
I0912 06:18:58.899266 28411 net.cpp:150] Setting up conv4_1_bn_tmp
I0912 06:18:58.899274 28411 net.cpp:157] Top shape: 4 512 45 60 (5529600)
I0912 06:18:58.899277 28411 net.cpp:165] Memory required for data: 2883686400
I0912 06:18:58.899286 28411 layer_factory.hpp:77] Creating layer conv4_1_scale
I0912 06:18:58.899299 28411 net.cpp:100] Creating Layer conv4_1_scale
I0912 06:18:58.899307 28411 net.cpp:434] conv4_1_scale <- conv4_1
I0912 06:18:58.899312 28411 net.cpp:395] conv4_1_scale -> conv4_1 (in-place)
I0912 06:18:58.899350 28411 layer_factory.hpp:77] Creating layer conv4_1_scale
I0912 06:18:58.899477 28411 net.cpp:150] Setting up conv4_1_scale
I0912 06:18:58.899485 28411 net.cpp:157] Top shape: 4 512 45 60 (5529600)
I0912 06:18:58.899488 28411 net.cpp:165] Memory required for data: 2905804800
I0912 06:18:58.899495 28411 layer_factory.hpp:77] Creating layer relu4_1
I0912 06:18:58.899516 28411 net.cpp:100] Creating Layer relu4_1
I0912 06:18:58.899523 28411 net.cpp:434] relu4_1 <- conv4_1
I0912 06:18:58.899528 28411 net.cpp:395] relu4_1 -> conv4_1 (in-place)
I0912 06:18:58.899736 28411 net.cpp:150] Setting up relu4_1
I0912 06:18:58.899745 28411 net.cpp:157] Top shape: 4 512 45 60 (5529600)
I0912 06:18:58.899750 28411 net.cpp:165] Memory required for data: 2927923200
I0912 06:18:58.899756 28411 layer_factory.hpp:77] Creating layer conv4_2
I0912 06:18:58.899768 28411 net.cpp:100] Creating Layer conv4_2
I0912 06:18:58.899773 28411 net.cpp:434] conv4_2 <- conv4_1
I0912 06:18:58.899780 28411 net.cpp:408] conv4_2 -> conv4_2
I0912 06:18:58.983043 28411 net.cpp:150] Setting up conv4_2
I0912 06:18:58.983062 28411 net.cpp:157] Top shape: 4 512 45 60 (5529600)
I0912 06:18:58.983065 28411 net.cpp:165] Memory required for data: 2950041600
I0912 06:18:58.983073 28411 layer_factory.hpp:77] Creating layer conv4_2_bn_tmp
I0912 06:18:58.983083 28411 net.cpp:100] Creating Layer conv4_2_bn_tmp
I0912 06:18:58.983088 28411 net.cpp:434] conv4_2_bn_tmp <- conv4_2
I0912 06:18:58.983094 28411 net.cpp:395] conv4_2_bn_tmp -> conv4_2 (in-place)
I0912 06:18:58.983299 28411 net.cpp:150] Setting up conv4_2_bn_tmp
I0912 06:18:58.983307 28411 net.cpp:157] Top shape: 4 512 45 60 (5529600)
I0912 06:18:58.983310 28411 net.cpp:165] Memory required for data: 2972160000
I0912 06:18:58.983319 28411 layer_factory.hpp:77] Creating layer conv4_2_scale
I0912 06:18:58.983326 28411 net.cpp:100] Creating Layer conv4_2_scale
I0912 06:18:58.983335 28411 net.cpp:434] conv4_2_scale <- conv4_2
I0912 06:18:58.983340 28411 net.cpp:395] conv4_2_scale -> conv4_2 (in-place)
I0912 06:18:58.983381 28411 layer_factory.hpp:77] Creating layer conv4_2_scale
I0912 06:18:58.983507 28411 net.cpp:150] Setting up conv4_2_scale
I0912 06:18:58.983515 28411 net.cpp:157] Top shape: 4 512 45 60 (5529600)
I0912 06:18:58.983518 28411 net.cpp:165] Memory required for data: 2994278400
I0912 06:18:58.983525 28411 layer_factory.hpp:77] Creating layer relu4_2
I0912 06:18:58.983532 28411 net.cpp:100] Creating Layer relu4_2
I0912 06:18:58.983537 28411 net.cpp:434] relu4_2 <- conv4_2
I0912 06:18:58.983542 28411 net.cpp:395] relu4_2 -> conv4_2 (in-place)
I0912 06:18:58.984585 28411 net.cpp:150] Setting up relu4_2
I0912 06:18:58.984598 28411 net.cpp:157] Top shape: 4 512 45 60 (5529600)
I0912 06:18:58.984603 28411 net.cpp:165] Memory required for data: 3016396800
I0912 06:18:58.984609 28411 layer_factory.hpp:77] Creating layer conv4_3
I0912 06:18:58.984623 28411 net.cpp:100] Creating Layer conv4_3
I0912 06:18:58.984629 28411 net.cpp:434] conv4_3 <- conv4_2
I0912 06:18:58.984637 28411 net.cpp:408] conv4_3 -> conv4_3
I0912 06:18:59.067903 28411 net.cpp:150] Setting up conv4_3
I0912 06:18:59.067920 28411 net.cpp:157] Top shape: 4 512 45 60 (5529600)
I0912 06:18:59.067925 28411 net.cpp:165] Memory required for data: 3038515200
I0912 06:18:59.067946 28411 layer_factory.hpp:77] Creating layer conv4_3_bn_tmp
I0912 06:18:59.067958 28411 net.cpp:100] Creating Layer conv4_3_bn_tmp
I0912 06:18:59.067965 28411 net.cpp:434] conv4_3_bn_tmp <- conv4_3
I0912 06:18:59.067970 28411 net.cpp:395] conv4_3_bn_tmp -> conv4_3 (in-place)
I0912 06:18:59.068186 28411 net.cpp:150] Setting up conv4_3_bn_tmp
I0912 06:18:59.068193 28411 net.cpp:157] Top shape: 4 512 45 60 (5529600)
I0912 06:18:59.068197 28411 net.cpp:165] Memory required for data: 3060633600
I0912 06:18:59.068207 28411 layer_factory.hpp:77] Creating layer conv4_3_scale
I0912 06:18:59.068215 28411 net.cpp:100] Creating Layer conv4_3_scale
I0912 06:18:59.068222 28411 net.cpp:434] conv4_3_scale <- conv4_3
I0912 06:18:59.068228 28411 net.cpp:395] conv4_3_scale -> conv4_3 (in-place)
I0912 06:18:59.068269 28411 layer_factory.hpp:77] Creating layer conv4_3_scale
I0912 06:18:59.068398 28411 net.cpp:150] Setting up conv4_3_scale
I0912 06:18:59.068405 28411 net.cpp:157] Top shape: 4 512 45 60 (5529600)
I0912 06:18:59.068409 28411 net.cpp:165] Memory required for data: 3082752000
I0912 06:18:59.068415 28411 layer_factory.hpp:77] Creating layer relu4_3
I0912 06:18:59.068437 28411 net.cpp:100] Creating Layer relu4_3
I0912 06:18:59.068442 28411 net.cpp:434] relu4_3 <- conv4_3
I0912 06:18:59.068449 28411 net.cpp:395] relu4_3 -> conv4_3 (in-place)
I0912 06:18:59.068647 28411 net.cpp:150] Setting up relu4_3
I0912 06:18:59.068656 28411 net.cpp:157] Top shape: 4 512 45 60 (5529600)
I0912 06:18:59.068661 28411 net.cpp:165] Memory required for data: 3104870400
I0912 06:18:59.068667 28411 layer_factory.hpp:77] Creating layer pool4
I0912 06:18:59.068675 28411 layer_factory.cpp:91] cuDNN does not support multiple tops. Using Caffe's own pooling layer.
I0912 06:18:59.068681 28411 net.cpp:100] Creating Layer pool4
I0912 06:18:59.068686 28411 net.cpp:434] pool4 <- conv4_3
I0912 06:18:59.068692 28411 net.cpp:408] pool4 -> pool4
I0912 06:18:59.068701 28411 net.cpp:408] pool4 -> pool4_mask
I0912 06:18:59.068750 28411 net.cpp:150] Setting up pool4
I0912 06:18:59.068758 28411 net.cpp:157] Top shape: 4 512 23 30 (1413120)
I0912 06:18:59.068763 28411 net.cpp:157] Top shape: 4 512 23 30 (1413120)
I0912 06:18:59.068766 28411 net.cpp:165] Memory required for data: 3116175360
I0912 06:18:59.068769 28411 layer_factory.hpp:77] Creating layer conv5_1
I0912 06:18:59.068780 28411 net.cpp:100] Creating Layer conv5_1
I0912 06:18:59.068785 28411 net.cpp:434] conv5_1 <- pool4
I0912 06:18:59.068792 28411 net.cpp:408] conv5_1 -> conv5_1
I0912 06:18:59.152112 28411 net.cpp:150] Setting up conv5_1
I0912 06:18:59.152130 28411 net.cpp:157] Top shape: 4 512 23 30 (1413120)
I0912 06:18:59.152134 28411 net.cpp:165] Memory required for data: 3121827840
I0912 06:18:59.152143 28411 layer_factory.hpp:77] Creating layer conv5_1_bn_tmp
I0912 06:18:59.152150 28411 net.cpp:100] Creating Layer conv5_1_bn_tmp
I0912 06:18:59.152155 28411 net.cpp:434] conv5_1_bn_tmp <- conv5_1
I0912 06:18:59.152163 28411 net.cpp:395] conv5_1_bn_tmp -> conv5_1 (in-place)
I0912 06:18:59.152375 28411 net.cpp:150] Setting up conv5_1_bn_tmp
I0912 06:18:59.152384 28411 net.cpp:157] Top shape: 4 512 23 30 (1413120)
I0912 06:18:59.152387 28411 net.cpp:165] Memory required for data: 3127480320
I0912 06:18:59.152395 28411 layer_factory.hpp:77] Creating layer conv5_1_scale
I0912 06:18:59.152406 28411 net.cpp:100] Creating Layer conv5_1_scale
I0912 06:18:59.152415 28411 net.cpp:434] conv5_1_scale <- conv5_1
I0912 06:18:59.152420 28411 net.cpp:395] conv5_1_scale -> conv5_1 (in-place)
I0912 06:18:59.152470 28411 layer_factory.hpp:77] Creating layer conv5_1_scale
I0912 06:18:59.152590 28411 net.cpp:150] Setting up conv5_1_scale
I0912 06:18:59.152597 28411 net.cpp:157] Top shape: 4 512 23 30 (1413120)
I0912 06:18:59.152601 28411 net.cpp:165] Memory required for data: 3133132800
I0912 06:18:59.152608 28411 layer_factory.hpp:77] Creating layer relu5_1
I0912 06:18:59.152616 28411 net.cpp:100] Creating Layer relu5_1
I0912 06:18:59.152621 28411 net.cpp:434] relu5_1 <- conv5_1
I0912 06:18:59.152626 28411 net.cpp:395] relu5_1 -> conv5_1 (in-place)
I0912 06:18:59.152827 28411 net.cpp:150] Setting up relu5_1
I0912 06:18:59.152835 28411 net.cpp:157] Top shape: 4 512 23 30 (1413120)
I0912 06:18:59.152838 28411 net.cpp:165] Memory required for data: 3138785280
I0912 06:18:59.152842 28411 layer_factory.hpp:77] Creating layer conv5_2
I0912 06:18:59.152854 28411 net.cpp:100] Creating Layer conv5_2
I0912 06:18:59.152859 28411 net.cpp:434] conv5_2 <- conv5_1
I0912 06:18:59.152866 28411 net.cpp:408] conv5_2 -> conv5_2
I0912 06:18:59.236197 28411 net.cpp:150] Setting up conv5_2
I0912 06:18:59.236214 28411 net.cpp:157] Top shape: 4 512 23 30 (1413120)
I0912 06:18:59.236219 28411 net.cpp:165] Memory required for data: 3144437760
I0912 06:18:59.236227 28411 layer_factory.hpp:77] Creating layer conv5_2_bn_tmp
I0912 06:18:59.236241 28411 net.cpp:100] Creating Layer conv5_2_bn_tmp
I0912 06:18:59.236248 28411 net.cpp:434] conv5_2_bn_tmp <- conv5_2
I0912 06:18:59.236255 28411 net.cpp:395] conv5_2_bn_tmp -> conv5_2 (in-place)
I0912 06:18:59.236470 28411 net.cpp:150] Setting up conv5_2_bn_tmp
I0912 06:18:59.236479 28411 net.cpp:157] Top shape: 4 512 23 30 (1413120)
I0912 06:18:59.236497 28411 net.cpp:165] Memory required for data: 3150090240
I0912 06:18:59.236506 28411 layer_factory.hpp:77] Creating layer conv5_2_scale
I0912 06:18:59.236515 28411 net.cpp:100] Creating Layer conv5_2_scale
I0912 06:18:59.236521 28411 net.cpp:434] conv5_2_scale <- conv5_2
I0912 06:18:59.236526 28411 net.cpp:395] conv5_2_scale -> conv5_2 (in-place)
I0912 06:18:59.236575 28411 layer_factory.hpp:77] Creating layer conv5_2_scale
I0912 06:18:59.236697 28411 net.cpp:150] Setting up conv5_2_scale
I0912 06:18:59.236706 28411 net.cpp:157] Top shape: 4 512 23 30 (1413120)
I0912 06:18:59.236709 28411 net.cpp:165] Memory required for data: 3155742720
I0912 06:18:59.236718 28411 layer_factory.hpp:77] Creating layer relu5_2
I0912 06:18:59.236726 28411 net.cpp:100] Creating Layer relu5_2
I0912 06:18:59.236732 28411 net.cpp:434] relu5_2 <- conv5_2
I0912 06:18:59.236737 28411 net.cpp:395] relu5_2 -> conv5_2 (in-place)
I0912 06:18:59.236934 28411 net.cpp:150] Setting up relu5_2
I0912 06:18:59.236943 28411 net.cpp:157] Top shape: 4 512 23 30 (1413120)
I0912 06:18:59.236948 28411 net.cpp:165] Memory required for data: 3161395200
I0912 06:18:59.236951 28411 layer_factory.hpp:77] Creating layer conv5_3
I0912 06:18:59.236963 28411 net.cpp:100] Creating Layer conv5_3
I0912 06:18:59.236968 28411 net.cpp:434] conv5_3 <- conv5_2
I0912 06:18:59.236975 28411 net.cpp:408] conv5_3 -> conv5_3
I0912 06:18:59.320303 28411 net.cpp:150] Setting up conv5_3
I0912 06:18:59.320322 28411 net.cpp:157] Top shape: 4 512 23 30 (1413120)
I0912 06:18:59.320327 28411 net.cpp:165] Memory required for data: 3167047680
I0912 06:18:59.320334 28411 layer_factory.hpp:77] Creating layer conv5_3_bn_tmp
I0912 06:18:59.320343 28411 net.cpp:100] Creating Layer conv5_3_bn_tmp
I0912 06:18:59.320346 28411 net.cpp:434] conv5_3_bn_tmp <- conv5_3
I0912 06:18:59.320354 28411 net.cpp:395] conv5_3_bn_tmp -> conv5_3 (in-place)
I0912 06:18:59.320569 28411 net.cpp:150] Setting up conv5_3_bn_tmp
I0912 06:18:59.320577 28411 net.cpp:157] Top shape: 4 512 23 30 (1413120)
I0912 06:18:59.320581 28411 net.cpp:165] Memory required for data: 3172700160
I0912 06:18:59.320590 28411 layer_factory.hpp:77] Creating layer conv5_3_scale
I0912 06:18:59.320598 28411 net.cpp:100] Creating Layer conv5_3_scale
I0912 06:18:59.320605 28411 net.cpp:434] conv5_3_scale <- conv5_3
I0912 06:18:59.320611 28411 net.cpp:395] conv5_3_scale -> conv5_3 (in-place)
I0912 06:18:59.320662 28411 layer_factory.hpp:77] Creating layer conv5_3_scale
I0912 06:18:59.320782 28411 net.cpp:150] Setting up conv5_3_scale
I0912 06:18:59.320791 28411 net.cpp:157] Top shape: 4 512 23 30 (1413120)
I0912 06:18:59.320793 28411 net.cpp:165] Memory required for data: 3178352640
I0912 06:18:59.320802 28411 layer_factory.hpp:77] Creating layer relu5_3
I0912 06:18:59.320811 28411 net.cpp:100] Creating Layer relu5_3
I0912 06:18:59.320816 28411 net.cpp:434] relu5_3 <- conv5_3
I0912 06:18:59.320821 28411 net.cpp:395] relu5_3 -> conv5_3 (in-place)
I0912 06:18:59.321018 28411 net.cpp:150] Setting up relu5_3
I0912 06:18:59.321027 28411 net.cpp:157] Top shape: 4 512 23 30 (1413120)
I0912 06:18:59.321033 28411 net.cpp:165] Memory required for data: 3184005120
I0912 06:18:59.321035 28411 layer_factory.hpp:77] Creating layer pool5
I0912 06:18:59.321043 28411 layer_factory.cpp:91] cuDNN does not support multiple tops. Using Caffe's own pooling layer.
I0912 06:18:59.321051 28411 net.cpp:100] Creating Layer pool5
I0912 06:18:59.321056 28411 net.cpp:434] pool5 <- conv5_3
I0912 06:18:59.321063 28411 net.cpp:408] pool5 -> pool5
I0912 06:18:59.321071 28411 net.cpp:408] pool5 -> pool5_mask
I0912 06:18:59.321121 28411 net.cpp:150] Setting up pool5
I0912 06:18:59.321131 28411 net.cpp:157] Top shape: 4 512 12 15 (368640)
I0912 06:18:59.321137 28411 net.cpp:157] Top shape: 4 512 12 15 (368640)
I0912 06:18:59.321141 28411 net.cpp:165] Memory required for data: 3186954240
I0912 06:18:59.321144 28411 layer_factory.hpp:77] Creating layer upsample5
I0912 06:18:59.321159 28411 net.cpp:100] Creating Layer upsample5
I0912 06:18:59.321164 28411 net.cpp:434] upsample5 <- pool5
I0912 06:18:59.321185 28411 net.cpp:434] upsample5 <- pool5_mask
I0912 06:18:59.321192 28411 net.cpp:408] upsample5 -> pool5_D
I0912 06:18:59.321229 28411 net.cpp:150] Setting up upsample5
I0912 06:18:59.321236 28411 net.cpp:157] Top shape: 4 512 23 30 (1413120)
I0912 06:18:59.321239 28411 net.cpp:165] Memory required for data: 3192606720
I0912 06:18:59.321243 28411 layer_factory.hpp:77] Creating layer conv5_3_D
I0912 06:18:59.321254 28411 net.cpp:100] Creating Layer conv5_3_D
I0912 06:18:59.321259 28411 net.cpp:434] conv5_3_D <- pool5_D
I0912 06:18:59.321265 28411 net.cpp:408] conv5_3_D -> conv5_3_D
I0912 06:18:59.406061 28411 net.cpp:150] Setting up conv5_3_D
I0912 06:18:59.406082 28411 net.cpp:157] Top shape: 4 512 23 30 (1413120)
I0912 06:18:59.406086 28411 net.cpp:165] Memory required for data: 3198259200
I0912 06:18:59.406098 28411 layer_factory.hpp:77] Creating layer conv5_3_D_bn_tmp
I0912 06:18:59.406111 28411 net.cpp:100] Creating Layer conv5_3_D_bn_tmp
I0912 06:18:59.406126 28411 net.cpp:434] conv5_3_D_bn_tmp <- conv5_3_D
I0912 06:18:59.406136 28411 net.cpp:395] conv5_3_D_bn_tmp -> conv5_3_D (in-place)
I0912 06:18:59.406374 28411 net.cpp:150] Setting up conv5_3_D_bn_tmp
I0912 06:18:59.406383 28411 net.cpp:157] Top shape: 4 512 23 30 (1413120)
I0912 06:18:59.406385 28411 net.cpp:165] Memory required for data: 3203911680
I0912 06:18:59.406395 28411 layer_factory.hpp:77] Creating layer conv5_3_D_scale
I0912 06:18:59.406404 28411 net.cpp:100] Creating Layer conv5_3_D_scale
I0912 06:18:59.406412 28411 net.cpp:434] conv5_3_D_scale <- conv5_3_D
I0912 06:18:59.406417 28411 net.cpp:395] conv5_3_D_scale -> conv5_3_D (in-place)
I0912 06:18:59.406466 28411 layer_factory.hpp:77] Creating layer conv5_3_D_scale
I0912 06:18:59.406594 28411 net.cpp:150] Setting up conv5_3_D_scale
I0912 06:18:59.406601 28411 net.cpp:157] Top shape: 4 512 23 30 (1413120)
I0912 06:18:59.406605 28411 net.cpp:165] Memory required for data: 3209564160
I0912 06:18:59.406611 28411 layer_factory.hpp:77] Creating layer relu5_3_D
I0912 06:18:59.406622 28411 net.cpp:100] Creating Layer relu5_3_D
I0912 06:18:59.406627 28411 net.cpp:434] relu5_3_D <- conv5_3_D
I0912 06:18:59.406632 28411 net.cpp:395] relu5_3_D -> conv5_3_D (in-place)
I0912 06:18:59.406852 28411 net.cpp:150] Setting up relu5_3_D
I0912 06:18:59.406862 28411 net.cpp:157] Top shape: 4 512 23 30 (1413120)
I0912 06:18:59.406867 28411 net.cpp:165] Memory required for data: 3215216640
I0912 06:18:59.406870 28411 layer_factory.hpp:77] Creating layer conv5_2_D
I0912 06:18:59.406916 28411 net.cpp:100] Creating Layer conv5_2_D
I0912 06:18:59.406922 28411 net.cpp:434] conv5_2_D <- conv5_3_D
I0912 06:18:59.406929 28411 net.cpp:408] conv5_2_D -> conv5_2_D
I0912 06:18:59.490295 28411 net.cpp:150] Setting up conv5_2_D
I0912 06:18:59.490312 28411 net.cpp:157] Top shape: 4 512 23 30 (1413120)
I0912 06:18:59.490316 28411 net.cpp:165] Memory required for data: 3220869120
I0912 06:18:59.490324 28411 layer_factory.hpp:77] Creating layer conv5_2_D_bn_tmp
I0912 06:18:59.490334 28411 net.cpp:100] Creating Layer conv5_2_D_bn_tmp
I0912 06:18:59.490339 28411 net.cpp:434] conv5_2_D_bn_tmp <- conv5_2_D
I0912 06:18:59.490344 28411 net.cpp:395] conv5_2_D_bn_tmp -> conv5_2_D (in-place)
I0912 06:18:59.490574 28411 net.cpp:150] Setting up conv5_2_D_bn_tmp
I0912 06:18:59.490582 28411 net.cpp:157] Top shape: 4 512 23 30 (1413120)
I0912 06:18:59.490586 28411 net.cpp:165] Memory required for data: 3226521600
I0912 06:18:59.490594 28411 layer_factory.hpp:77] Creating layer conv5_2_D_scale
I0912 06:18:59.490602 28411 net.cpp:100] Creating Layer conv5_2_D_scale
I0912 06:18:59.490612 28411 net.cpp:434] conv5_2_D_scale <- conv5_2_D
I0912 06:18:59.490617 28411 net.cpp:395] conv5_2_D_scale -> conv5_2_D (in-place)
I0912 06:18:59.490665 28411 layer_factory.hpp:77] Creating layer conv5_2_D_scale
I0912 06:18:59.490794 28411 net.cpp:150] Setting up conv5_2_D_scale
I0912 06:18:59.490803 28411 net.cpp:157] Top shape: 4 512 23 30 (1413120)
I0912 06:18:59.490805 28411 net.cpp:165] Memory required for data: 3232174080
I0912 06:18:59.490829 28411 layer_factory.hpp:77] Creating layer relu5_2_D
I0912 06:18:59.490838 28411 net.cpp:100] Creating Layer relu5_2_D
I0912 06:18:59.490842 28411 net.cpp:434] relu5_2_D <- conv5_2_D
I0912 06:18:59.490847 28411 net.cpp:395] relu5_2_D -> conv5_2_D (in-place)
I0912 06:18:59.491925 28411 net.cpp:150] Setting up relu5_2_D
I0912 06:18:59.491938 28411 net.cpp:157] Top shape: 4 512 23 30 (1413120)
I0912 06:18:59.491943 28411 net.cpp:165] Memory required for data: 3237826560
I0912 06:18:59.491950 28411 layer_factory.hpp:77] Creating layer conv5_1_D
I0912 06:18:59.491964 28411 net.cpp:100] Creating Layer conv5_1_D
I0912 06:18:59.491971 28411 net.cpp:434] conv5_1_D <- conv5_2_D
I0912 06:18:59.491977 28411 net.cpp:408] conv5_1_D -> conv5_1_D
I0912 06:18:59.575458 28411 net.cpp:150] Setting up conv5_1_D
I0912 06:18:59.575474 28411 net.cpp:157] Top shape: 4 512 23 30 (1413120)
I0912 06:18:59.575479 28411 net.cpp:165] Memory required for data: 3243479040
I0912 06:18:59.575486 28411 layer_factory.hpp:77] Creating layer conv5_1_D_bn_tmp
I0912 06:18:59.575495 28411 net.cpp:100] Creating Layer conv5_1_D_bn_tmp
I0912 06:18:59.575500 28411 net.cpp:434] conv5_1_D_bn_tmp <- conv5_1_D
I0912 06:18:59.575506 28411 net.cpp:395] conv5_1_D_bn_tmp -> conv5_1_D (in-place)
I0912 06:18:59.575750 28411 net.cpp:150] Setting up conv5_1_D_bn_tmp
I0912 06:18:59.575758 28411 net.cpp:157] Top shape: 4 512 23 30 (1413120)
I0912 06:18:59.575762 28411 net.cpp:165] Memory required for data: 3249131520
I0912 06:18:59.575770 28411 layer_factory.hpp:77] Creating layer conv5_1_D_scale
I0912 06:18:59.575783 28411 net.cpp:100] Creating Layer conv5_1_D_scale
I0912 06:18:59.575788 28411 net.cpp:434] conv5_1_D_scale <- conv5_1_D
I0912 06:18:59.575793 28411 net.cpp:395] conv5_1_D_scale -> conv5_1_D (in-place)
I0912 06:18:59.575845 28411 layer_factory.hpp:77] Creating layer conv5_1_D_scale
I0912 06:18:59.575978 28411 net.cpp:150] Setting up conv5_1_D_scale
I0912 06:18:59.575985 28411 net.cpp:157] Top shape: 4 512 23 30 (1413120)
I0912 06:18:59.575989 28411 net.cpp:165] Memory required for data: 3254784000
I0912 06:18:59.575994 28411 layer_factory.hpp:77] Creating layer relu5_1_D
I0912 06:18:59.576004 28411 net.cpp:100] Creating Layer relu5_1_D
I0912 06:18:59.576009 28411 net.cpp:434] relu5_1_D <- conv5_1_D
I0912 06:18:59.576014 28411 net.cpp:395] relu5_1_D -> conv5_1_D (in-place)
I0912 06:18:59.576225 28411 net.cpp:150] Setting up relu5_1_D
I0912 06:18:59.576233 28411 net.cpp:157] Top shape: 4 512 23 30 (1413120)
I0912 06:18:59.576241 28411 net.cpp:165] Memory required for data: 3260436480
I0912 06:18:59.576243 28411 layer_factory.hpp:77] Creating layer upsample4
I0912 06:18:59.576251 28411 net.cpp:100] Creating Layer upsample4
I0912 06:18:59.576256 28411 net.cpp:434] upsample4 <- conv5_1_D
I0912 06:18:59.576262 28411 net.cpp:434] upsample4 <- pool4_mask
I0912 06:18:59.576268 28411 net.cpp:408] upsample4 -> pool4_D
I0912 06:18:59.576303 28411 net.cpp:150] Setting up upsample4
I0912 06:18:59.576308 28411 net.cpp:157] Top shape: 4 512 45 60 (5529600)
I0912 06:18:59.576311 28411 net.cpp:165] Memory required for data: 3282554880
I0912 06:18:59.576316 28411 layer_factory.hpp:77] Creating layer conv4_3_D
I0912 06:18:59.576329 28411 net.cpp:100] Creating Layer conv4_3_D
I0912 06:18:59.576334 28411 net.cpp:434] conv4_3_D <- pool4_D
I0912 06:18:59.576341 28411 net.cpp:408] conv4_3_D -> conv4_3_D
I0912 06:18:59.659657 28411 net.cpp:150] Setting up conv4_3_D
I0912 06:18:59.659675 28411 net.cpp:157] Top shape: 4 512 45 60 (5529600)
I0912 06:18:59.659678 28411 net.cpp:165] Memory required for data: 3304673280
I0912 06:18:59.659687 28411 layer_factory.hpp:77] Creating layer conv4_3_D_bn_tmp
I0912 06:18:59.659696 28411 net.cpp:100] Creating Layer conv4_3_D_bn_tmp
I0912 06:18:59.659700 28411 net.cpp:434] conv4_3_D_bn_tmp <- conv4_3_D
I0912 06:18:59.659708 28411 net.cpp:395] conv4_3_D_bn_tmp -> conv4_3_D (in-place)
I0912 06:18:59.659948 28411 net.cpp:150] Setting up conv4_3_D_bn_tmp
I0912 06:18:59.659957 28411 net.cpp:157] Top shape: 4 512 45 60 (5529600)
I0912 06:18:59.659978 28411 net.cpp:165] Memory required for data: 3326791680
I0912 06:18:59.659987 28411 layer_factory.hpp:77] Creating layer conv4_3_D_scale
I0912 06:18:59.659998 28411 net.cpp:100] Creating Layer conv4_3_D_scale
I0912 06:18:59.660004 28411 net.cpp:434] conv4_3_D_scale <- conv4_3_D
I0912 06:18:59.660009 28411 net.cpp:395] conv4_3_D_scale -> conv4_3_D (in-place)
I0912 06:18:59.660058 28411 layer_factory.hpp:77] Creating layer conv4_3_D_scale
I0912 06:18:59.660204 28411 net.cpp:150] Setting up conv4_3_D_scale
I0912 06:18:59.660212 28411 net.cpp:157] Top shape: 4 512 45 60 (5529600)
I0912 06:18:59.660215 28411 net.cpp:165] Memory required for data: 3348910080
I0912 06:18:59.660221 28411 layer_factory.hpp:77] Creating layer relu4_3_D
I0912 06:18:59.660229 28411 net.cpp:100] Creating Layer relu4_3_D
I0912 06:18:59.660235 28411 net.cpp:434] relu4_3_D <- conv4_3_D
I0912 06:18:59.660241 28411 net.cpp:395] relu4_3_D -> conv4_3_D (in-place)
I0912 06:18:59.660446 28411 net.cpp:150] Setting up relu4_3_D
I0912 06:18:59.660455 28411 net.cpp:157] Top shape: 4 512 45 60 (5529600)
I0912 06:18:59.660459 28411 net.cpp:165] Memory required for data: 3371028480
I0912 06:18:59.660462 28411 layer_factory.hpp:77] Creating layer conv4_2_D
I0912 06:18:59.660476 28411 net.cpp:100] Creating Layer conv4_2_D
I0912 06:18:59.660481 28411 net.cpp:434] conv4_2_D <- conv4_3_D
I0912 06:18:59.660490 28411 net.cpp:408] conv4_2_D -> conv4_2_D
I0912 06:18:59.743804 28411 net.cpp:150] Setting up conv4_2_D
I0912 06:18:59.743821 28411 net.cpp:157] Top shape: 4 512 45 60 (5529600)
I0912 06:18:59.743825 28411 net.cpp:165] Memory required for data: 3393146880
I0912 06:18:59.743834 28411 layer_factory.hpp:77] Creating layer conv4_2_D_bn_tmp
I0912 06:18:59.743842 28411 net.cpp:100] Creating Layer conv4_2_D_bn_tmp
I0912 06:18:59.743850 28411 net.cpp:434] conv4_2_D_bn_tmp <- conv4_2_D
I0912 06:18:59.743856 28411 net.cpp:395] conv4_2_D_bn_tmp -> conv4_2_D (in-place)
I0912 06:18:59.744103 28411 net.cpp:150] Setting up conv4_2_D_bn_tmp
I0912 06:18:59.744112 28411 net.cpp:157] Top shape: 4 512 45 60 (5529600)
I0912 06:18:59.744114 28411 net.cpp:165] Memory required for data: 3415265280
I0912 06:18:59.744124 28411 layer_factory.hpp:77] Creating layer conv4_2_D_scale
I0912 06:18:59.744134 28411 net.cpp:100] Creating Layer conv4_2_D_scale
I0912 06:18:59.744144 28411 net.cpp:434] conv4_2_D_scale <- conv4_2_D
I0912 06:18:59.744149 28411 net.cpp:395] conv4_2_D_scale -> conv4_2_D (in-place)
I0912 06:18:59.744191 28411 layer_factory.hpp:77] Creating layer conv4_2_D_scale
I0912 06:18:59.744338 28411 net.cpp:150] Setting up conv4_2_D_scale
I0912 06:18:59.744344 28411 net.cpp:157] Top shape: 4 512 45 60 (5529600)
I0912 06:18:59.744348 28411 net.cpp:165] Memory required for data: 3437383680
I0912 06:18:59.744354 28411 layer_factory.hpp:77] Creating layer relu4_2_D
I0912 06:18:59.744365 28411 net.cpp:100] Creating Layer relu4_2_D
I0912 06:18:59.744370 28411 net.cpp:434] relu4_2_D <- conv4_2_D
I0912 06:18:59.744374 28411 net.cpp:395] relu4_2_D -> conv4_2_D (in-place)
I0912 06:18:59.744582 28411 net.cpp:150] Setting up relu4_2_D
I0912 06:18:59.744591 28411 net.cpp:157] Top shape: 4 512 45 60 (5529600)
I0912 06:18:59.744595 28411 net.cpp:165] Memory required for data: 3459502080
I0912 06:18:59.744598 28411 layer_factory.hpp:77] Creating layer conv4_1_D
I0912 06:18:59.744611 28411 net.cpp:100] Creating Layer conv4_1_D
I0912 06:18:59.744616 28411 net.cpp:434] conv4_1_D <- conv4_2_D
I0912 06:18:59.744622 28411 net.cpp:408] conv4_1_D -> conv4_1_D
I0912 06:18:59.788305 28411 net.cpp:150] Setting up conv4_1_D
I0912 06:18:59.788321 28411 net.cpp:157] Top shape: 4 256 45 60 (2764800)
I0912 06:18:59.788331 28411 net.cpp:165] Memory required for data: 3470561280
I0912 06:18:59.788339 28411 layer_factory.hpp:77] Creating layer conv4_1_D_bn_tmp
I0912 06:18:59.788352 28411 net.cpp:100] Creating Layer conv4_1_D_bn_tmp
I0912 06:18:59.788357 28411 net.cpp:434] conv4_1_D_bn_tmp <- conv4_1_D
I0912 06:18:59.788363 28411 net.cpp:395] conv4_1_D_bn_tmp -> conv4_1_D (in-place)
I0912 06:18:59.788607 28411 net.cpp:150] Setting up conv4_1_D_bn_tmp
I0912 06:18:59.788630 28411 net.cpp:157] Top shape: 4 256 45 60 (2764800)
I0912 06:18:59.788640 28411 net.cpp:165] Memory required for data: 3481620480
I0912 06:18:59.788697 28411 layer_factory.hpp:77] Creating layer conv4_1_D_scale
I0912 06:18:59.788708 28411 net.cpp:100] Creating Layer conv4_1_D_scale
I0912 06:18:59.788713 28411 net.cpp:434] conv4_1_D_scale <- conv4_1_D
I0912 06:18:59.788719 28411 net.cpp:395] conv4_1_D_scale -> conv4_1_D (in-place)
I0912 06:18:59.788772 28411 layer_factory.hpp:77] Creating layer conv4_1_D_scale
I0912 06:18:59.788913 28411 net.cpp:150] Setting up conv4_1_D_scale
I0912 06:18:59.788920 28411 net.cpp:157] Top shape: 4 256 45 60 (2764800)
I0912 06:18:59.788923 28411 net.cpp:165] Memory required for data: 3492679680
I0912 06:18:59.788929 28411 layer_factory.hpp:77] Creating layer relu4_1_D
I0912 06:18:59.788938 28411 net.cpp:100] Creating Layer relu4_1_D
I0912 06:18:59.788942 28411 net.cpp:434] relu4_1_D <- conv4_1_D
I0912 06:18:59.788947 28411 net.cpp:395] relu4_1_D -> conv4_1_D (in-place)
I0912 06:18:59.789175 28411 net.cpp:150] Setting up relu4_1_D
I0912 06:18:59.789185 28411 net.cpp:157] Top shape: 4 256 45 60 (2764800)
I0912 06:18:59.789188 28411 net.cpp:165] Memory required for data: 3503738880
I0912 06:18:59.789192 28411 layer_factory.hpp:77] Creating layer upsample3
I0912 06:18:59.789199 28411 net.cpp:100] Creating Layer upsample3
I0912 06:18:59.789204 28411 net.cpp:434] upsample3 <- conv4_1_D
I0912 06:18:59.789209 28411 net.cpp:434] upsample3 <- pool3_mask
I0912 06:18:59.789216 28411 net.cpp:408] upsample3 -> pool3_D
I0912 06:18:59.789225 28411 upsample_layer.cpp:27] Params 'pad_out_{}_' are deprecated. Please declare upsample height and width useing the upsample_h, upsample_w parameters.
I0912 06:18:59.789258 28411 net.cpp:150] Setting up upsample3
I0912 06:18:59.789265 28411 net.cpp:157] Top shape: 4 256 90 120 (11059200)
I0912 06:18:59.789269 28411 net.cpp:165] Memory required for data: 3547975680
I0912 06:18:59.789274 28411 layer_factory.hpp:77] Creating layer conv3_3_D
I0912 06:18:59.789286 28411 net.cpp:100] Creating Layer conv3_3_D
I0912 06:18:59.789291 28411 net.cpp:434] conv3_3_D <- pool3_D
I0912 06:18:59.789297 28411 net.cpp:408] conv3_3_D -> conv3_3_D
I0912 06:18:59.812666 28411 net.cpp:150] Setting up conv3_3_D
I0912 06:18:59.812683 28411 net.cpp:157] Top shape: 4 256 90 120 (11059200)
I0912 06:18:59.812692 28411 net.cpp:165] Memory required for data: 3592212480
I0912 06:18:59.812702 28411 layer_factory.hpp:77] Creating layer conv3_3_D_bn_tmp
I0912 06:18:59.812711 28411 net.cpp:100] Creating Layer conv3_3_D_bn_tmp
I0912 06:18:59.812721 28411 net.cpp:434] conv3_3_D_bn_tmp <- conv3_3_D
I0912 06:18:59.812726 28411 net.cpp:395] conv3_3_D_bn_tmp -> conv3_3_D (in-place)
I0912 06:18:59.812996 28411 net.cpp:150] Setting up conv3_3_D_bn_tmp
I0912 06:18:59.813004 28411 net.cpp:157] Top shape: 4 256 90 120 (11059200)
I0912 06:18:59.813007 28411 net.cpp:165] Memory required for data: 3636449280
I0912 06:18:59.813019 28411 layer_factory.hpp:77] Creating layer conv3_3_D_scale
I0912 06:18:59.813029 28411 net.cpp:100] Creating Layer conv3_3_D_scale
I0912 06:18:59.813033 28411 net.cpp:434] conv3_3_D_scale <- conv3_3_D
I0912 06:18:59.813038 28411 net.cpp:395] conv3_3_D_scale -> conv3_3_D (in-place)
I0912 06:18:59.813087 28411 layer_factory.hpp:77] Creating layer conv3_3_D_scale
I0912 06:18:59.813259 28411 net.cpp:150] Setting up conv3_3_D_scale
I0912 06:18:59.813267 28411 net.cpp:157] Top shape: 4 256 90 120 (11059200)
I0912 06:18:59.813271 28411 net.cpp:165] Memory required for data: 3680686080
I0912 06:18:59.813277 28411 layer_factory.hpp:77] Creating layer relu3_3_D
I0912 06:18:59.813287 28411 net.cpp:100] Creating Layer relu3_3_D
I0912 06:18:59.813290 28411 net.cpp:434] relu3_3_D <- conv3_3_D
I0912 06:18:59.813297 28411 net.cpp:395] relu3_3_D -> conv3_3_D (in-place)
I0912 06:18:59.813524 28411 net.cpp:150] Setting up relu3_3_D
I0912 06:18:59.813534 28411 net.cpp:157] Top shape: 4 256 90 120 (11059200)
I0912 06:18:59.813537 28411 net.cpp:165] Memory required for data: 3724922880
I0912 06:18:59.813555 28411 layer_factory.hpp:77] Creating layer conv3_2_D
I0912 06:18:59.813570 28411 net.cpp:100] Creating Layer conv3_2_D
I0912 06:18:59.813575 28411 net.cpp:434] conv3_2_D <- conv3_3_D
I0912 06:18:59.813583 28411 net.cpp:408] conv3_2_D -> conv3_2_D
I0912 06:18:59.836954 28411 net.cpp:150] Setting up conv3_2_D
I0912 06:18:59.836971 28411 net.cpp:157] Top shape: 4 256 90 120 (11059200)
I0912 06:18:59.836982 28411 net.cpp:165] Memory required for data: 3769159680
I0912 06:18:59.836989 28411 layer_factory.hpp:77] Creating layer conv3_2_D_bn_tmp
I0912 06:18:59.837002 28411 net.cpp:100] Creating Layer conv3_2_D_bn_tmp
I0912 06:18:59.837009 28411 net.cpp:434] conv3_2_D_bn_tmp <- conv3_2_D
I0912 06:18:59.837015 28411 net.cpp:395] conv3_2_D_bn_tmp -> conv3_2_D (in-place)
I0912 06:18:59.837277 28411 net.cpp:150] Setting up conv3_2_D_bn_tmp
I0912 06:18:59.837285 28411 net.cpp:157] Top shape: 4 256 90 120 (11059200)
I0912 06:18:59.837288 28411 net.cpp:165] Memory required for data: 3813396480
I0912 06:18:59.837298 28411 layer_factory.hpp:77] Creating layer conv3_2_D_scale
I0912 06:18:59.837307 28411 net.cpp:100] Creating Layer conv3_2_D_scale
I0912 06:18:59.837316 28411 net.cpp:434] conv3_2_D_scale <- conv3_2_D
I0912 06:18:59.837321 28411 net.cpp:395] conv3_2_D_scale -> conv3_2_D (in-place)
I0912 06:18:59.837373 28411 layer_factory.hpp:77] Creating layer conv3_2_D_scale
I0912 06:18:59.837548 28411 net.cpp:150] Setting up conv3_2_D_scale
I0912 06:18:59.837556 28411 net.cpp:157] Top shape: 4 256 90 120 (11059200)
I0912 06:18:59.837559 28411 net.cpp:165] Memory required for data: 3857633280
I0912 06:18:59.837565 28411 layer_factory.hpp:77] Creating layer relu3_2_D
I0912 06:18:59.837574 28411 net.cpp:100] Creating Layer relu3_2_D
I0912 06:18:59.837579 28411 net.cpp:434] relu3_2_D <- conv3_2_D
I0912 06:18:59.837584 28411 net.cpp:395] relu3_2_D -> conv3_2_D (in-place)
I0912 06:18:59.838673 28411 net.cpp:150] Setting up relu3_2_D
I0912 06:18:59.838687 28411 net.cpp:157] Top shape: 4 256 90 120 (11059200)
I0912 06:18:59.838692 28411 net.cpp:165] Memory required for data: 3901870080
I0912 06:18:59.838696 28411 layer_factory.hpp:77] Creating layer conv3_1_D
I0912 06:18:59.838709 28411 net.cpp:100] Creating Layer conv3_1_D
I0912 06:18:59.838714 28411 net.cpp:434] conv3_1_D <- conv3_2_D
I0912 06:18:59.838723 28411 net.cpp:408] conv3_1_D -> conv3_1_D
I0912 06:18:59.854220 28411 net.cpp:150] Setting up conv3_1_D
I0912 06:18:59.854239 28411 net.cpp:157] Top shape: 4 128 90 120 (5529600)
I0912 06:18:59.854250 28411 net.cpp:165] Memory required for data: 3923988480
I0912 06:18:59.854262 28411 layer_factory.hpp:77] Creating layer conv3_1_D_bn_tmp
I0912 06:18:59.854274 28411 net.cpp:100] Creating Layer conv3_1_D_bn_tmp
I0912 06:18:59.854285 28411 net.cpp:434] conv3_1_D_bn_tmp <- conv3_1_D
I0912 06:18:59.854293 28411 net.cpp:395] conv3_1_D_bn_tmp -> conv3_1_D (in-place)
I0912 06:18:59.854569 28411 net.cpp:150] Setting up conv3_1_D_bn_tmp
I0912 06:18:59.854578 28411 net.cpp:157] Top shape: 4 128 90 120 (5529600)
I0912 06:18:59.854580 28411 net.cpp:165] Memory required for data: 3946106880
I0912 06:18:59.854590 28411 layer_factory.hpp:77] Creating layer conv3_1_D_scale
I0912 06:18:59.854600 28411 net.cpp:100] Creating Layer conv3_1_D_scale
I0912 06:18:59.854605 28411 net.cpp:434] conv3_1_D_scale <- conv3_1_D
I0912 06:18:59.854611 28411 net.cpp:395] conv3_1_D_scale -> conv3_1_D (in-place)
I0912 06:18:59.854660 28411 layer_factory.hpp:77] Creating layer conv3_1_D_scale
I0912 06:18:59.854840 28411 net.cpp:150] Setting up conv3_1_D_scale
I0912 06:18:59.854846 28411 net.cpp:157] Top shape: 4 128 90 120 (5529600)
I0912 06:18:59.854849 28411 net.cpp:165] Memory required for data: 3968225280
I0912 06:18:59.854856 28411 layer_factory.hpp:77] Creating layer relu3_1_D
I0912 06:18:59.854863 28411 net.cpp:100] Creating Layer relu3_1_D
I0912 06:18:59.854868 28411 net.cpp:434] relu3_1_D <- conv3_1_D
I0912 06:18:59.854874 28411 net.cpp:395] relu3_1_D -> conv3_1_D (in-place)
I0912 06:18:59.855108 28411 net.cpp:150] Setting up relu3_1_D
I0912 06:18:59.855131 28411 net.cpp:157] Top shape: 4 128 90 120 (5529600)
I0912 06:18:59.855136 28411 net.cpp:165] Memory required for data: 3990343680
I0912 06:18:59.855140 28411 layer_factory.hpp:77] Creating layer upsample2
I0912 06:18:59.855149 28411 net.cpp:100] Creating Layer upsample2
I0912 06:18:59.855154 28411 net.cpp:434] upsample2 <- conv3_1_D
I0912 06:18:59.855160 28411 net.cpp:434] upsample2 <- pool2_mask
I0912 06:18:59.855170 28411 net.cpp:408] upsample2 -> pool2_D
I0912 06:18:59.855177 28411 upsample_layer.cpp:27] Params 'pad_out_{}_' are deprecated. Please declare upsample height and width useing the upsample_h, upsample_w parameters.
I0912 06:18:59.855209 28411 net.cpp:150] Setting up upsample2
I0912 06:18:59.855216 28411 net.cpp:157] Top shape: 4 128 180 240 (22118400)
I0912 06:18:59.855219 28411 net.cpp:165] Memory required for data: 4078817280
I0912 06:18:59.855222 28411 layer_factory.hpp:77] Creating layer conv2_2_D
I0912 06:18:59.855237 28411 net.cpp:100] Creating Layer conv2_2_D
I0912 06:18:59.855242 28411 net.cpp:434] conv2_2_D <- pool2_D
I0912 06:18:59.855248 28411 net.cpp:408] conv2_2_D -> conv2_2_D
I0912 06:18:59.862910 28411 net.cpp:150] Setting up conv2_2_D
I0912 06:18:59.862927 28411 net.cpp:157] Top shape: 4 128 180 240 (22118400)
I0912 06:18:59.862936 28411 net.cpp:165] Memory required for data: 4167290880
I0912 06:18:59.862946 28411 layer_factory.hpp:77] Creating layer conv2_2_D_bn_tmp
I0912 06:18:59.862957 28411 net.cpp:100] Creating Layer conv2_2_D_bn_tmp
I0912 06:18:59.862963 28411 net.cpp:434] conv2_2_D_bn_tmp <- conv2_2_D
I0912 06:18:59.862968 28411 net.cpp:395] conv2_2_D_bn_tmp -> conv2_2_D (in-place)
I0912 06:18:59.863284 28411 net.cpp:150] Setting up conv2_2_D_bn_tmp
I0912 06:18:59.863293 28411 net.cpp:157] Top shape: 4 128 180 240 (22118400)
I0912 06:18:59.863297 28411 net.cpp:165] Memory required for data: 4255764480
I0912 06:18:59.863307 28411 layer_factory.hpp:77] Creating layer conv2_2_D_scale
I0912 06:18:59.863317 28411 net.cpp:100] Creating Layer conv2_2_D_scale
I0912 06:18:59.863322 28411 net.cpp:434] conv2_2_D_scale <- conv2_2_D
I0912 06:18:59.863327 28411 net.cpp:395] conv2_2_D_scale -> conv2_2_D (in-place)
I0912 06:18:59.863379 28411 layer_factory.hpp:77] Creating layer conv2_2_D_scale
I0912 06:18:59.864816 28411 net.cpp:150] Setting up conv2_2_D_scale
I0912 06:18:59.864831 28411 net.cpp:157] Top shape: 4 128 180 240 (22118400)
I0912 06:18:59.864838 28411 net.cpp:165] Memory required for data: 4344238080
I0912 06:18:59.864846 28411 layer_factory.hpp:77] Creating layer relu2_2_D
I0912 06:18:59.864855 28411 net.cpp:100] Creating Layer relu2_2_D
I0912 06:18:59.864859 28411 net.cpp:434] relu2_2_D <- conv2_2_D
I0912 06:18:59.864864 28411 net.cpp:395] relu2_2_D -> conv2_2_D (in-place)
I0912 06:18:59.865101 28411 net.cpp:150] Setting up relu2_2_D
I0912 06:18:59.865113 28411 net.cpp:157] Top shape: 4 128 180 240 (22118400)
I0912 06:18:59.865118 28411 net.cpp:165] Memory required for data: 4432711680
I0912 06:18:59.865121 28411 layer_factory.hpp:77] Creating layer conv2_1_D
I0912 06:18:59.865135 28411 net.cpp:100] Creating Layer conv2_1_D
I0912 06:18:59.865140 28411 net.cpp:434] conv2_1_D <- conv2_2_D
I0912 06:18:59.865149 28411 net.cpp:408] conv2_1_D -> conv2_1_D
I0912 06:18:59.870399 28411 net.cpp:150] Setting up conv2_1_D
I0912 06:18:59.870415 28411 net.cpp:157] Top shape: 4 64 180 240 (11059200)
I0912 06:18:59.870424 28411 net.cpp:165] Memory required for data: 4476948480
I0912 06:18:59.870434 28411 layer_factory.hpp:77] Creating layer conv2_1_D_bn_tmp
I0912 06:18:59.870445 28411 net.cpp:100] Creating Layer conv2_1_D_bn_tmp
I0912 06:18:59.870450 28411 net.cpp:434] conv2_1_D_bn_tmp <- conv2_1_D
I0912 06:18:59.870456 28411 net.cpp:395] conv2_1_D_bn_tmp -> conv2_1_D (in-place)
I0912 06:18:59.870766 28411 net.cpp:150] Setting up conv2_1_D_bn_tmp
I0912 06:18:59.870775 28411 net.cpp:157] Top shape: 4 64 180 240 (11059200)
I0912 06:18:59.870779 28411 net.cpp:165] Memory required for data: 4521185280
I0912 06:18:59.870787 28411 layer_factory.hpp:77] Creating layer conv2_1_D_scale
I0912 06:18:59.870808 28411 net.cpp:100] Creating Layer conv2_1_D_scale
I0912 06:18:59.870813 28411 net.cpp:434] conv2_1_D_scale <- conv2_1_D
I0912 06:18:59.870818 28411 net.cpp:395] conv2_1_D_scale -> conv2_1_D (in-place)
I0912 06:18:59.870877 28411 layer_factory.hpp:77] Creating layer conv2_1_D_scale
I0912 06:18:59.871100 28411 net.cpp:150] Setting up conv2_1_D_scale
I0912 06:18:59.871110 28411 net.cpp:157] Top shape: 4 64 180 240 (11059200)
I0912 06:18:59.871115 28411 net.cpp:165] Memory required for data: 4565422080
I0912 06:18:59.871122 28411 layer_factory.hpp:77] Creating layer relu2_1_D
I0912 06:18:59.871130 28411 net.cpp:100] Creating Layer relu2_1_D
I0912 06:18:59.871135 28411 net.cpp:434] relu2_1_D <- conv2_1_D
I0912 06:18:59.871140 28411 net.cpp:395] relu2_1_D -> conv2_1_D (in-place)
I0912 06:18:59.871372 28411 net.cpp:150] Setting up relu2_1_D
I0912 06:18:59.871383 28411 net.cpp:157] Top shape: 4 64 180 240 (11059200)
I0912 06:18:59.871388 28411 net.cpp:165] Memory required for data: 4609658880
I0912 06:18:59.871392 28411 layer_factory.hpp:77] Creating layer upsample1
I0912 06:18:59.871398 28411 net.cpp:100] Creating Layer upsample1
I0912 06:18:59.871402 28411 net.cpp:434] upsample1 <- conv2_1_D
I0912 06:18:59.871407 28411 net.cpp:434] upsample1 <- pool1_mask
I0912 06:18:59.871414 28411 net.cpp:408] upsample1 -> pool1_D
I0912 06:18:59.871421 28411 upsample_layer.cpp:27] Params 'pad_out_{}_' are deprecated. Please declare upsample height and width useing the upsample_h, upsample_w parameters.
I0912 06:18:59.871454 28411 net.cpp:150] Setting up upsample1
I0912 06:18:59.871461 28411 net.cpp:157] Top shape: 4 64 360 480 (44236800)
I0912 06:18:59.871464 28411 net.cpp:165] Memory required for data: 4786606080
I0912 06:18:59.871469 28411 layer_factory.hpp:77] Creating layer conv1_2_D
I0912 06:18:59.871481 28411 net.cpp:100] Creating Layer conv1_2_D
I0912 06:18:59.871486 28411 net.cpp:434] conv1_2_D <- pool1_D
I0912 06:18:59.871493 28411 net.cpp:408] conv1_2_D -> conv1_2_D
I0912 06:18:59.875988 28411 net.cpp:150] Setting up conv1_2_D
I0912 06:18:59.876004 28411 net.cpp:157] Top shape: 4 64 360 480 (44236800)
I0912 06:18:59.876013 28411 net.cpp:165] Memory required for data: 4963553280
I0912 06:18:59.876021 28411 layer_factory.hpp:77] Creating layer conv1_2_D_bn_tmp
I0912 06:18:59.876034 28411 net.cpp:100] Creating Layer conv1_2_D_bn_tmp
I0912 06:18:59.876039 28411 net.cpp:434] conv1_2_D_bn_tmp <- conv1_2_D
I0912 06:18:59.876046 28411 net.cpp:395] conv1_2_D_bn_tmp -> conv1_2_D (in-place)
I0912 06:18:59.876453 28411 net.cpp:150] Setting up conv1_2_D_bn_tmp
I0912 06:18:59.876461 28411 net.cpp:157] Top shape: 4 64 360 480 (44236800)
I0912 06:18:59.876464 28411 net.cpp:165] Memory required for data: 5140500480
I0912 06:18:59.876472 28411 layer_factory.hpp:77] Creating layer conv1_2_D_scale
I0912 06:18:59.876482 28411 net.cpp:100] Creating Layer conv1_2_D_scale
I0912 06:18:59.876487 28411 net.cpp:434] conv1_2_D_scale <- conv1_2_D
I0912 06:18:59.876492 28411 net.cpp:395] conv1_2_D_scale -> conv1_2_D (in-place)
I0912 06:18:59.876543 28411 layer_factory.hpp:77] Creating layer conv1_2_D_scale
I0912 06:18:59.878195 28411 net.cpp:150] Setting up conv1_2_D_scale
I0912 06:18:59.878208 28411 net.cpp:157] Top shape: 4 64 360 480 (44236800)
I0912 06:18:59.878213 28411 net.cpp:165] Memory required for data: 5317447680
I0912 06:18:59.878221 28411 layer_factory.hpp:77] Creating layer relu1_2_D
I0912 06:18:59.878232 28411 net.cpp:100] Creating Layer relu1_2_D
I0912 06:18:59.878237 28411 net.cpp:434] relu1_2_D <- conv1_2_D
I0912 06:18:59.878242 28411 net.cpp:395] relu1_2_D -> conv1_2_D (in-place)
I0912 06:18:59.878478 28411 net.cpp:150] Setting up relu1_2_D
I0912 06:18:59.878486 28411 net.cpp:157] Top shape: 4 64 360 480 (44236800)
I0912 06:18:59.878494 28411 net.cpp:165] Memory required for data: 5494394880
I0912 06:18:59.878499 28411 layer_factory.hpp:77] Creating layer conv1_1_1_D
I0912 06:18:59.878510 28411 net.cpp:100] Creating Layer conv1_1_1_D
I0912 06:18:59.878515 28411 net.cpp:434] conv1_1_1_D <- conv1_2_D
I0912 06:18:59.878538 28411 net.cpp:408] conv1_1_1_D -> conv1_1_1_D
I0912 06:18:59.880620 28411 net.cpp:150] Setting up conv1_1_1_D
I0912 06:18:59.880638 28411 net.cpp:157] Top shape: 4 2 360 480 (1382400)
I0912 06:18:59.880643 28411 net.cpp:165] Memory required for data: 5499924480
I0912 06:18:59.880651 28411 layer_factory.hpp:77] Creating layer conv1_1_1_D_conv1_1_1_D_0_split
I0912 06:18:59.880659 28411 net.cpp:100] Creating Layer conv1_1_1_D_conv1_1_1_D_0_split
I0912 06:18:59.880664 28411 net.cpp:434] conv1_1_1_D_conv1_1_1_D_0_split <- conv1_1_1_D
I0912 06:18:59.880671 28411 net.cpp:408] conv1_1_1_D_conv1_1_1_D_0_split -> conv1_1_1_D_conv1_1_1_D_0_split_0
I0912 06:18:59.880679 28411 net.cpp:408] conv1_1_1_D_conv1_1_1_D_0_split -> conv1_1_1_D_conv1_1_1_D_0_split_1
I0912 06:18:59.880735 28411 net.cpp:150] Setting up conv1_1_1_D_conv1_1_1_D_0_split
I0912 06:18:59.880743 28411 net.cpp:157] Top shape: 4 2 360 480 (1382400)
I0912 06:18:59.880746 28411 net.cpp:157] Top shape: 4 2 360 480 (1382400)
I0912 06:18:59.880750 28411 net.cpp:165] Memory required for data: 5510983680
I0912 06:18:59.880754 28411 layer_factory.hpp:77] Creating layer loss
I0912 06:18:59.880769 28411 net.cpp:100] Creating Layer loss
I0912 06:18:59.880774 28411 net.cpp:434] loss <- conv1_1_1_D_conv1_1_1_D_0_split_0
I0912 06:18:59.880779 28411 net.cpp:434] loss <- label_data_1_split_0
I0912 06:18:59.880785 28411 net.cpp:408] loss -> loss
I0912 06:18:59.880805 28411 layer_factory.hpp:77] Creating layer loss
I0912 06:18:59.884789 28411 net.cpp:150] Setting up loss
I0912 06:18:59.884804 28411 net.cpp:157] Top shape: (1)
I0912 06:18:59.884807 28411 net.cpp:160]     with loss weight 1
I0912 06:18:59.884846 28411 net.cpp:165] Memory required for data: 5510983684
I0912 06:18:59.884850 28411 layer_factory.hpp:77] Creating layer accuracy
I0912 06:18:59.884860 28411 net.cpp:100] Creating Layer accuracy
I0912 06:18:59.884865 28411 net.cpp:434] accuracy <- conv1_1_1_D_conv1_1_1_D_0_split_1
I0912 06:18:59.884871 28411 net.cpp:434] accuracy <- label_data_1_split_1
I0912 06:18:59.884877 28411 net.cpp:408] accuracy -> accuracy
I0912 06:18:59.884886 28411 net.cpp:408] accuracy -> per_class_accuracy
I0912 06:18:59.884941 28411 net.cpp:150] Setting up accuracy
I0912 06:18:59.884948 28411 net.cpp:157] Top shape: (1)
I0912 06:18:59.884953 28411 net.cpp:157] Top shape: 2 (2)
I0912 06:18:59.884956 28411 net.cpp:165] Memory required for data: 5510983696
I0912 06:18:59.884960 28411 net.cpp:228] accuracy does not need backward computation.
I0912 06:18:59.884964 28411 net.cpp:226] loss needs backward computation.
I0912 06:18:59.884968 28411 net.cpp:226] conv1_1_1_D_conv1_1_1_D_0_split needs backward computation.
I0912 06:18:59.884974 28411 net.cpp:226] conv1_1_1_D needs backward computation.
…
