…
  stage: ""
}
test_initialization: false
I0911 23:21:05.409531 24730 solver.cpp:91] Creating training net from net file: /disk2/nik/Analyzer/test/pocwisc1/caffe/model_segnet_final/train.prototxt
I0911 23:21:05.412305 24730 net.cpp:58] Initializing net from parameters: 
name: "VGG_ILSVRC_16_layer"
state {
  phase: TRAIN
  level: 0
  stage: ""
}
layer {
  name: "data"
  type: "HDF5Data"
  top: "data"
  top: "label"
  hdf5_data_param {
    source: "/disk2/nik/Analyzer/test/pocwisc1/HDF5Files/train_combined.txt"
    batch_size: 4
    shuffle: true
  }
}
layer {
  name: "conv1_1_1"
  type: "Convolution"
  bottom: "data"
  top: "conv1_1_1"
  param {
    lr_mult: 1
    decay_mult: 1
  }
  param {
    lr_mult: 2
    decay_mult: 0
  }
  convolution_param {
    num_output: 64
    pad: 1
    kernel_size: 3
    weight_filler {
      type: "msra"
    }
    bias_filler {
      type: "constant"
    }
  }
}
layer {
  name: "conv1_1_1_bn"
  type: "BatchNorm"
  bottom: "conv1_1_1"
  top: "conv1_1_1"
  batch_norm_param {
    use_global_stats: false
  }
}
layer {
  name: "conv1_1_1_scale"
  type: "Scale"
  bottom: "conv1_1_1"
  top: "conv1_1_1"
  scale_param {
    bias_term: true
  }
}
layer {
  name: "relu1_1"
  type: "ReLU"
  bottom: "conv1_1_1"
  top: "conv1_1_1"
}
layer {
  name: "conv1_2"
  type: "Convolution"
  bottom: "conv1_1_1"
  top: "conv1_2"
  param {
    lr_mult: 1
    decay_mult: 1
  }
  param {
    lr_mult: 2
    decay_mult: 0
  }
  convolution_param {
    num_output: 64
    pad: 1
    kernel_size: 3
    weight_filler {
      type: "msra"
    }
    bias_filler {
      type: "constant"
    }
  }
}
layer {
  name: "conv1_2_bn_tmp"
  type: "BatchNorm"
  bottom: "conv1_2"
  top: "conv1_2"
  batch_norm_param {
    use_global_stats: false
  }
}
layer {
  name: "conv1_2_scale"
  type: "Scale"
  bottom: "conv1_2"
  top: "conv1_2"
  scale_param {
    bias_term: true
  }
}
layer {
  name: "relu1_2"
  type: "ReLU"
  bottom: "conv1_2"
  top: "conv1_2"
}
layer {
  name: "pool1"
  type: "Pooling"
  bottom: "conv1_2"
  top: "pool1"
  top: "pool1_mask"
  pooling_param {
    pool: MAX
    kernel_size: 2
    stride: 2
  }
}
layer {
  name: "conv2_1"
  type: "Convolution"
  bottom: "pool1"
  top: "conv2_1"
  param {
    lr_mult: 1
    decay_mult: 1
  }
  param {
    lr_mult: 2
    decay_mult: 0
  }
  convolution_param {
    num_output: 128
    pad: 1
    kernel_size: 3
    weight_filler {
      type: "msra"
    }
    bias_filler {
      type: "constant"
    }
  }
}
layer {
  name: "conv2_1_bn_tmp"
  type: "BatchNorm"
  bottom: "conv2_1"
  top: "conv2_1"
  batch_norm_param {
    use_global_stats: false
  }
}
layer {
  name: "conv2_1_scale"
  type: "Scale"
  bottom: "conv2_1"
  top: "conv2_1"
  scale_param {
    bias_term: true
  }
}
layer {
  name: "relu2_1"
  type: "ReLU"
  bottom: "conv2_1"
  top: "conv2_1"
}
layer {
  name: "conv2_2"
  type: "Convolution"
  bottom: "conv2_1"
  top: "conv2_2"
  param {
    lr_mult: 1
    decay_mult: 1
  }
  param {
    lr_mult: 2
    decay_mult: 0
  }
  convolution_param {
    num_output: 128
    pad: 1
    kernel_size: 3
    weight_filler {
      type: "msra"
    }
    bias_filler {
      type: "constant"
    }
  }
}
layer {
  name: "conv2_2_bn_tmp"
  type: "BatchNorm"
  bottom: "conv2_2"
  top: "conv2_2"
  batch_norm_param {
    use_global_stats: false
  }
}
layer {
  name: "conv2_2_scale"
  type: "Scale"
  bottom: "conv2_2"
  top: "conv2_2"
  scale_param {
    bias_term: true
  }
}
layer {
  name: "relu2_2"
  type: "ReLU"
  bottom: "conv2_2"
  top: "conv2_2"
}
layer {
  name: "pool2"
  type: "Pooling"
  bottom: "conv2_2"
  top: "pool2"
  top: "pool2_mask"
  pooling_param {
    pool: MAX
    kernel_size: 2
    stride: 2
  }
}
layer {
  name: "conv3_1"
  type: "Convolution"
  bottom: "pool2"
  top: "conv3_1"
  param {
    lr_mult: 1
    decay_mult: 1
  }
  param {
    lr_mult: 2
    decay_mult: 0
  }
  convolution_param {
    num_output: 256
    pad: 1
    kernel_size: 3
    weight_filler {
      type: "msra"
    }
    bias_filler {
      type: "constant"
    }
  }
}
layer {
  name: "conv3_1_bn_tmp"
  type: "BatchNorm"
  bottom: "conv3_1"
  top: "conv3_1"
  batch_norm_param {
    use_global_stats: false
  }
}
layer {
  name: "conv3_1_scale"
  type: "Scale"
  bottom: "conv3_1"
  top: "conv3_1"
  scale_param {
    bias_term: true
  }
}
layer {
  name: "relu3_1"
  type: "ReLU"
  bottom: "conv3_1"
  top: "conv3_1"
}
layer {
  name: "conv3_2"
  type: "Convolution"
  bottom: "conv3_1"
  top: "conv3_2"
  param {
    lr_mult: 1
    decay_mult: 1
  }
  param {
    lr_mult: 2
    decay_mult: 0
  }
  convolution_param {
    num_output: 256
    pad: 1
    kernel_size: 3
    weight_filler {
      type: "msra"
    }
    bias_filler {
      type: "constant"
    }
  }
}
layer {
  name: "conv3_2_bn_tmp"
  type: "BatchNorm"
  bottom: "conv3_2"
  top: "conv3_2"
  batch_norm_param {
    use_global_stats: false
  }
}
layer {
  name: "conv3_2_scale"
  type: "Scale"
  bottom: "conv3_2"
  top: "conv3_2"
  scale_param {
    bias_term: true
  }
}
layer {
  name: "relu3_2"
  type: "ReLU"
  bottom: "conv3_2"
  top: "conv3_2"
}
layer {
  name: "conv3_3"
  type: "Convolution"
  bottom: "conv3_2"
  top: "conv3_3"
  param {
    lr_mult: 1
    decay_mult: 1
  }
  param {
    lr_mult: 2
    decay_mult: 0
  }
  convolution_param {
    num_output: 256
    pad: 1
    kernel_size: 3
    weight_filler {
      type: "msra"
    }
    bias_filler {
      type: "constant"
    }
  }
}
layer {
  name: "conv3_3_bn_tmp"
  type: "BatchNorm"
  bottom: "conv3_3"
  top: "conv3_3"
  batch_norm_param {
    use_global_stats: false
  }
}
layer {
  name: "conv3_3_scale"
  type: "Scale"
  bottom: "conv3_3"
  top: "conv3_3"
  scale_param {
    bias_term: true
  }
}
layer {
  name: "relu3_3"
  type: "ReLU"
  bottom: "conv3_3"
  top: "conv3_3"
}
layer {
  name: "pool3"
  type: "Pooling"
  bottom: "conv3_3"
  top: "pool3"
  top: "pool3_mask"
  pooling_param {
    pool: MAX
    kernel_size: 2
    stride: 2
  }
}
layer {
  name: "conv4_1"
  type: "Convolution"
  bottom: "pool3"
  top: "conv4_1"
  param {
    lr_mult: 1
    decay_mult: 1
  }
  param {
    lr_mult: 2
    decay_mult: 0
  }
  convolution_param {
    num_output: 512
    pad: 1
    kernel_size: 3
    weight_filler {
      type: "msra"
    }
    bias_filler {
      type: "constant"
    }
  }
}
layer {
  name: "conv4_1_bn_tmp"
  type: "BatchNorm"
  bottom: "conv4_1"
  top: "conv4_1"
  batch_norm_param {
    use_global_stats: false
  }
}
layer {
  name: "conv4_1_scale"
  type: "Scale"
  bottom: "conv4_1"
  top: "conv4_1"
  scale_param {
    bias_term: true
  }
}
layer {
  name: "relu4_1"
  type: "ReLU"
  bottom: "conv4_1"
  top: "conv4_1"
}
layer {
  name: "conv4_2"
  type: "Convolution"
  bottom: "conv4_1"
  top: "conv4_2"
  param {
    lr_mult: 1
    decay_mult: 1
  }
  param {
    lr_mult: 2
    decay_mult: 0
  }
  convolution_param {
    num_output: 512
    pad: 1
    kernel_size: 3
    weight_filler {
      type: "msra"
    }
    bias_filler {
      type: "constant"
    }
  }
}
layer {
  name: "conv4_2_bn_tmp"
  type: "BatchNorm"
  bottom: "conv4_2"
  top: "conv4_2"
  batch_norm_param {
    use_global_stats: false
  }
}
layer {
  name: "conv4_2_scale"
  type: "Scale"
  bottom: "conv4_2"
  top: "conv4_2"
  scale_param {
    bias_term: true
  }
}
layer {
  name: "relu4_2"
  type: "ReLU"
  bottom: "conv4_2"
  top: "conv4_2"
}
layer {
  name: "conv4_3"
  type: "Convolution"
  bottom: "conv4_2"
  top: "conv4_3"
  param {
    lr_mult: 1
    decay_mult: 1
  }
  param {
    lr_mult: 2
    decay_mult: 0
  }
  convolution_param {
    num_output: 512
    pad: 1
    kernel_size: 3
    weight_filler {
      type: "msra"
    }
    bias_filler {
      type: "constant"
    }
  }
}
layer {
  name: "conv4_3_bn_tmp"
  type: "BatchNorm"
  bottom: "conv4_3"
  top: "conv4_3"
  batch_norm_param {
    use_global_stats: false
  }
}
layer {
  name: "conv4_3_scale"
  type: "Scale"
  bottom: "conv4_3"
  top: "conv4_3"
  scale_param {
    bias_term: true
  }
}
layer {
  name: "relu4_3"
  type: "ReLU"
  bottom: "conv4_3"
  top: "conv4_3"
}
layer {
  name: "pool4"
  type: "Pooling"
  bottom: "conv4_3"
  top: "pool4"
  top: "pool4_mask"
  pooling_param {
    pool: MAX
    kernel_size: 2
    stride: 2
  }
}
layer {
  name: "conv5_1"
  type: "Convolution"
  bottom: "pool4"
  top: "conv5_1"
  param {
    lr_mult: 1
    decay_mult: 1
  }
  param {
    lr_mult: 2
    decay_mult: 0
  }
  convolution_param {
    num_output: 512
    pad: 1
    kernel_size: 3
    weight_filler {
      type: "msra"
    }
    bias_filler {
      type: "constant"
    }
  }
}
layer {
  name: "conv5_1_bn_tmp"
  type: "BatchNorm"
  bottom: "conv5_1"
  top: "conv5_1"
  batch_norm_param {
    use_global_stats: false
  }
}
layer {
  name: "conv5_1_scale"
  type: "Scale"
  bottom: "conv5_1"
  top: "conv5_1"
  scale_param {
    bias_term: true
  }
}
layer {
  name: "relu5_1"
  type: "ReLU"
  bottom: "conv5_1"
  top: "conv5_1"
}
layer {
  name: "conv5_2"
  type: "Convolution"
  bottom: "conv5_1"
  top: "conv5_2"
  param {
    lr_mult: 1
    decay_mult: 1
  }
  param {
    lr_mult: 2
    decay_mult: 0
  }
  convolution_param {
    num_output: 512
    pad: 1
    kernel_size: 3
    weight_filler {
      type: "msra"
    }
    bias_filler {
      type: "constant"
    }
  }
}
layer {
  name: "conv5_2_bn_tmp"
  type: "BatchNorm"
  bottom: "conv5_2"
  top: "conv5_2"
  batch_norm_param {
    use_global_stats: false
  }
}
layer {
  name: "conv5_2_scale"
  type: "Scale"
  bottom: "conv5_2"
  top: "conv5_2"
  scale_param {
    bias_term: true
  }
}
layer {
  name: "relu5_2"
  type: "ReLU"
  bottom: "conv5_2"
  top: "conv5_2"
}
layer {
  name: "conv5_3"
  type: "Convolution"
  bottom: "conv5_2"
  top: "conv5_3"
  param {
    lr_mult: 1
    decay_mult: 1
  }
  param {
    lr_mult: 2
    decay_mult: 0
  }
  convolution_param {
    num_output: 512
    pad: 1
    kernel_size: 3
    weight_filler {
      type: "msra"
    }
    bias_filler {
      type: "constant"
    }
  }
}
layer {
  name: "conv5_3_bn_tmp"
  type: "BatchNorm"
  bottom: "conv5_3"
  top: "conv5_3"
  batch_norm_param {
    use_global_stats: false
  }
}
layer {
  name: "conv5_3_scale"
  type: "Scale"
  bottom: "conv5_3"
  top: "conv5_3"
  scale_param {
    bias_term: true
  }
}
layer {
  name: "relu5_3"
  type: "ReLU"
  bottom: "conv5_3"
  top: "conv5_3"
}
layer {
  name: "pool5"
  type: "Pooling"
  bottom: "conv5_3"
  top: "pool5"
  top: "pool5_mask"
  pooling_param {
    pool: MAX
    kernel_size: 2
    stride: 2
  }
}
layer {
  name: "upsample5"
  type: "Upsample"
  bottom: "pool5"
  bottom: "pool5_mask"
  top: "pool5_D"
  upsample_param {
    scale: 2
    upsample_h: 23
    upsample_w: 30
  }
}
layer {
  name: "conv5_3_D"
  type: "Convolution"
  bottom: "pool5_D"
  top: "conv5_3_D"
  param {
    lr_mult: 1
    decay_mult: 1
  }
  param {
    lr_mult: 2
    decay_mult: 0
  }
  convolution_param {
    num_output: 512
    pad: 1
    kernel_size: 3
    weight_filler {
      type: "msra"
    }
    bias_filler {
      type: "constant"
    }
  }
}
layer {
  name: "conv5_3_D_bn_tmp"
  type: "BatchNorm"
  bottom: "conv5_3_D"
  top: "conv5_3_D"
  batch_norm_param {
    use_global_stats: false
  }
}
layer {
  name: "conv5_3_D_scale"
  type: "Scale"
  bottom: "conv5_3_D"
  top: "conv5_3_D"
  scale_param {
    bias_term: true
  }
}
layer {
  name: "relu5_3_D"
  type: "ReLU"
  bottom: "conv5_3_D"
  top: "conv5_3_D"
}
layer {
  name: "conv5_2_D"
  type: "Convolution"
  bottom: "conv5_3_D"
  top: "conv5_2_D"
  param {
    lr_mult: 1
    decay_mult: 1
  }
  param {
    lr_mult: 2
    decay_mult: 0
  }
  convolution_param {
    num_output: 512
    pad: 1
    kernel_size: 3
    weight_filler {
      type: "msra"
    }
    bias_filler {
      type: "constant"
    }
  }
}
layer {
  name: "conv5_2_D_bn_tmp"
  type: "BatchNorm"
  bottom: "conv5_2_D"
  top: "conv5_2_D"
  batch_norm_param {
    use_global_stats: false
  }
}
layer {
  name: "conv5_2_D_scale"
  type: "Scale"
  bottom: "conv5_2_D"
  top: "conv5_2_D"
  scale_param {
    bias_term: true
  }
}
layer {
  name: "relu5_2_D"
  type: "ReLU"
  bottom: "conv5_2_D"
  top: "conv5_2_D"
}
layer {
  name: "conv5_1_D"
  type: "Convolution"
  bottom: "conv5_2_D"
  top: "conv5_1_D"
  param {
    lr_mult: 1
    decay_mult: 1
  }
  param {
    lr_mult: 2
    decay_mult: 0
  }
  convolution_param {
    num_output: 512
    pad: 1
    kernel_size: 3
    weight_filler {
      type: "msra"
    }
    bias_filler {
      type: "constant"
    }
  }
}
layer {
  name: "conv5_1_D_bn_tmp"
  type: "BatchNorm"
  bottom: "conv5_1_D"
  top: "conv5_1_D"
  batch_norm_param {
    use_global_stats: false
  }
}
layer {
  name: "conv5_1_D_scale"
  type: "Scale"
  bottom: "conv5_1_D"
  top: "conv5_1_D"
  scale_param {
    bias_term: true
  }
}
layer {
  name: "relu5_1_D"
  type: "ReLU"
  bottom: "conv5_1_D"
  top: "conv5_1_D"
}
layer {
  name: "upsample4"
  type: "Upsample"
  bottom: "conv5_1_D"
  bottom: "pool4_mask"
  top: "pool4_D"
  upsample_param {
    scale: 2
    upsample_h: 45
    upsample_w: 60
  }
}
layer {
  name: "conv4_3_D"
  type: "Convolution"
  bottom: "pool4_D"
  top: "conv4_3_D"
  param {
    lr_mult: 1
    decay_mult: 1
  }
  param {
    lr_mult: 2
    decay_mult: 0
  }
  convolution_param {
    num_output: 512
    pad: 1
    kernel_size: 3
    weight_filler {
      type: "msra"
    }
    bias_filler {
      type: "constant"
    }
  }
}
layer {
  name: "conv4_3_D_bn_tmp"
  type: "BatchNorm"
  bottom: "conv4_3_D"
  top: "conv4_3_D"
  batch_norm_param {
    use_global_stats: false
  }
}
layer {
  name: "conv4_3_D_scale"
  type: "Scale"
  bottom: "conv4_3_D"
  top: "conv4_3_D"
  scale_param {
    bias_term: true
  }
}
layer {
  name: "relu4_3_D"
  type: "ReLU"
  bottom: "conv4_3_D"
  top: "conv4_3_D"
}
layer {
  name: "conv4_2_D"
  type: "Convolution"
  bottom: "conv4_3_D"
  top: "conv4_2_D"
  param {
    lr_mult: 1
    decay_mult: 1
  }
  param {
    lr_mult: 2
    decay_mult: 0
  }
  convolution_param {
    num_output: 512
    pad: 1
    kernel_size: 3
    weight_filler {
      type: "msra"
    }
    bias_filler {
      type: "constant"
    }
  }
}
layer {
  name: "conv4_2_D_bn_tmp"
  type: "BatchNorm"
  bottom: "conv4_2_D"
  top: "conv4_2_D"
  batch_norm_param {
    use_global_stats: false
  }
}
layer {
  name: "conv4_2_D_scale"
  type: "Scale"
  bottom: "conv4_2_D"
  top: "conv4_2_D"
  scale_param {
    bias_term: true
  }
}
layer {
  name: "relu4_2_D"
  type: "ReLU"
  bottom: "conv4_2_D"
  top: "conv4_2_D"
}
layer {
  name: "conv4_1_D"
  type: "Convolution"
  bottom: "conv4_2_D"
  top: "conv4_1_D"
  param {
    lr_mult: 1
    decay_mult: 1
  }
  param {
    lr_mult: 2
    decay_mult: 0
  }
  convolution_param {
    num_output: 256
    pad: 1
    kernel_size: 3
    weight_filler {
      type: "msra"
    }
    bias_filler {
      type: "constant"
    }
  }
}
layer {
  name: "conv4_1_D_bn_tmp"
  type: "BatchNorm"
  bottom: "conv4_1_D"
  top: "conv4_1_D"
  batch_norm_param {
    use_global_stats: false
  }
}
layer {
  name: "conv4_1_D_scale"
  type: "Scale"
  bottom: "conv4_1_D"
  top: "conv4_1_D"
  scale_param {
    bias_term: true
  }
}
layer {
  name: "relu4_1_D"
  type: "ReLU"
  bottom: "conv4_1_D"
  top: "conv4_1_D"
}
layer {
  name: "upsample3"
  type: "Upsample"
  bottom: "conv4_1_D"
  bottom: "pool3_mask"
  top: "pool3_D"
  upsample_param {
    scale: 2
  }
}
layer {
  name: "conv3_3_D"
  type: "Convolution"
  bottom: "pool3_D"
  top: "conv3_3_D"
  param {
    lr_mult: 1
    decay_mult: 1
  }
  param {
    lr_mult: 2
    decay_mult: 0
  }
  convolution_param {
    num_output: 256
    pad: 1
    kernel_size: 3
    weight_filler {
      type: "msra"
    }
    bias_filler {
      type: "constant"
    }
  }
}
layer {
  name: "conv3_3_D_bn_tmp"
  type: "BatchNorm"
  bottom: "conv3_3_D"
  top: "conv3_3_D"
  batch_norm_param {
    use_global_stats: false
  }
}
layer {
  name: "conv3_3_D_scale"
  type: "Scale"
  bottom: "conv3_3_D"
  top: "conv3_3_D"
  scale_param {
    bias_term: true
  }
}
layer {
  name: "relu3_3_D"
  type: "ReLU"
  bottom: "conv3_3_D"
  top: "conv3_3_D"
}
layer {
  name: "conv3_2_D"
  type: "Convolution"
  bottom: "conv3_3_D"
  top: "conv3_2_D"
  param {
    lr_mult: 1
    decay_mult: 1
  }
  param {
    lr_mult: 2
    decay_mult: 0
  }
  convolution_param {
    num_output: 256
    pad: 1
    kernel_size: 3
    weight_filler {
      type: "msra"
    }
    bias_filler {
      type: "constant"
    }
  }
}
layer {
  name: "conv3_2_D_bn_tmp"
  type: "BatchNorm"
  bottom: "conv3_2_D"
  top: "conv3_2_D"
  batch_norm_param {
    use_global_stats: false
  }
}
layer {
  name: "conv3_2_D_scale"
  type: "Scale"
  bottom: "conv3_2_D"
  top: "conv3_2_D"
  scale_param {
    bias_term: true
  }
}
layer {
  name: "relu3_2_D"
  type: "ReLU"
  bottom: "conv3_2_D"
  top: "conv3_2_D"
}
layer {
  name: "conv3_1_D"
  type: "Convolution"
  bottom: "conv3_2_D"
  top: "conv3_1_D"
  param {
    lr_mult: 1
    decay_mult: 1
  }
  param {
    lr_mult: 2
    decay_mult: 0
  }
  convolution_param {
    num_output: 128
    pad: 1
    kernel_size: 3
    weight_filler {
      type: "msra"
    }
    bias_filler {
      type: "constant"
    }
  }
}
layer {
  name: "conv3_1_D_bn_tmp"
  type: "BatchNorm"
  bottom: "conv3_1_D"
  top: "conv3_1_D"
  batch_norm_param {
    use_global_stats: false
  }
}
layer {
  name: "conv3_1_D_scale"
  type: "Scale"
  bottom: "conv3_1_D"
  top: "conv3_1_D"
  scale_param {
    bias_term: true
  }
}
layer {
  name: "relu3_1_D"
  type: "ReLU"
  bottom: "conv3_1_D"
  top: "conv3_1_D"
}
layer {
  name: "upsample2"
  type: "Upsample"
  bottom: "conv3_1_D"
  bottom: "pool2_mask"
  top: "pool2_D"
  upsample_param {
    scale: 2
  }
}
layer {
  name: "conv2_2_D"
  type: "Convolution"
  bottom: "pool2_D"
  top: "conv2_2_D"
  param {
    lr_mult: 1
    decay_mult: 1
  }
  param {
    lr_mult: 2
    decay_mult: 0
  }
  convolution_param {
    num_output: 128
    pad: 1
    kernel_size: 3
    weight_filler {
      type: "msra"
    }
    bias_filler {
      type: "constant"
    }
  }
}
layer {
  name: "conv2_2_D_bn_tmp"
  type: "BatchNorm"
  bottom: "conv2_2_D"
  top: "conv2_2_D"
  batch_norm_param {
    use_global_stats: false
  }
}
layer {
  name: "conv2_2_D_scale"
  type: "Scale"
  bottom: "conv2_2_D"
  top: "conv2_2_D"
  scale_param {
    bias_term: true
  }
}
layer {
  name: "relu2_2_D"
  type: "ReLU"
  bottom: "conv2_2_D"
  top: "conv2_2_D"
}
layer {
  name: "conv2_1_D"
  type: "Convolution"
  bottom: "conv2_2_D"
  top: "conv2_1_D"
  param {
    lr_mult: 1
    decay_mult: 1
  }
  param {
    lr_mult: 2
    decay_mult: 0
  }
  convolution_param {
    num_output: 64
    pad: 1
    kernel_size: 3
    weight_filler {
      type: "msra"
    }
    bias_filler {
      type: "constant"
    }
  }
}
layer {
  name: "conv2_1_D_bn_tmp"
  type: "BatchNorm"
  bottom: "conv2_1_D"
  top: "conv2_1_D"
  batch_norm_param {
    use_global_stats: false
  }
}
layer {
  name: "conv2_1_D_scale"
  type: "Scale"
  bottom: "conv2_1_D"
  top: "conv2_1_D"
  scale_param {
    bias_term: true
  }
}
layer {
  name: "relu2_1_D"
  type: "ReLU"
  bottom: "conv2_1_D"
  top: "conv2_1_D"
}
layer {
  name: "upsample1"
  type: "Upsample"
  bottom: "conv2_1_D"
  bottom: "pool1_mask"
  top: "pool1_D"
  upsample_param {
    scale: 2
  }
}
layer {
  name: "conv1_2_D"
  type: "Convolution"
  bottom: "pool1_D"
  top: "conv1_2_D"
  param {
    lr_mult: 1
    decay_mult: 1
  }
  param {
    lr_mult: 2
    decay_mult: 0
  }
  convolution_param {
    num_output: 64
    pad: 1
    kernel_size: 3
    weight_filler {
      type: "msra"
    }
    bias_filler {
      type: "constant"
    }
  }
}
layer {
  name: "conv1_2_D_bn_tmp"
  type: "BatchNorm"
  bottom: "conv1_2_D"
  top: "conv1_2_D"
  batch_norm_param {
    use_global_stats: false
  }
}
layer {
  name: "conv1_2_D_scale"
  type: "Scale"
  bottom: "conv1_2_D"
  top: "conv1_2_D"
  scale_param {
    bias_term: true
  }
}
layer {
  name: "relu1_2_D"
  type: "ReLU"
  bottom: "conv1_2_D"
  top: "conv1_2_D"
}
layer {
  name: "conv1_1_1_D"
  type: "Convolution"
  bottom: "conv1_2_D"
  top: "conv1_1_1_D"
  param {
    lr_mult: 1
    decay_mult: 1
  }
  param {
    lr_mult: 2
    decay_mult: 0
  }
  convolution_param {
    num_output: 2
    pad: 1
    kernel_size: 3
    weight_filler {
      type: "msra"
    }
    bias_filler {
      type: "constant"
    }
  }
}
layer {
  name: "loss"
  type: "SoftmaxWithLoss"
  bottom: "conv1_1_1_D"
  bottom: "label"
  top: "loss"
  loss_param {
    weight_by_label_freqs: true
    class_weighting: 0.7564
    class_weighting: 1.5572
  }
  softmax_param {
    engine: CAFFE
  }
}
layer {
  name: "accuracy"
  type: "Accuracy"
  bottom: "conv1_1_1_D"
  bottom: "label"
  top: "accuracy"
  top: "per_class_accuracy"
}
I0911 23:21:05.412796 24730 layer_factory.hpp:77] Creating layer data
I0911 23:21:05.412814 24730 net.cpp:100] Creating Layer data
I0911 23:21:05.412825 24730 net.cpp:408] data -> data
I0911 23:21:05.412854 24730 net.cpp:408] data -> label
I0911 23:21:05.412875 24730 hdf5_data_layer.cpp:79] Loading list of HDF5 filenames from: /disk2/nik/Analyzer/test/pocwisc1/HDF5Files/train_combined.txt
I0911 23:21:05.412932 24730 hdf5_data_layer.cpp:93] Number of HDF5 files: 26
I0911 23:21:05.414106 24730 hdf5.cpp:32] Datatype class: H5T_FLOAT
I0911 23:21:05.439462 24730 net.cpp:150] Setting up data
I0911 23:21:05.439491 24730 net.cpp:157] Top shape: 4 8 360 480 (5529600)
I0911 23:21:05.439503 24730 net.cpp:157] Top shape: 4 1 360 480 (691200)
I0911 23:21:05.439507 24730 net.cpp:165] Memory required for data: 24883200
I0911 23:21:05.439519 24730 layer_factory.hpp:77] Creating layer label_data_1_split
I0911 23:21:05.439537 24730 net.cpp:100] Creating Layer label_data_1_split
I0911 23:21:05.439544 24730 net.cpp:434] label_data_1_split <- label
I0911 23:21:05.439558 24730 net.cpp:408] label_data_1_split -> label_data_1_split_0
I0911 23:21:05.439570 24730 net.cpp:408] label_data_1_split -> label_data_1_split_1
I0911 23:21:05.439612 24730 net.cpp:150] Setting up label_data_1_split
I0911 23:21:05.439620 24730 net.cpp:157] Top shape: 4 1 360 480 (691200)
I0911 23:21:05.439626 24730 net.cpp:157] Top shape: 4 1 360 480 (691200)
I0911 23:21:05.439630 24730 net.cpp:165] Memory required for data: 30412800
I0911 23:21:05.439633 24730 layer_factory.hpp:77] Creating layer conv1_1_1
I0911 23:21:05.439652 24730 net.cpp:100] Creating Layer conv1_1_1
I0911 23:21:05.439658 24730 net.cpp:434] conv1_1_1 <- data
I0911 23:21:05.439664 24730 net.cpp:408] conv1_1_1 -> conv1_1_1
I0911 23:21:05.978420 24730 net.cpp:150] Setting up conv1_1_1
I0911 23:21:05.978452 24730 net.cpp:157] Top shape: 4 64 360 480 (44236800)
I0911 23:21:05.978457 24730 net.cpp:165] Memory required for data: 207360000
I0911 23:21:05.978482 24730 layer_factory.hpp:77] Creating layer conv1_1_1_bn
I0911 23:21:05.978498 24730 net.cpp:100] Creating Layer conv1_1_1_bn
I0911 23:21:05.978505 24730 net.cpp:434] conv1_1_1_bn <- conv1_1_1
I0911 23:21:05.978513 24730 net.cpp:395] conv1_1_1_bn -> conv1_1_1 (in-place)
I0911 23:21:05.978905 24730 net.cpp:150] Setting up conv1_1_1_bn
I0911 23:21:05.978914 24730 net.cpp:157] Top shape: 4 64 360 480 (44236800)
I0911 23:21:05.978924 24730 net.cpp:165] Memory required for data: 384307200
I0911 23:21:05.978937 24730 layer_factory.hpp:77] Creating layer conv1_1_1_scale
I0911 23:21:05.978950 24730 net.cpp:100] Creating Layer conv1_1_1_scale
I0911 23:21:05.978955 24730 net.cpp:434] conv1_1_1_scale <- conv1_1_1
I0911 23:21:05.978960 24730 net.cpp:395] conv1_1_1_scale -> conv1_1_1 (in-place)
I0911 23:21:05.979009 24730 layer_factory.hpp:77] Creating layer conv1_1_1_scale
I0911 23:21:05.981086 24730 net.cpp:150] Setting up conv1_1_1_scale
I0911 23:21:05.981101 24730 net.cpp:157] Top shape: 4 64 360 480 (44236800)
I0911 23:21:05.981109 24730 net.cpp:165] Memory required for data: 561254400
I0911 23:21:05.981117 24730 layer_factory.hpp:77] Creating layer relu1_1
I0911 23:21:05.981128 24730 net.cpp:100] Creating Layer relu1_1
I0911 23:21:05.981133 24730 net.cpp:434] relu1_1 <- conv1_1_1
I0911 23:21:05.981139 24730 net.cpp:395] relu1_1 -> conv1_1_1 (in-place)
I0911 23:21:05.981374 24730 net.cpp:150] Setting up relu1_1
I0911 23:21:05.981384 24730 net.cpp:157] Top shape: 4 64 360 480 (44236800)
I0911 23:21:05.981389 24730 net.cpp:165] Memory required for data: 738201600
I0911 23:21:05.981395 24730 layer_factory.hpp:77] Creating layer conv1_2
I0911 23:21:05.981405 24730 net.cpp:100] Creating Layer conv1_2
I0911 23:21:05.981410 24730 net.cpp:434] conv1_2 <- conv1_1_1
I0911 23:21:05.981417 24730 net.cpp:408] conv1_2 -> conv1_2
I0911 23:21:05.986089 24730 net.cpp:150] Setting up conv1_2
I0911 23:21:05.986106 24730 net.cpp:157] Top shape: 4 64 360 480 (44236800)
I0911 23:21:05.986115 24730 net.cpp:165] Memory required for data: 915148800
I0911 23:21:05.986126 24730 layer_factory.hpp:77] Creating layer conv1_2_bn_tmp
I0911 23:21:05.986138 24730 net.cpp:100] Creating Layer conv1_2_bn_tmp
I0911 23:21:05.986147 24730 net.cpp:434] conv1_2_bn_tmp <- conv1_2
I0911 23:21:05.986152 24730 net.cpp:395] conv1_2_bn_tmp -> conv1_2 (in-place)
I0911 23:21:05.988138 24730 net.cpp:150] Setting up conv1_2_bn_tmp
I0911 23:21:05.988153 24730 net.cpp:157] Top shape: 4 64 360 480 (44236800)
I0911 23:21:05.988162 24730 net.cpp:165] Memory required for data: 1092096000
I0911 23:21:05.988170 24730 layer_factory.hpp:77] Creating layer conv1_2_scale
I0911 23:21:05.988181 24730 net.cpp:100] Creating Layer conv1_2_scale
I0911 23:21:05.988186 24730 net.cpp:434] conv1_2_scale <- conv1_2
I0911 23:21:05.988193 24730 net.cpp:395] conv1_2_scale -> conv1_2 (in-place)
I0911 23:21:05.988235 24730 layer_factory.hpp:77] Creating layer conv1_2_scale
I0911 23:21:05.988605 24730 net.cpp:150] Setting up conv1_2_scale
I0911 23:21:05.988615 24730 net.cpp:157] Top shape: 4 64 360 480 (44236800)
I0911 23:21:05.988618 24730 net.cpp:165] Memory required for data: 1269043200
I0911 23:21:05.988626 24730 layer_factory.hpp:77] Creating layer relu1_2
I0911 23:21:05.988633 24730 net.cpp:100] Creating Layer relu1_2
I0911 23:21:05.988638 24730 net.cpp:434] relu1_2 <- conv1_2
I0911 23:21:05.988642 24730 net.cpp:395] relu1_2 -> conv1_2 (in-place)
I0911 23:21:05.988836 24730 net.cpp:150] Setting up relu1_2
I0911 23:21:05.988845 24730 net.cpp:157] Top shape: 4 64 360 480 (44236800)
I0911 23:21:05.988849 24730 net.cpp:165] Memory required for data: 1445990400
I0911 23:21:05.988853 24730 layer_factory.hpp:77] Creating layer pool1
I0911 23:21:05.988858 24730 layer_factory.cpp:91] cuDNN does not support multiple tops. Using Caffe's own pooling layer.
I0911 23:21:05.988867 24730 net.cpp:100] Creating Layer pool1
I0911 23:21:05.988871 24730 net.cpp:434] pool1 <- conv1_2
I0911 23:21:05.988876 24730 net.cpp:408] pool1 -> pool1
I0911 23:21:05.988886 24730 net.cpp:408] pool1 -> pool1_mask
I0911 23:21:05.988940 24730 net.cpp:150] Setting up pool1
I0911 23:21:05.988946 24730 net.cpp:157] Top shape: 4 64 180 240 (11059200)
I0911 23:21:05.988951 24730 net.cpp:157] Top shape: 4 64 180 240 (11059200)
I0911 23:21:05.988955 24730 net.cpp:165] Memory required for data: 1534464000
I0911 23:21:05.988958 24730 layer_factory.hpp:77] Creating layer conv2_1
I0911 23:21:05.988967 24730 net.cpp:100] Creating Layer conv2_1
I0911 23:21:05.988972 24730 net.cpp:434] conv2_1 <- pool1
I0911 23:21:05.988978 24730 net.cpp:408] conv2_1 -> conv2_1
I0911 23:21:05.995609 24730 net.cpp:150] Setting up conv2_1
I0911 23:21:05.995626 24730 net.cpp:157] Top shape: 4 128 180 240 (22118400)
I0911 23:21:05.995635 24730 net.cpp:165] Memory required for data: 1622937600
I0911 23:21:05.995642 24730 layer_factory.hpp:77] Creating layer conv2_1_bn_tmp
I0911 23:21:05.995651 24730 net.cpp:100] Creating Layer conv2_1_bn_tmp
I0911 23:21:05.995661 24730 net.cpp:434] conv2_1_bn_tmp <- conv2_1
I0911 23:21:05.995666 24730 net.cpp:395] conv2_1_bn_tmp -> conv2_1 (in-place)
I0911 23:21:05.995887 24730 net.cpp:150] Setting up conv2_1_bn_tmp
I0911 23:21:05.995896 24730 net.cpp:157] Top shape: 4 128 180 240 (22118400)
I0911 23:21:05.995899 24730 net.cpp:165] Memory required for data: 1711411200
I0911 23:21:05.995913 24730 layer_factory.hpp:77] Creating layer conv2_1_scale
I0911 23:21:05.995935 24730 net.cpp:100] Creating Layer conv2_1_scale
I0911 23:21:05.995939 24730 net.cpp:434] conv2_1_scale <- conv2_1
I0911 23:21:05.995945 24730 net.cpp:395] conv2_1_scale -> conv2_1 (in-place)
I0911 23:21:05.995986 24730 layer_factory.hpp:77] Creating layer conv2_1_scale
I0911 23:21:05.996156 24730 net.cpp:150] Setting up conv2_1_scale
I0911 23:21:05.996165 24730 net.cpp:157] Top shape: 4 128 180 240 (22118400)
I0911 23:21:05.996170 24730 net.cpp:165] Memory required for data: 1799884800
I0911 23:21:05.996176 24730 layer_factory.hpp:77] Creating layer relu2_1
I0911 23:21:05.996184 24730 net.cpp:100] Creating Layer relu2_1
I0911 23:21:05.996189 24730 net.cpp:434] relu2_1 <- conv2_1
I0911 23:21:05.996194 24730 net.cpp:395] relu2_1 -> conv2_1 (in-place)
I0911 23:21:05.997222 24730 net.cpp:150] Setting up relu2_1
I0911 23:21:05.997236 24730 net.cpp:157] Top shape: 4 128 180 240 (22118400)
I0911 23:21:05.997241 24730 net.cpp:165] Memory required for data: 1888358400
I0911 23:21:05.997246 24730 layer_factory.hpp:77] Creating layer conv2_2
I0911 23:21:05.997256 24730 net.cpp:100] Creating Layer conv2_2
I0911 23:21:05.997262 24730 net.cpp:434] conv2_2 <- conv2_1
I0911 23:21:05.997268 24730 net.cpp:408] conv2_2 -> conv2_2
I0911 23:21:06.004791 24730 net.cpp:150] Setting up conv2_2
I0911 23:21:06.004808 24730 net.cpp:157] Top shape: 4 128 180 240 (22118400)
I0911 23:21:06.004818 24730 net.cpp:165] Memory required for data: 1976832000
I0911 23:21:06.004827 24730 layer_factory.hpp:77] Creating layer conv2_2_bn_tmp
I0911 23:21:06.004838 24730 net.cpp:100] Creating Layer conv2_2_bn_tmp
I0911 23:21:06.004844 24730 net.cpp:434] conv2_2_bn_tmp <- conv2_2
I0911 23:21:06.004850 24730 net.cpp:395] conv2_2_bn_tmp -> conv2_2 (in-place)
I0911 23:21:06.005077 24730 net.cpp:150] Setting up conv2_2_bn_tmp
I0911 23:21:06.005086 24730 net.cpp:157] Top shape: 4 128 180 240 (22118400)
I0911 23:21:06.005089 24730 net.cpp:165] Memory required for data: 2065305600
I0911 23:21:06.005097 24730 layer_factory.hpp:77] Creating layer conv2_2_scale
I0911 23:21:06.005105 24730 net.cpp:100] Creating Layer conv2_2_scale
I0911 23:21:06.005112 24730 net.cpp:434] conv2_2_scale <- conv2_2
I0911 23:21:06.005117 24730 net.cpp:395] conv2_2_scale -> conv2_2 (in-place)
I0911 23:21:06.005156 24730 layer_factory.hpp:77] Creating layer conv2_2_scale
I0911 23:21:06.005326 24730 net.cpp:150] Setting up conv2_2_scale
I0911 23:21:06.005334 24730 net.cpp:157] Top shape: 4 128 180 240 (22118400)
I0911 23:21:06.005339 24730 net.cpp:165] Memory required for data: 2153779200
I0911 23:21:06.005347 24730 layer_factory.hpp:77] Creating layer relu2_2
I0911 23:21:06.005353 24730 net.cpp:100] Creating Layer relu2_2
I0911 23:21:06.005358 24730 net.cpp:434] relu2_2 <- conv2_2
I0911 23:21:06.005363 24730 net.cpp:395] relu2_2 -> conv2_2 (in-place)
I0911 23:21:06.005558 24730 net.cpp:150] Setting up relu2_2
I0911 23:21:06.005568 24730 net.cpp:157] Top shape: 4 128 180 240 (22118400)
I0911 23:21:06.005573 24730 net.cpp:165] Memory required for data: 2242252800
I0911 23:21:06.005575 24730 layer_factory.hpp:77] Creating layer pool2
I0911 23:21:06.005580 24730 layer_factory.cpp:91] cuDNN does not support multiple tops. Using Caffe's own pooling layer.
I0911 23:21:06.005586 24730 net.cpp:100] Creating Layer pool2
I0911 23:21:06.005591 24730 net.cpp:434] pool2 <- conv2_2
I0911 23:21:06.005596 24730 net.cpp:408] pool2 -> pool2
I0911 23:21:06.005605 24730 net.cpp:408] pool2 -> pool2_mask
I0911 23:21:06.005647 24730 net.cpp:150] Setting up pool2
I0911 23:21:06.005655 24730 net.cpp:157] Top shape: 4 128 90 120 (5529600)
I0911 23:21:06.005658 24730 net.cpp:157] Top shape: 4 128 90 120 (5529600)
I0911 23:21:06.005662 24730 net.cpp:165] Memory required for data: 2286489600
I0911 23:21:06.005666 24730 layer_factory.hpp:77] Creating layer conv3_1
I0911 23:21:06.005676 24730 net.cpp:100] Creating Layer conv3_1
I0911 23:21:06.005681 24730 net.cpp:434] conv3_1 <- pool2
I0911 23:21:06.005686 24730 net.cpp:408] conv3_1 -> conv3_1
I0911 23:21:06.018240 24730 net.cpp:150] Setting up conv3_1
I0911 23:21:06.018271 24730 net.cpp:157] Top shape: 4 256 90 120 (11059200)
I0911 23:21:06.018281 24730 net.cpp:165] Memory required for data: 2330726400
I0911 23:21:06.018290 24730 layer_factory.hpp:77] Creating layer conv3_1_bn_tmp
I0911 23:21:06.018299 24730 net.cpp:100] Creating Layer conv3_1_bn_tmp
I0911 23:21:06.018308 24730 net.cpp:434] conv3_1_bn_tmp <- conv3_1
I0911 23:21:06.018314 24730 net.cpp:395] conv3_1_bn_tmp -> conv3_1 (in-place)
I0911 23:21:06.018517 24730 net.cpp:150] Setting up conv3_1_bn_tmp
I0911 23:21:06.018527 24730 net.cpp:157] Top shape: 4 256 90 120 (11059200)
I0911 23:21:06.018529 24730 net.cpp:165] Memory required for data: 2374963200
I0911 23:21:06.018543 24730 layer_factory.hpp:77] Creating layer conv3_1_scale
I0911 23:21:06.018551 24730 net.cpp:100] Creating Layer conv3_1_scale
I0911 23:21:06.018559 24730 net.cpp:434] conv3_1_scale <- conv3_1
I0911 23:21:06.018564 24730 net.cpp:395] conv3_1_scale -> conv3_1 (in-place)
I0911 23:21:06.018605 24730 layer_factory.hpp:77] Creating layer conv3_1_scale
I0911 23:21:06.018735 24730 net.cpp:150] Setting up conv3_1_scale
I0911 23:21:06.018743 24730 net.cpp:157] Top shape: 4 256 90 120 (11059200)
I0911 23:21:06.018748 24730 net.cpp:165] Memory required for data: 2419200000
I0911 23:21:06.018755 24730 layer_factory.hpp:77] Creating layer relu3_1
I0911 23:21:06.018762 24730 net.cpp:100] Creating Layer relu3_1
I0911 23:21:06.018767 24730 net.cpp:434] relu3_1 <- conv3_1
I0911 23:21:06.018772 24730 net.cpp:395] relu3_1 -> conv3_1 (in-place)
I0911 23:21:06.018961 24730 net.cpp:150] Setting up relu3_1
I0911 23:21:06.018971 24730 net.cpp:157] Top shape: 4 256 90 120 (11059200)
I0911 23:21:06.018976 24730 net.cpp:165] Memory required for data: 2463436800
I0911 23:21:06.018980 24730 layer_factory.hpp:77] Creating layer conv3_2
I0911 23:21:06.018990 24730 net.cpp:100] Creating Layer conv3_2
I0911 23:21:06.018996 24730 net.cpp:434] conv3_2 <- conv3_1
I0911 23:21:06.019001 24730 net.cpp:408] conv3_2 -> conv3_2
I0911 23:21:06.043429 24730 net.cpp:150] Setting up conv3_2
I0911 23:21:06.043447 24730 net.cpp:157] Top shape: 4 256 90 120 (11059200)
I0911 23:21:06.043457 24730 net.cpp:165] Memory required for data: 2507673600
I0911 23:21:06.043464 24730 layer_factory.hpp:77] Creating layer conv3_2_bn_tmp
I0911 23:21:06.043474 24730 net.cpp:100] Creating Layer conv3_2_bn_tmp
I0911 23:21:06.043483 24730 net.cpp:434] conv3_2_bn_tmp <- conv3_2
I0911 23:21:06.043488 24730 net.cpp:395] conv3_2_bn_tmp -> conv3_2 (in-place)
I0911 23:21:06.043694 24730 net.cpp:150] Setting up conv3_2_bn_tmp
I0911 23:21:06.043702 24730 net.cpp:157] Top shape: 4 256 90 120 (11059200)
I0911 23:21:06.043706 24730 net.cpp:165] Memory required for data: 2551910400
I0911 23:21:06.043715 24730 layer_factory.hpp:77] Creating layer conv3_2_scale
I0911 23:21:06.043720 24730 net.cpp:100] Creating Layer conv3_2_scale
I0911 23:21:06.043728 24730 net.cpp:434] conv3_2_scale <- conv3_2
I0911 23:21:06.043733 24730 net.cpp:395] conv3_2_scale -> conv3_2 (in-place)
I0911 23:21:06.043772 24730 layer_factory.hpp:77] Creating layer conv3_2_scale
I0911 23:21:06.043900 24730 net.cpp:150] Setting up conv3_2_scale
I0911 23:21:06.043908 24730 net.cpp:157] Top shape: 4 256 90 120 (11059200)
I0911 23:21:06.043912 24730 net.cpp:165] Memory required for data: 2596147200
I0911 23:21:06.043920 24730 layer_factory.hpp:77] Creating layer relu3_2
I0911 23:21:06.043927 24730 net.cpp:100] Creating Layer relu3_2
I0911 23:21:06.043932 24730 net.cpp:434] relu3_2 <- conv3_2
I0911 23:21:06.043937 24730 net.cpp:395] relu3_2 -> conv3_2 (in-place)
I0911 23:21:06.044129 24730 net.cpp:150] Setting up relu3_2
I0911 23:21:06.044138 24730 net.cpp:157] Top shape: 4 256 90 120 (11059200)
I0911 23:21:06.044143 24730 net.cpp:165] Memory required for data: 2640384000
I0911 23:21:06.044147 24730 layer_factory.hpp:77] Creating layer conv3_3
I0911 23:21:06.044157 24730 net.cpp:100] Creating Layer conv3_3
I0911 23:21:06.044162 24730 net.cpp:434] conv3_3 <- conv3_2
I0911 23:21:06.044168 24730 net.cpp:408] conv3_3 -> conv3_3
I0911 23:21:06.068580 24730 net.cpp:150] Setting up conv3_3
I0911 23:21:06.068611 24730 net.cpp:157] Top shape: 4 256 90 120 (11059200)
I0911 23:21:06.068620 24730 net.cpp:165] Memory required for data: 2684620800
I0911 23:21:06.068629 24730 layer_factory.hpp:77] Creating layer conv3_3_bn_tmp
I0911 23:21:06.068639 24730 net.cpp:100] Creating Layer conv3_3_bn_tmp
I0911 23:21:06.068647 24730 net.cpp:434] conv3_3_bn_tmp <- conv3_3
I0911 23:21:06.068652 24730 net.cpp:395] conv3_3_bn_tmp -> conv3_3 (in-place)
I0911 23:21:06.068862 24730 net.cpp:150] Setting up conv3_3_bn_tmp
I0911 23:21:06.068871 24730 net.cpp:157] Top shape: 4 256 90 120 (11059200)
I0911 23:21:06.068874 24730 net.cpp:165] Memory required for data: 2728857600
I0911 23:21:06.068882 24730 layer_factory.hpp:77] Creating layer conv3_3_scale
I0911 23:21:06.068889 24730 net.cpp:100] Creating Layer conv3_3_scale
I0911 23:21:06.068897 24730 net.cpp:434] conv3_3_scale <- conv3_3
I0911 23:21:06.068902 24730 net.cpp:395] conv3_3_scale -> conv3_3 (in-place)
I0911 23:21:06.068943 24730 layer_factory.hpp:77] Creating layer conv3_3_scale
I0911 23:21:06.069072 24730 net.cpp:150] Setting up conv3_3_scale
I0911 23:21:06.069080 24730 net.cpp:157] Top shape: 4 256 90 120 (11059200)
I0911 23:21:06.069084 24730 net.cpp:165] Memory required for data: 2773094400
I0911 23:21:06.069090 24730 layer_factory.hpp:77] Creating layer relu3_3
I0911 23:21:06.069097 24730 net.cpp:100] Creating Layer relu3_3
I0911 23:21:06.069103 24730 net.cpp:434] relu3_3 <- conv3_3
I0911 23:21:06.069108 24730 net.cpp:395] relu3_3 -> conv3_3 (in-place)
I0911 23:21:06.069303 24730 net.cpp:150] Setting up relu3_3
I0911 23:21:06.069314 24730 net.cpp:157] Top shape: 4 256 90 120 (11059200)
I0911 23:21:06.069319 24730 net.cpp:165] Memory required for data: 2817331200
I0911 23:21:06.069322 24730 layer_factory.hpp:77] Creating layer pool3
I0911 23:21:06.069326 24730 layer_factory.cpp:91] cuDNN does not support multiple tops. Using Caffe's own pooling layer.
I0911 23:21:06.069336 24730 net.cpp:100] Creating Layer pool3
I0911 23:21:06.069341 24730 net.cpp:434] pool3 <- conv3_3
I0911 23:21:06.069347 24730 net.cpp:408] pool3 -> pool3
I0911 23:21:06.069356 24730 net.cpp:408] pool3 -> pool3_mask
I0911 23:21:06.069408 24730 net.cpp:150] Setting up pool3
I0911 23:21:06.069417 24730 net.cpp:157] Top shape: 4 256 45 60 (2764800)
I0911 23:21:06.069422 24730 net.cpp:157] Top shape: 4 256 45 60 (2764800)
I0911 23:21:06.069425 24730 net.cpp:165] Memory required for data: 2839449600
I0911 23:21:06.069428 24730 layer_factory.hpp:77] Creating layer conv4_1
I0911 23:21:06.069439 24730 net.cpp:100] Creating Layer conv4_1
I0911 23:21:06.069444 24730 net.cpp:434] conv4_1 <- pool3
I0911 23:21:06.069450 24730 net.cpp:408] conv4_1 -> conv4_1
I0911 23:21:06.118849 24730 net.cpp:150] Setting up conv4_1
I0911 23:21:06.118866 24730 net.cpp:157] Top shape: 4 512 45 60 (5529600)
I0911 23:21:06.118871 24730 net.cpp:165] Memory required for data: 2861568000
I0911 23:21:06.118880 24730 layer_factory.hpp:77] Creating layer conv4_1_bn_tmp
I0911 23:21:06.118888 24730 net.cpp:100] Creating Layer conv4_1_bn_tmp
I0911 23:21:06.118901 24730 net.cpp:434] conv4_1_bn_tmp <- conv4_1
I0911 23:21:06.118906 24730 net.cpp:395] conv4_1_bn_tmp -> conv4_1 (in-place)
I0911 23:21:06.119119 24730 net.cpp:150] Setting up conv4_1_bn_tmp
I0911 23:21:06.119128 24730 net.cpp:157] Top shape: 4 512 45 60 (5529600)
I0911 23:21:06.119137 24730 net.cpp:165] Memory required for data: 2883686400
I0911 23:21:06.119144 24730 layer_factory.hpp:77] Creating layer conv4_1_scale
I0911 23:21:06.119154 24730 net.cpp:100] Creating Layer conv4_1_scale
I0911 23:21:06.119161 24730 net.cpp:434] conv4_1_scale <- conv4_1
I0911 23:21:06.119166 24730 net.cpp:395] conv4_1_scale -> conv4_1 (in-place)
I0911 23:21:06.119207 24730 layer_factory.hpp:77] Creating layer conv4_1_scale
I0911 23:21:06.119329 24730 net.cpp:150] Setting up conv4_1_scale
I0911 23:21:06.119338 24730 net.cpp:157] Top shape: 4 512 45 60 (5529600)
I0911 23:21:06.119341 24730 net.cpp:165] Memory required for data: 2905804800
I0911 23:21:06.119349 24730 layer_factory.hpp:77] Creating layer relu4_1
I0911 23:21:06.119370 24730 net.cpp:100] Creating Layer relu4_1
I0911 23:21:06.119376 24730 net.cpp:434] relu4_1 <- conv4_1
I0911 23:21:06.119381 24730 net.cpp:395] relu4_1 -> conv4_1 (in-place)
I0911 23:21:06.119585 24730 net.cpp:150] Setting up relu4_1
I0911 23:21:06.119595 24730 net.cpp:157] Top shape: 4 512 45 60 (5529600)
I0911 23:21:06.119599 24730 net.cpp:165] Memory required for data: 2927923200
I0911 23:21:06.119603 24730 layer_factory.hpp:77] Creating layer conv4_2
I0911 23:21:06.119614 24730 net.cpp:100] Creating Layer conv4_2
I0911 23:21:06.119619 24730 net.cpp:434] conv4_2 <- conv4_1
I0911 23:21:06.119626 24730 net.cpp:408] conv4_2 -> conv4_2
I0911 23:21:06.208027 24730 net.cpp:150] Setting up conv4_2
I0911 23:21:06.208045 24730 net.cpp:157] Top shape: 4 512 45 60 (5529600)
I0911 23:21:06.208050 24730 net.cpp:165] Memory required for data: 2950041600
I0911 23:21:06.208056 24730 layer_factory.hpp:77] Creating layer conv4_2_bn_tmp
I0911 23:21:06.208065 24730 net.cpp:100] Creating Layer conv4_2_bn_tmp
I0911 23:21:06.208068 24730 net.cpp:434] conv4_2_bn_tmp <- conv4_2
I0911 23:21:06.208075 24730 net.cpp:395] conv4_2_bn_tmp -> conv4_2 (in-place)
I0911 23:21:06.208276 24730 net.cpp:150] Setting up conv4_2_bn_tmp
I0911 23:21:06.208283 24730 net.cpp:157] Top shape: 4 512 45 60 (5529600)
I0911 23:21:06.208287 24730 net.cpp:165] Memory required for data: 2972160000
I0911 23:21:06.208295 24730 layer_factory.hpp:77] Creating layer conv4_2_scale
I0911 23:21:06.208302 24730 net.cpp:100] Creating Layer conv4_2_scale
I0911 23:21:06.208309 24730 net.cpp:434] conv4_2_scale <- conv4_2
I0911 23:21:06.208314 24730 net.cpp:395] conv4_2_scale -> conv4_2 (in-place)
I0911 23:21:06.208358 24730 layer_factory.hpp:77] Creating layer conv4_2_scale
I0911 23:21:06.208482 24730 net.cpp:150] Setting up conv4_2_scale
I0911 23:21:06.208489 24730 net.cpp:157] Top shape: 4 512 45 60 (5529600)
I0911 23:21:06.208492 24730 net.cpp:165] Memory required for data: 2994278400
I0911 23:21:06.208498 24730 layer_factory.hpp:77] Creating layer relu4_2
I0911 23:21:06.208509 24730 net.cpp:100] Creating Layer relu4_2
I0911 23:21:06.208514 24730 net.cpp:434] relu4_2 <- conv4_2
I0911 23:21:06.208520 24730 net.cpp:395] relu4_2 -> conv4_2 (in-place)
I0911 23:21:06.209576 24730 net.cpp:150] Setting up relu4_2
I0911 23:21:06.209591 24730 net.cpp:157] Top shape: 4 512 45 60 (5529600)
I0911 23:21:06.209596 24730 net.cpp:165] Memory required for data: 3016396800
I0911 23:21:06.209600 24730 layer_factory.hpp:77] Creating layer conv4_3
I0911 23:21:06.209611 24730 net.cpp:100] Creating Layer conv4_3
I0911 23:21:06.209617 24730 net.cpp:434] conv4_3 <- conv4_2
I0911 23:21:06.209625 24730 net.cpp:408] conv4_3 -> conv4_3
I0911 23:21:06.298117 24730 net.cpp:150] Setting up conv4_3
I0911 23:21:06.298135 24730 net.cpp:157] Top shape: 4 512 45 60 (5529600)
I0911 23:21:06.298138 24730 net.cpp:165] Memory required for data: 3038515200
I0911 23:21:06.298164 24730 layer_factory.hpp:77] Creating layer conv4_3_bn_tmp
I0911 23:21:06.298177 24730 net.cpp:100] Creating Layer conv4_3_bn_tmp
I0911 23:21:06.298183 24730 net.cpp:434] conv4_3_bn_tmp <- conv4_3
I0911 23:21:06.298189 24730 net.cpp:395] conv4_3_bn_tmp -> conv4_3 (in-place)
I0911 23:21:06.298414 24730 net.cpp:150] Setting up conv4_3_bn_tmp
I0911 23:21:06.298422 24730 net.cpp:157] Top shape: 4 512 45 60 (5529600)
I0911 23:21:06.298425 24730 net.cpp:165] Memory required for data: 3060633600
I0911 23:21:06.298439 24730 layer_factory.hpp:77] Creating layer conv4_3_scale
I0911 23:21:06.298447 24730 net.cpp:100] Creating Layer conv4_3_scale
I0911 23:21:06.298455 24730 net.cpp:434] conv4_3_scale <- conv4_3
I0911 23:21:06.298460 24730 net.cpp:395] conv4_3_scale -> conv4_3 (in-place)
I0911 23:21:06.298511 24730 layer_factory.hpp:77] Creating layer conv4_3_scale
I0911 23:21:06.298648 24730 net.cpp:150] Setting up conv4_3_scale
I0911 23:21:06.298656 24730 net.cpp:157] Top shape: 4 512 45 60 (5529600)
I0911 23:21:06.298660 24730 net.cpp:165] Memory required for data: 3082752000
I0911 23:21:06.298666 24730 layer_factory.hpp:77] Creating layer relu4_3
I0911 23:21:06.298692 24730 net.cpp:100] Creating Layer relu4_3
I0911 23:21:06.298697 24730 net.cpp:434] relu4_3 <- conv4_3
I0911 23:21:06.298702 24730 net.cpp:395] relu4_3 -> conv4_3 (in-place)
I0911 23:21:06.298907 24730 net.cpp:150] Setting up relu4_3
I0911 23:21:06.298916 24730 net.cpp:157] Top shape: 4 512 45 60 (5529600)
I0911 23:21:06.298921 24730 net.cpp:165] Memory required for data: 3104870400
I0911 23:21:06.298925 24730 layer_factory.hpp:77] Creating layer pool4
I0911 23:21:06.298929 24730 layer_factory.cpp:91] cuDNN does not support multiple tops. Using Caffe's own pooling layer.
I0911 23:21:06.298939 24730 net.cpp:100] Creating Layer pool4
I0911 23:21:06.298944 24730 net.cpp:434] pool4 <- conv4_3
I0911 23:21:06.298952 24730 net.cpp:408] pool4 -> pool4
I0911 23:21:06.298961 24730 net.cpp:408] pool4 -> pool4_mask
I0911 23:21:06.299008 24730 net.cpp:150] Setting up pool4
I0911 23:21:06.299016 24730 net.cpp:157] Top shape: 4 512 23 30 (1413120)
I0911 23:21:06.299021 24730 net.cpp:157] Top shape: 4 512 23 30 (1413120)
I0911 23:21:06.299026 24730 net.cpp:165] Memory required for data: 3116175360
I0911 23:21:06.299028 24730 layer_factory.hpp:77] Creating layer conv5_1
I0911 23:21:06.299041 24730 net.cpp:100] Creating Layer conv5_1
I0911 23:21:06.299046 24730 net.cpp:434] conv5_1 <- pool4
I0911 23:21:06.299054 24730 net.cpp:408] conv5_1 -> conv5_1
I0911 23:21:06.389096 24730 net.cpp:150] Setting up conv5_1
I0911 23:21:06.389117 24730 net.cpp:157] Top shape: 4 512 23 30 (1413120)
I0911 23:21:06.389122 24730 net.cpp:165] Memory required for data: 3121827840
I0911 23:21:06.389133 24730 layer_factory.hpp:77] Creating layer conv5_1_bn_tmp
I0911 23:21:06.389152 24730 net.cpp:100] Creating Layer conv5_1_bn_tmp
I0911 23:21:06.389160 24730 net.cpp:434] conv5_1_bn_tmp <- conv5_1
I0911 23:21:06.389171 24730 net.cpp:395] conv5_1_bn_tmp -> conv5_1 (in-place)
I0911 23:21:06.389411 24730 net.cpp:150] Setting up conv5_1_bn_tmp
I0911 23:21:06.389420 24730 net.cpp:157] Top shape: 4 512 23 30 (1413120)
I0911 23:21:06.389423 24730 net.cpp:165] Memory required for data: 3127480320
I0911 23:21:06.389431 24730 layer_factory.hpp:77] Creating layer conv5_1_scale
I0911 23:21:06.389443 24730 net.cpp:100] Creating Layer conv5_1_scale
I0911 23:21:06.389451 24730 net.cpp:434] conv5_1_scale <- conv5_1
I0911 23:21:06.389457 24730 net.cpp:395] conv5_1_scale -> conv5_1 (in-place)
I0911 23:21:06.389503 24730 layer_factory.hpp:77] Creating layer conv5_1_scale
I0911 23:21:06.389626 24730 net.cpp:150] Setting up conv5_1_scale
I0911 23:21:06.389637 24730 net.cpp:157] Top shape: 4 512 23 30 (1413120)
I0911 23:21:06.389642 24730 net.cpp:165] Memory required for data: 3133132800
I0911 23:21:06.389648 24730 layer_factory.hpp:77] Creating layer relu5_1
I0911 23:21:06.389655 24730 net.cpp:100] Creating Layer relu5_1
I0911 23:21:06.389660 24730 net.cpp:434] relu5_1 <- conv5_1
I0911 23:21:06.389665 24730 net.cpp:395] relu5_1 -> conv5_1 (in-place)
I0911 23:21:06.389876 24730 net.cpp:150] Setting up relu5_1
I0911 23:21:06.389886 24730 net.cpp:157] Top shape: 4 512 23 30 (1413120)
I0911 23:21:06.389890 24730 net.cpp:165] Memory required for data: 3138785280
I0911 23:21:06.389894 24730 layer_factory.hpp:77] Creating layer conv5_2
I0911 23:21:06.389909 24730 net.cpp:100] Creating Layer conv5_2
I0911 23:21:06.389914 24730 net.cpp:434] conv5_2 <- conv5_1
I0911 23:21:06.389922 24730 net.cpp:408] conv5_2 -> conv5_2
I0911 23:21:06.478484 24730 net.cpp:150] Setting up conv5_2
I0911 23:21:06.478502 24730 net.cpp:157] Top shape: 4 512 23 30 (1413120)
I0911 23:21:06.478505 24730 net.cpp:165] Memory required for data: 3144437760
I0911 23:21:06.478513 24730 layer_factory.hpp:77] Creating layer conv5_2_bn_tmp
I0911 23:21:06.478524 24730 net.cpp:100] Creating Layer conv5_2_bn_tmp
I0911 23:21:06.478533 24730 net.cpp:434] conv5_2_bn_tmp <- conv5_2
I0911 23:21:06.478543 24730 net.cpp:395] conv5_2_bn_tmp -> conv5_2 (in-place)
I0911 23:21:06.478763 24730 net.cpp:150] Setting up conv5_2_bn_tmp
I0911 23:21:06.478771 24730 net.cpp:157] Top shape: 4 512 23 30 (1413120)
I0911 23:21:06.478793 24730 net.cpp:165] Memory required for data: 3150090240
I0911 23:21:06.478802 24730 layer_factory.hpp:77] Creating layer conv5_2_scale
I0911 23:21:06.478816 24730 net.cpp:100] Creating Layer conv5_2_scale
I0911 23:21:06.478821 24730 net.cpp:434] conv5_2_scale <- conv5_2
I0911 23:21:06.478827 24730 net.cpp:395] conv5_2_scale -> conv5_2 (in-place)
I0911 23:21:06.478879 24730 layer_factory.hpp:77] Creating layer conv5_2_scale
I0911 23:21:06.479008 24730 net.cpp:150] Setting up conv5_2_scale
I0911 23:21:06.479017 24730 net.cpp:157] Top shape: 4 512 23 30 (1413120)
I0911 23:21:06.479020 24730 net.cpp:165] Memory required for data: 3155742720
I0911 23:21:06.479027 24730 layer_factory.hpp:77] Creating layer relu5_2
I0911 23:21:06.479034 24730 net.cpp:100] Creating Layer relu5_2
I0911 23:21:06.479039 24730 net.cpp:434] relu5_2 <- conv5_2
I0911 23:21:06.479044 24730 net.cpp:395] relu5_2 -> conv5_2 (in-place)
I0911 23:21:06.479254 24730 net.cpp:150] Setting up relu5_2
I0911 23:21:06.479264 24730 net.cpp:157] Top shape: 4 512 23 30 (1413120)
I0911 23:21:06.479269 24730 net.cpp:165] Memory required for data: 3161395200
I0911 23:21:06.479272 24730 layer_factory.hpp:77] Creating layer conv5_3
I0911 23:21:06.479286 24730 net.cpp:100] Creating Layer conv5_3
I0911 23:21:06.479292 24730 net.cpp:434] conv5_3 <- conv5_2
I0911 23:21:06.479302 24730 net.cpp:408] conv5_3 -> conv5_3
I0911 23:21:06.567961 24730 net.cpp:150] Setting up conv5_3
I0911 23:21:06.567978 24730 net.cpp:157] Top shape: 4 512 23 30 (1413120)
I0911 23:21:06.567982 24730 net.cpp:165] Memory required for data: 3167047680
I0911 23:21:06.567996 24730 layer_factory.hpp:77] Creating layer conv5_3_bn_tmp
I0911 23:21:06.568011 24730 net.cpp:100] Creating Layer conv5_3_bn_tmp
I0911 23:21:06.568017 24730 net.cpp:434] conv5_3_bn_tmp <- conv5_3
I0911 23:21:06.568023 24730 net.cpp:395] conv5_3_bn_tmp -> conv5_3 (in-place)
I0911 23:21:06.568246 24730 net.cpp:150] Setting up conv5_3_bn_tmp
I0911 23:21:06.568254 24730 net.cpp:157] Top shape: 4 512 23 30 (1413120)
I0911 23:21:06.568258 24730 net.cpp:165] Memory required for data: 3172700160
I0911 23:21:06.568269 24730 layer_factory.hpp:77] Creating layer conv5_3_scale
I0911 23:21:06.568280 24730 net.cpp:100] Creating Layer conv5_3_scale
I0911 23:21:06.568289 24730 net.cpp:434] conv5_3_scale <- conv5_3
I0911 23:21:06.568295 24730 net.cpp:395] conv5_3_scale -> conv5_3 (in-place)
I0911 23:21:06.568341 24730 layer_factory.hpp:77] Creating layer conv5_3_scale
I0911 23:21:06.568470 24730 net.cpp:150] Setting up conv5_3_scale
I0911 23:21:06.568477 24730 net.cpp:157] Top shape: 4 512 23 30 (1413120)
I0911 23:21:06.568480 24730 net.cpp:165] Memory required for data: 3178352640
I0911 23:21:06.568487 24730 layer_factory.hpp:77] Creating layer relu5_3
I0911 23:21:06.568497 24730 net.cpp:100] Creating Layer relu5_3
I0911 23:21:06.568502 24730 net.cpp:434] relu5_3 <- conv5_3
I0911 23:21:06.568507 24730 net.cpp:395] relu5_3 -> conv5_3 (in-place)
I0911 23:21:06.568720 24730 net.cpp:150] Setting up relu5_3
I0911 23:21:06.568729 24730 net.cpp:157] Top shape: 4 512 23 30 (1413120)
I0911 23:21:06.568734 24730 net.cpp:165] Memory required for data: 3184005120
I0911 23:21:06.568738 24730 layer_factory.hpp:77] Creating layer pool5
I0911 23:21:06.568743 24730 layer_factory.cpp:91] cuDNN does not support multiple tops. Using Caffe's own pooling layer.
I0911 23:21:06.568754 24730 net.cpp:100] Creating Layer pool5
I0911 23:21:06.568759 24730 net.cpp:434] pool5 <- conv5_3
I0911 23:21:06.568769 24730 net.cpp:408] pool5 -> pool5
I0911 23:21:06.568778 24730 net.cpp:408] pool5 -> pool5_mask
I0911 23:21:06.568827 24730 net.cpp:150] Setting up pool5
I0911 23:21:06.568835 24730 net.cpp:157] Top shape: 4 512 12 15 (368640)
I0911 23:21:06.568838 24730 net.cpp:157] Top shape: 4 512 12 15 (368640)
I0911 23:21:06.568845 24730 net.cpp:165] Memory required for data: 3186954240
I0911 23:21:06.568848 24730 layer_factory.hpp:77] Creating layer upsample5
I0911 23:21:06.568861 24730 net.cpp:100] Creating Layer upsample5
I0911 23:21:06.568866 24730 net.cpp:434] upsample5 <- pool5
I0911 23:21:06.568886 24730 net.cpp:434] upsample5 <- pool5_mask
I0911 23:21:06.568894 24730 net.cpp:408] upsample5 -> pool5_D
I0911 23:21:06.568933 24730 net.cpp:150] Setting up upsample5
I0911 23:21:06.568940 24730 net.cpp:157] Top shape: 4 512 23 30 (1413120)
I0911 23:21:06.568943 24730 net.cpp:165] Memory required for data: 3192606720
I0911 23:21:06.568946 24730 layer_factory.hpp:77] Creating layer conv5_3_D
I0911 23:21:06.568960 24730 net.cpp:100] Creating Layer conv5_3_D
I0911 23:21:06.568964 24730 net.cpp:434] conv5_3_D <- pool5_D
I0911 23:21:06.568974 24730 net.cpp:408] conv5_3_D -> conv5_3_D
I0911 23:21:06.658336 24730 net.cpp:150] Setting up conv5_3_D
I0911 23:21:06.658354 24730 net.cpp:157] Top shape: 4 512 23 30 (1413120)
I0911 23:21:06.658357 24730 net.cpp:165] Memory required for data: 3198259200
I0911 23:21:06.658365 24730 layer_factory.hpp:77] Creating layer conv5_3_D_bn_tmp
I0911 23:21:06.658377 24730 net.cpp:100] Creating Layer conv5_3_D_bn_tmp
I0911 23:21:06.658386 24730 net.cpp:434] conv5_3_D_bn_tmp <- conv5_3_D
I0911 23:21:06.658392 24730 net.cpp:395] conv5_3_D_bn_tmp -> conv5_3_D (in-place)
I0911 23:21:06.658628 24730 net.cpp:150] Setting up conv5_3_D_bn_tmp
I0911 23:21:06.658638 24730 net.cpp:157] Top shape: 4 512 23 30 (1413120)
I0911 23:21:06.658640 24730 net.cpp:165] Memory required for data: 3203911680
I0911 23:21:06.658648 24730 layer_factory.hpp:77] Creating layer conv5_3_D_scale
I0911 23:21:06.658660 24730 net.cpp:100] Creating Layer conv5_3_D_scale
I0911 23:21:06.658669 24730 net.cpp:434] conv5_3_D_scale <- conv5_3_D
I0911 23:21:06.658674 24730 net.cpp:395] conv5_3_D_scale -> conv5_3_D (in-place)
I0911 23:21:06.658732 24730 layer_factory.hpp:77] Creating layer conv5_3_D_scale
I0911 23:21:06.658857 24730 net.cpp:150] Setting up conv5_3_D_scale
I0911 23:21:06.658865 24730 net.cpp:157] Top shape: 4 512 23 30 (1413120)
I0911 23:21:06.658869 24730 net.cpp:165] Memory required for data: 3209564160
I0911 23:21:06.658874 24730 layer_factory.hpp:77] Creating layer relu5_3_D
I0911 23:21:06.658885 24730 net.cpp:100] Creating Layer relu5_3_D
I0911 23:21:06.658890 24730 net.cpp:434] relu5_3_D <- conv5_3_D
I0911 23:21:06.658893 24730 net.cpp:395] relu5_3_D -> conv5_3_D (in-place)
I0911 23:21:06.659114 24730 net.cpp:150] Setting up relu5_3_D
I0911 23:21:06.659124 24730 net.cpp:157] Top shape: 4 512 23 30 (1413120)
I0911 23:21:06.659129 24730 net.cpp:165] Memory required for data: 3215216640
I0911 23:21:06.659133 24730 layer_factory.hpp:77] Creating layer conv5_2_D
I0911 23:21:06.659170 24730 net.cpp:100] Creating Layer conv5_2_D
I0911 23:21:06.659176 24730 net.cpp:434] conv5_2_D <- conv5_3_D
I0911 23:21:06.659183 24730 net.cpp:408] conv5_2_D -> conv5_2_D
I0911 23:21:06.747772 24730 net.cpp:150] Setting up conv5_2_D
I0911 23:21:06.747789 24730 net.cpp:157] Top shape: 4 512 23 30 (1413120)
I0911 23:21:06.747793 24730 net.cpp:165] Memory required for data: 3220869120
I0911 23:21:06.747802 24730 layer_factory.hpp:77] Creating layer conv5_2_D_bn_tmp
I0911 23:21:06.747812 24730 net.cpp:100] Creating Layer conv5_2_D_bn_tmp
I0911 23:21:06.747822 24730 net.cpp:434] conv5_2_D_bn_tmp <- conv5_2_D
I0911 23:21:06.747830 24730 net.cpp:395] conv5_2_D_bn_tmp -> conv5_2_D (in-place)
I0911 23:21:06.748059 24730 net.cpp:150] Setting up conv5_2_D_bn_tmp
I0911 23:21:06.748066 24730 net.cpp:157] Top shape: 4 512 23 30 (1413120)
I0911 23:21:06.748070 24730 net.cpp:165] Memory required for data: 3226521600
I0911 23:21:06.748078 24730 layer_factory.hpp:77] Creating layer conv5_2_D_scale
I0911 23:21:06.748085 24730 net.cpp:100] Creating Layer conv5_2_D_scale
I0911 23:21:06.748091 24730 net.cpp:434] conv5_2_D_scale <- conv5_2_D
I0911 23:21:06.748100 24730 net.cpp:395] conv5_2_D_scale -> conv5_2_D (in-place)
I0911 23:21:06.748150 24730 layer_factory.hpp:77] Creating layer conv5_2_D_scale
I0911 23:21:06.748281 24730 net.cpp:150] Setting up conv5_2_D_scale
I0911 23:21:06.748288 24730 net.cpp:157] Top shape: 4 512 23 30 (1413120)
I0911 23:21:06.748291 24730 net.cpp:165] Memory required for data: 3232174080
I0911 23:21:06.748317 24730 layer_factory.hpp:77] Creating layer relu5_2_D
I0911 23:21:06.748324 24730 net.cpp:100] Creating Layer relu5_2_D
I0911 23:21:06.748328 24730 net.cpp:434] relu5_2_D <- conv5_2_D
I0911 23:21:06.748333 24730 net.cpp:395] relu5_2_D -> conv5_2_D (in-place)
I0911 23:21:06.749426 24730 net.cpp:150] Setting up relu5_2_D
I0911 23:21:06.749441 24730 net.cpp:157] Top shape: 4 512 23 30 (1413120)
I0911 23:21:06.749446 24730 net.cpp:165] Memory required for data: 3237826560
I0911 23:21:06.749451 24730 layer_factory.hpp:77] Creating layer conv5_1_D
I0911 23:21:06.749464 24730 net.cpp:100] Creating Layer conv5_1_D
I0911 23:21:06.749470 24730 net.cpp:434] conv5_1_D <- conv5_2_D
I0911 23:21:06.749480 24730 net.cpp:408] conv5_1_D -> conv5_1_D
I0911 23:21:06.837985 24730 net.cpp:150] Setting up conv5_1_D
I0911 23:21:06.838002 24730 net.cpp:157] Top shape: 4 512 23 30 (1413120)
I0911 23:21:06.838006 24730 net.cpp:165] Memory required for data: 3243479040
I0911 23:21:06.838014 24730 layer_factory.hpp:77] Creating layer conv5_1_D_bn_tmp
I0911 23:21:06.838024 24730 net.cpp:100] Creating Layer conv5_1_D_bn_tmp
I0911 23:21:06.838035 24730 net.cpp:434] conv5_1_D_bn_tmp <- conv5_1_D
I0911 23:21:06.838042 24730 net.cpp:395] conv5_1_D_bn_tmp -> conv5_1_D (in-place)
I0911 23:21:06.838279 24730 net.cpp:150] Setting up conv5_1_D_bn_tmp
I0911 23:21:06.838287 24730 net.cpp:157] Top shape: 4 512 23 30 (1413120)
I0911 23:21:06.838291 24730 net.cpp:165] Memory required for data: 3249131520
I0911 23:21:06.838299 24730 layer_factory.hpp:77] Creating layer conv5_1_D_scale
I0911 23:21:06.838309 24730 net.cpp:100] Creating Layer conv5_1_D_scale
I0911 23:21:06.838313 24730 net.cpp:434] conv5_1_D_scale <- conv5_1_D
I0911 23:21:06.838320 24730 net.cpp:395] conv5_1_D_scale -> conv5_1_D (in-place)
I0911 23:21:06.838369 24730 layer_factory.hpp:77] Creating layer conv5_1_D_scale
I0911 23:21:06.838498 24730 net.cpp:150] Setting up conv5_1_D_scale
I0911 23:21:06.838506 24730 net.cpp:157] Top shape: 4 512 23 30 (1413120)
I0911 23:21:06.838510 24730 net.cpp:165] Memory required for data: 3254784000
I0911 23:21:06.838518 24730 layer_factory.hpp:77] Creating layer relu5_1_D
I0911 23:21:06.838528 24730 net.cpp:100] Creating Layer relu5_1_D
I0911 23:21:06.838533 24730 net.cpp:434] relu5_1_D <- conv5_1_D
I0911 23:21:06.838537 24730 net.cpp:395] relu5_1_D -> conv5_1_D (in-place)
I0911 23:21:06.838757 24730 net.cpp:150] Setting up relu5_1_D
I0911 23:21:06.838770 24730 net.cpp:157] Top shape: 4 512 23 30 (1413120)
I0911 23:21:06.838775 24730 net.cpp:165] Memory required for data: 3260436480
I0911 23:21:06.838778 24730 layer_factory.hpp:77] Creating layer upsample4
I0911 23:21:06.838786 24730 net.cpp:100] Creating Layer upsample4
I0911 23:21:06.838791 24730 net.cpp:434] upsample4 <- conv5_1_D
I0911 23:21:06.838798 24730 net.cpp:434] upsample4 <- pool4_mask
I0911 23:21:06.838804 24730 net.cpp:408] upsample4 -> pool4_D
I0911 23:21:06.838840 24730 net.cpp:150] Setting up upsample4
I0911 23:21:06.838847 24730 net.cpp:157] Top shape: 4 512 45 60 (5529600)
I0911 23:21:06.838850 24730 net.cpp:165] Memory required for data: 3282554880
I0911 23:21:06.838855 24730 layer_factory.hpp:77] Creating layer conv4_3_D
I0911 23:21:06.838868 24730 net.cpp:100] Creating Layer conv4_3_D
I0911 23:21:06.838873 24730 net.cpp:434] conv4_3_D <- pool4_D
I0911 23:21:06.838881 24730 net.cpp:408] conv4_3_D -> conv4_3_D
I0911 23:21:06.928225 24730 net.cpp:150] Setting up conv4_3_D
I0911 23:21:06.928247 24730 net.cpp:157] Top shape: 4 512 45 60 (5529600)
I0911 23:21:06.928259 24730 net.cpp:165] Memory required for data: 3304673280
I0911 23:21:06.928273 24730 layer_factory.hpp:77] Creating layer conv4_3_D_bn_tmp
I0911 23:21:06.928287 24730 net.cpp:100] Creating Layer conv4_3_D_bn_tmp
I0911 23:21:06.928295 24730 net.cpp:434] conv4_3_D_bn_tmp <- conv4_3_D
I0911 23:21:06.928308 24730 net.cpp:395] conv4_3_D_bn_tmp -> conv4_3_D (in-place)
I0911 23:21:06.928550 24730 net.cpp:150] Setting up conv4_3_D_bn_tmp
I0911 23:21:06.928557 24730 net.cpp:157] Top shape: 4 512 45 60 (5529600)
I0911 23:21:06.928580 24730 net.cpp:165] Memory required for data: 3326791680
I0911 23:21:06.928591 24730 layer_factory.hpp:77] Creating layer conv4_3_D_scale
I0911 23:21:06.928601 24730 net.cpp:100] Creating Layer conv4_3_D_scale
I0911 23:21:06.928606 24730 net.cpp:434] conv4_3_D_scale <- conv4_3_D
I0911 23:21:06.928611 24730 net.cpp:395] conv4_3_D_scale -> conv4_3_D (in-place)
I0911 23:21:06.928663 24730 layer_factory.hpp:77] Creating layer conv4_3_D_scale
I0911 23:21:06.928810 24730 net.cpp:150] Setting up conv4_3_D_scale
I0911 23:21:06.928819 24730 net.cpp:157] Top shape: 4 512 45 60 (5529600)
I0911 23:21:06.928822 24730 net.cpp:165] Memory required for data: 3348910080
I0911 23:21:06.928828 24730 layer_factory.hpp:77] Creating layer relu4_3_D
I0911 23:21:06.928836 24730 net.cpp:100] Creating Layer relu4_3_D
I0911 23:21:06.928841 24730 net.cpp:434] relu4_3_D <- conv4_3_D
I0911 23:21:06.928850 24730 net.cpp:395] relu4_3_D -> conv4_3_D (in-place)
I0911 23:21:06.929055 24730 net.cpp:150] Setting up relu4_3_D
I0911 23:21:06.929064 24730 net.cpp:157] Top shape: 4 512 45 60 (5529600)
I0911 23:21:06.929069 24730 net.cpp:165] Memory required for data: 3371028480
I0911 23:21:06.929074 24730 layer_factory.hpp:77] Creating layer conv4_2_D
I0911 23:21:06.929086 24730 net.cpp:100] Creating Layer conv4_2_D
I0911 23:21:06.929092 24730 net.cpp:434] conv4_2_D <- conv4_3_D
I0911 23:21:06.929102 24730 net.cpp:408] conv4_2_D -> conv4_2_D
I0911 23:21:07.017657 24730 net.cpp:150] Setting up conv4_2_D
I0911 23:21:07.017673 24730 net.cpp:157] Top shape: 4 512 45 60 (5529600)
I0911 23:21:07.017678 24730 net.cpp:165] Memory required for data: 3393146880
I0911 23:21:07.017685 24730 layer_factory.hpp:77] Creating layer conv4_2_D_bn_tmp
I0911 23:21:07.017695 24730 net.cpp:100] Creating Layer conv4_2_D_bn_tmp
I0911 23:21:07.017700 24730 net.cpp:434] conv4_2_D_bn_tmp <- conv4_2_D
I0911 23:21:07.017706 24730 net.cpp:395] conv4_2_D_bn_tmp -> conv4_2_D (in-place)
I0911 23:21:07.017956 24730 net.cpp:150] Setting up conv4_2_D_bn_tmp
I0911 23:21:07.017963 24730 net.cpp:157] Top shape: 4 512 45 60 (5529600)
I0911 23:21:07.017967 24730 net.cpp:165] Memory required for data: 3415265280
I0911 23:21:07.017976 24730 layer_factory.hpp:77] Creating layer conv4_2_D_scale
I0911 23:21:07.017982 24730 net.cpp:100] Creating Layer conv4_2_D_scale
I0911 23:21:07.017989 24730 net.cpp:434] conv4_2_D_scale <- conv4_2_D
I0911 23:21:07.017994 24730 net.cpp:395] conv4_2_D_scale -> conv4_2_D (in-place)
I0911 23:21:07.018043 24730 layer_factory.hpp:77] Creating layer conv4_2_D_scale
I0911 23:21:07.018191 24730 net.cpp:150] Setting up conv4_2_D_scale
I0911 23:21:07.018199 24730 net.cpp:157] Top shape: 4 512 45 60 (5529600)
I0911 23:21:07.018203 24730 net.cpp:165] Memory required for data: 3437383680
I0911 23:21:07.018208 24730 layer_factory.hpp:77] Creating layer relu4_2_D
I0911 23:21:07.018223 24730 net.cpp:100] Creating Layer relu4_2_D
I0911 23:21:07.018227 24730 net.cpp:434] relu4_2_D <- conv4_2_D
I0911 23:21:07.018232 24730 net.cpp:395] relu4_2_D -> conv4_2_D (in-place)
I0911 23:21:07.018440 24730 net.cpp:150] Setting up relu4_2_D
I0911 23:21:07.018451 24730 net.cpp:157] Top shape: 4 512 45 60 (5529600)
I0911 23:21:07.018455 24730 net.cpp:165] Memory required for data: 3459502080
I0911 23:21:07.018460 24730 layer_factory.hpp:77] Creating layer conv4_1_D
I0911 23:21:07.018471 24730 net.cpp:100] Creating Layer conv4_1_D
I0911 23:21:07.018477 24730 net.cpp:434] conv4_1_D <- conv4_2_D
I0911 23:21:07.018483 24730 net.cpp:408] conv4_1_D -> conv4_1_D
I0911 23:21:07.064703 24730 net.cpp:150] Setting up conv4_1_D
I0911 23:21:07.064720 24730 net.cpp:157] Top shape: 4 256 45 60 (2764800)
I0911 23:21:07.064724 24730 net.cpp:165] Memory required for data: 3470561280
I0911 23:21:07.064733 24730 layer_factory.hpp:77] Creating layer conv4_1_D_bn_tmp
I0911 23:21:07.064743 24730 net.cpp:100] Creating Layer conv4_1_D_bn_tmp
I0911 23:21:07.064752 24730 net.cpp:434] conv4_1_D_bn_tmp <- conv4_1_D
I0911 23:21:07.064759 24730 net.cpp:395] conv4_1_D_bn_tmp -> conv4_1_D (in-place)
I0911 23:21:07.065007 24730 net.cpp:150] Setting up conv4_1_D_bn_tmp
I0911 23:21:07.065032 24730 net.cpp:157] Top shape: 4 256 45 60 (2764800)
I0911 23:21:07.065042 24730 net.cpp:165] Memory required for data: 3481620480
I0911 23:21:07.065140 24730 layer_factory.hpp:77] Creating layer conv4_1_D_scale
I0911 23:21:07.065151 24730 net.cpp:100] Creating Layer conv4_1_D_scale
I0911 23:21:07.065157 24730 net.cpp:434] conv4_1_D_scale <- conv4_1_D
I0911 23:21:07.065162 24730 net.cpp:395] conv4_1_D_scale -> conv4_1_D (in-place)
I0911 23:21:07.065215 24730 layer_factory.hpp:77] Creating layer conv4_1_D_scale
I0911 23:21:07.065357 24730 net.cpp:150] Setting up conv4_1_D_scale
I0911 23:21:07.065371 24730 net.cpp:157] Top shape: 4 256 45 60 (2764800)
I0911 23:21:07.065376 24730 net.cpp:165] Memory required for data: 3492679680
I0911 23:21:07.065382 24730 layer_factory.hpp:77] Creating layer relu4_1_D
I0911 23:21:07.065390 24730 net.cpp:100] Creating Layer relu4_1_D
I0911 23:21:07.065395 24730 net.cpp:434] relu4_1_D <- conv4_1_D
I0911 23:21:07.065405 24730 net.cpp:395] relu4_1_D -> conv4_1_D (in-place)
I0911 23:21:07.065629 24730 net.cpp:150] Setting up relu4_1_D
I0911 23:21:07.065639 24730 net.cpp:157] Top shape: 4 256 45 60 (2764800)
I0911 23:21:07.065644 24730 net.cpp:165] Memory required for data: 3503738880
I0911 23:21:07.065649 24730 layer_factory.hpp:77] Creating layer upsample3
I0911 23:21:07.065655 24730 net.cpp:100] Creating Layer upsample3
I0911 23:21:07.065660 24730 net.cpp:434] upsample3 <- conv4_1_D
I0911 23:21:07.065667 24730 net.cpp:434] upsample3 <- pool3_mask
I0911 23:21:07.065677 24730 net.cpp:408] upsample3 -> pool3_D
I0911 23:21:07.065686 24730 upsample_layer.cpp:27] Params 'pad_out_{}_' are deprecated. Please declare upsample height and width useing the upsample_h, upsample_w parameters.
I0911 23:21:07.065719 24730 net.cpp:150] Setting up upsample3
I0911 23:21:07.065726 24730 net.cpp:157] Top shape: 4 256 90 120 (11059200)
I0911 23:21:07.065729 24730 net.cpp:165] Memory required for data: 3547975680
I0911 23:21:07.065733 24730 layer_factory.hpp:77] Creating layer conv3_3_D
I0911 23:21:07.065747 24730 net.cpp:100] Creating Layer conv3_3_D
I0911 23:21:07.065752 24730 net.cpp:434] conv3_3_D <- pool3_D
I0911 23:21:07.065764 24730 net.cpp:408] conv3_3_D -> conv3_3_D
I0911 23:21:07.090477 24730 net.cpp:150] Setting up conv3_3_D
I0911 23:21:07.090494 24730 net.cpp:157] Top shape: 4 256 90 120 (11059200)
I0911 23:21:07.090505 24730 net.cpp:165] Memory required for data: 3592212480
I0911 23:21:07.090513 24730 layer_factory.hpp:77] Creating layer conv3_3_D_bn_tmp
I0911 23:21:07.090520 24730 net.cpp:100] Creating Layer conv3_3_D_bn_tmp
I0911 23:21:07.090525 24730 net.cpp:434] conv3_3_D_bn_tmp <- conv3_3_D
I0911 23:21:07.090530 24730 net.cpp:395] conv3_3_D_bn_tmp -> conv3_3_D (in-place)
I0911 23:21:07.090786 24730 net.cpp:150] Setting up conv3_3_D_bn_tmp
I0911 23:21:07.090795 24730 net.cpp:157] Top shape: 4 256 90 120 (11059200)
I0911 23:21:07.090800 24730 net.cpp:165] Memory required for data: 3636449280
I0911 23:21:07.090808 24730 layer_factory.hpp:77] Creating layer conv3_3_D_scale
I0911 23:21:07.090816 24730 net.cpp:100] Creating Layer conv3_3_D_scale
I0911 23:21:07.090826 24730 net.cpp:434] conv3_3_D_scale <- conv3_3_D
I0911 23:21:07.090831 24730 net.cpp:395] conv3_3_D_scale -> conv3_3_D (in-place)
I0911 23:21:07.090886 24730 layer_factory.hpp:77] Creating layer conv3_3_D_scale
I0911 23:21:07.091056 24730 net.cpp:150] Setting up conv3_3_D_scale
I0911 23:21:07.091064 24730 net.cpp:157] Top shape: 4 256 90 120 (11059200)
I0911 23:21:07.091068 24730 net.cpp:165] Memory required for data: 3680686080
I0911 23:21:07.091074 24730 layer_factory.hpp:77] Creating layer relu3_3_D
I0911 23:21:07.091081 24730 net.cpp:100] Creating Layer relu3_3_D
I0911 23:21:07.091086 24730 net.cpp:434] relu3_3_D <- conv3_3_D
I0911 23:21:07.091094 24730 net.cpp:395] relu3_3_D -> conv3_3_D (in-place)
I0911 23:21:07.091312 24730 net.cpp:150] Setting up relu3_3_D
I0911 23:21:07.091321 24730 net.cpp:157] Top shape: 4 256 90 120 (11059200)
I0911 23:21:07.091326 24730 net.cpp:165] Memory required for data: 3724922880
I0911 23:21:07.091346 24730 layer_factory.hpp:77] Creating layer conv3_2_D
I0911 23:21:07.091361 24730 net.cpp:100] Creating Layer conv3_2_D
I0911 23:21:07.091367 24730 net.cpp:434] conv3_2_D <- conv3_3_D
I0911 23:21:07.091377 24730 net.cpp:408] conv3_2_D -> conv3_2_D
I0911 23:21:07.116037 24730 net.cpp:150] Setting up conv3_2_D
I0911 23:21:07.116055 24730 net.cpp:157] Top shape: 4 256 90 120 (11059200)
I0911 23:21:07.116066 24730 net.cpp:165] Memory required for data: 3769159680
I0911 23:21:07.116075 24730 layer_factory.hpp:77] Creating layer conv3_2_D_bn_tmp
I0911 23:21:07.116087 24730 net.cpp:100] Creating Layer conv3_2_D_bn_tmp
I0911 23:21:07.116094 24730 net.cpp:434] conv3_2_D_bn_tmp <- conv3_2_D
I0911 23:21:07.116101 24730 net.cpp:395] conv3_2_D_bn_tmp -> conv3_2_D (in-place)
I0911 23:21:07.116355 24730 net.cpp:150] Setting up conv3_2_D_bn_tmp
I0911 23:21:07.116364 24730 net.cpp:157] Top shape: 4 256 90 120 (11059200)
I0911 23:21:07.116367 24730 net.cpp:165] Memory required for data: 3813396480
I0911 23:21:07.116376 24730 layer_factory.hpp:77] Creating layer conv3_2_D_scale
I0911 23:21:07.116386 24730 net.cpp:100] Creating Layer conv3_2_D_scale
I0911 23:21:07.116394 24730 net.cpp:434] conv3_2_D_scale <- conv3_2_D
I0911 23:21:07.116397 24730 net.cpp:395] conv3_2_D_scale -> conv3_2_D (in-place)
I0911 23:21:07.116446 24730 layer_factory.hpp:77] Creating layer conv3_2_D_scale
I0911 23:21:07.116611 24730 net.cpp:150] Setting up conv3_2_D_scale
I0911 23:21:07.116618 24730 net.cpp:157] Top shape: 4 256 90 120 (11059200)
I0911 23:21:07.116621 24730 net.cpp:165] Memory required for data: 3857633280
I0911 23:21:07.116628 24730 layer_factory.hpp:77] Creating layer relu3_2_D
I0911 23:21:07.116638 24730 net.cpp:100] Creating Layer relu3_2_D
I0911 23:21:07.116643 24730 net.cpp:434] relu3_2_D <- conv3_2_D
I0911 23:21:07.116648 24730 net.cpp:395] relu3_2_D -> conv3_2_D (in-place)
I0911 23:21:07.117748 24730 net.cpp:150] Setting up relu3_2_D
I0911 23:21:07.117763 24730 net.cpp:157] Top shape: 4 256 90 120 (11059200)
I0911 23:21:07.117769 24730 net.cpp:165] Memory required for data: 3901870080
I0911 23:21:07.117772 24730 layer_factory.hpp:77] Creating layer conv3_1_D
I0911 23:21:07.117787 24730 net.cpp:100] Creating Layer conv3_1_D
I0911 23:21:07.117794 24730 net.cpp:434] conv3_1_D <- conv3_2_D
I0911 23:21:07.117805 24730 net.cpp:408] conv3_1_D -> conv3_1_D
I0911 23:21:07.132304 24730 net.cpp:150] Setting up conv3_1_D
I0911 23:21:07.132323 24730 net.cpp:157] Top shape: 4 128 90 120 (5529600)
I0911 23:21:07.132330 24730 net.cpp:165] Memory required for data: 3923988480
I0911 23:21:07.132339 24730 layer_factory.hpp:77] Creating layer conv3_1_D_bn_tmp
I0911 23:21:07.132349 24730 net.cpp:100] Creating Layer conv3_1_D_bn_tmp
I0911 23:21:07.132357 24730 net.cpp:434] conv3_1_D_bn_tmp <- conv3_1_D
I0911 23:21:07.132366 24730 net.cpp:395] conv3_1_D_bn_tmp -> conv3_1_D (in-place)
I0911 23:21:07.132628 24730 net.cpp:150] Setting up conv3_1_D_bn_tmp
I0911 23:21:07.132637 24730 net.cpp:157] Top shape: 4 128 90 120 (5529600)
I0911 23:21:07.132640 24730 net.cpp:165] Memory required for data: 3946106880
I0911 23:21:07.132649 24730 layer_factory.hpp:77] Creating layer conv3_1_D_scale
I0911 23:21:07.132661 24730 net.cpp:100] Creating Layer conv3_1_D_scale
I0911 23:21:07.132666 24730 net.cpp:434] conv3_1_D_scale <- conv3_1_D
I0911 23:21:07.132671 24730 net.cpp:395] conv3_1_D_scale -> conv3_1_D (in-place)
I0911 23:21:07.132721 24730 layer_factory.hpp:77] Creating layer conv3_1_D_scale
I0911 23:21:07.132889 24730 net.cpp:150] Setting up conv3_1_D_scale
I0911 23:21:07.132897 24730 net.cpp:157] Top shape: 4 128 90 120 (5529600)
I0911 23:21:07.132900 24730 net.cpp:165] Memory required for data: 3968225280
I0911 23:21:07.132906 24730 layer_factory.hpp:77] Creating layer relu3_1_D
I0911 23:21:07.132913 24730 net.cpp:100] Creating Layer relu3_1_D
I0911 23:21:07.132918 24730 net.cpp:434] relu3_1_D <- conv3_1_D
I0911 23:21:07.132931 24730 net.cpp:395] relu3_1_D -> conv3_1_D (in-place)
I0911 23:21:07.133150 24730 net.cpp:150] Setting up relu3_1_D
I0911 23:21:07.133174 24730 net.cpp:157] Top shape: 4 128 90 120 (5529600)
I0911 23:21:07.133180 24730 net.cpp:165] Memory required for data: 3990343680
I0911 23:21:07.133183 24730 layer_factory.hpp:77] Creating layer upsample2
I0911 23:21:07.133190 24730 net.cpp:100] Creating Layer upsample2
I0911 23:21:07.133195 24730 net.cpp:434] upsample2 <- conv3_1_D
I0911 23:21:07.133200 24730 net.cpp:434] upsample2 <- pool2_mask
I0911 23:21:07.133210 24730 net.cpp:408] upsample2 -> pool2_D
I0911 23:21:07.133219 24730 upsample_layer.cpp:27] Params 'pad_out_{}_' are deprecated. Please declare upsample height and width useing the upsample_h, upsample_w parameters.
I0911 23:21:07.133251 24730 net.cpp:150] Setting up upsample2
I0911 23:21:07.133258 24730 net.cpp:157] Top shape: 4 128 180 240 (22118400)
I0911 23:21:07.133261 24730 net.cpp:165] Memory required for data: 4078817280
I0911 23:21:07.133265 24730 layer_factory.hpp:77] Creating layer conv2_2_D
I0911 23:21:07.133280 24730 net.cpp:100] Creating Layer conv2_2_D
I0911 23:21:07.133285 24730 net.cpp:434] conv2_2_D <- pool2_D
I0911 23:21:07.133291 24730 net.cpp:408] conv2_2_D -> conv2_2_D
I0911 23:21:07.141175 24730 net.cpp:150] Setting up conv2_2_D
I0911 23:21:07.141191 24730 net.cpp:157] Top shape: 4 128 180 240 (22118400)
I0911 23:21:07.141201 24730 net.cpp:165] Memory required for data: 4167290880
I0911 23:21:07.141213 24730 layer_factory.hpp:77] Creating layer conv2_2_D_bn_tmp
I0911 23:21:07.141225 24730 net.cpp:100] Creating Layer conv2_2_D_bn_tmp
I0911 23:21:07.141233 24730 net.cpp:434] conv2_2_D_bn_tmp <- conv2_2_D
I0911 23:21:07.141239 24730 net.cpp:395] conv2_2_D_bn_tmp -> conv2_2_D (in-place)
I0911 23:21:07.141556 24730 net.cpp:150] Setting up conv2_2_D_bn_tmp
I0911 23:21:07.141569 24730 net.cpp:157] Top shape: 4 128 180 240 (22118400)
I0911 23:21:07.141582 24730 net.cpp:165] Memory required for data: 4255764480
I0911 23:21:07.141589 24730 layer_factory.hpp:77] Creating layer conv2_2_D_scale
I0911 23:21:07.141597 24730 net.cpp:100] Creating Layer conv2_2_D_scale
I0911 23:21:07.141602 24730 net.cpp:434] conv2_2_D_scale <- conv2_2_D
I0911 23:21:07.141607 24730 net.cpp:395] conv2_2_D_scale -> conv2_2_D (in-place)
I0911 23:21:07.141661 24730 layer_factory.hpp:77] Creating layer conv2_2_D_scale
I0911 23:21:07.143576 24730 net.cpp:150] Setting up conv2_2_D_scale
I0911 23:21:07.143594 24730 net.cpp:157] Top shape: 4 128 180 240 (22118400)
I0911 23:21:07.143599 24730 net.cpp:165] Memory required for data: 4344238080
I0911 23:21:07.143607 24730 layer_factory.hpp:77] Creating layer relu2_2_D
I0911 23:21:07.143615 24730 net.cpp:100] Creating Layer relu2_2_D
I0911 23:21:07.143620 24730 net.cpp:434] relu2_2_D <- conv2_2_D
I0911 23:21:07.143625 24730 net.cpp:395] relu2_2_D -> conv2_2_D (in-place)
I0911 23:21:07.143862 24730 net.cpp:150] Setting up relu2_2_D
I0911 23:21:07.143870 24730 net.cpp:157] Top shape: 4 128 180 240 (22118400)
I0911 23:21:07.143875 24730 net.cpp:165] Memory required for data: 4432711680
I0911 23:21:07.143879 24730 layer_factory.hpp:77] Creating layer conv2_1_D
I0911 23:21:07.143895 24730 net.cpp:100] Creating Layer conv2_1_D
I0911 23:21:07.143900 24730 net.cpp:434] conv2_1_D <- conv2_2_D
I0911 23:21:07.143911 24730 net.cpp:408] conv2_1_D -> conv2_1_D
I0911 23:21:07.149252 24730 net.cpp:150] Setting up conv2_1_D
I0911 23:21:07.149268 24730 net.cpp:157] Top shape: 4 64 180 240 (11059200)
I0911 23:21:07.149277 24730 net.cpp:165] Memory required for data: 4476948480
I0911 23:21:07.149287 24730 layer_factory.hpp:77] Creating layer conv2_1_D_bn_tmp
I0911 23:21:07.149298 24730 net.cpp:100] Creating Layer conv2_1_D_bn_tmp
I0911 23:21:07.149304 24730 net.cpp:434] conv2_1_D_bn_tmp <- conv2_1_D
I0911 23:21:07.149310 24730 net.cpp:395] conv2_1_D_bn_tmp -> conv2_1_D (in-place)
I0911 23:21:07.149617 24730 net.cpp:150] Setting up conv2_1_D_bn_tmp
I0911 23:21:07.149627 24730 net.cpp:157] Top shape: 4 64 180 240 (11059200)
I0911 23:21:07.149631 24730 net.cpp:165] Memory required for data: 4521185280
I0911 23:21:07.149639 24730 layer_factory.hpp:77] Creating layer conv2_1_D_scale
I0911 23:21:07.149662 24730 net.cpp:100] Creating Layer conv2_1_D_scale
I0911 23:21:07.149667 24730 net.cpp:434] conv2_1_D_scale <- conv2_1_D
I0911 23:21:07.149672 24730 net.cpp:395] conv2_1_D_scale -> conv2_1_D (in-place)
I0911 23:21:07.149729 24730 layer_factory.hpp:77] Creating layer conv2_1_D_scale
I0911 23:21:07.149948 24730 net.cpp:150] Setting up conv2_1_D_scale
I0911 23:21:07.149960 24730 net.cpp:157] Top shape: 4 64 180 240 (11059200)
I0911 23:21:07.149965 24730 net.cpp:165] Memory required for data: 4565422080
I0911 23:21:07.149971 24730 layer_factory.hpp:77] Creating layer relu2_1_D
I0911 23:21:07.149979 24730 net.cpp:100] Creating Layer relu2_1_D
I0911 23:21:07.149984 24730 net.cpp:434] relu2_1_D <- conv2_1_D
I0911 23:21:07.149988 24730 net.cpp:395] relu2_1_D -> conv2_1_D (in-place)
I0911 23:21:07.150216 24730 net.cpp:150] Setting up relu2_1_D
I0911 23:21:07.150226 24730 net.cpp:157] Top shape: 4 64 180 240 (11059200)
I0911 23:21:07.150231 24730 net.cpp:165] Memory required for data: 4609658880
I0911 23:21:07.150234 24730 layer_factory.hpp:77] Creating layer upsample1
I0911 23:21:07.150241 24730 net.cpp:100] Creating Layer upsample1
I0911 23:21:07.150246 24730 net.cpp:434] upsample1 <- conv2_1_D
I0911 23:21:07.150251 24730 net.cpp:434] upsample1 <- pool1_mask
I0911 23:21:07.150259 24730 net.cpp:408] upsample1 -> pool1_D
I0911 23:21:07.150266 24730 upsample_layer.cpp:27] Params 'pad_out_{}_' are deprecated. Please declare upsample height and width useing the upsample_h, upsample_w parameters.
I0911 23:21:07.150301 24730 net.cpp:150] Setting up upsample1
I0911 23:21:07.150308 24730 net.cpp:157] Top shape: 4 64 360 480 (44236800)
I0911 23:21:07.150311 24730 net.cpp:165] Memory required for data: 4786606080
I0911 23:21:07.150315 24730 layer_factory.hpp:77] Creating layer conv1_2_D
I0911 23:21:07.150327 24730 net.cpp:100] Creating Layer conv1_2_D
I0911 23:21:07.150332 24730 net.cpp:434] conv1_2_D <- pool1_D
I0911 23:21:07.150341 24730 net.cpp:408] conv1_2_D -> conv1_2_D
I0911 23:21:07.155313 24730 net.cpp:150] Setting up conv1_2_D
I0911 23:21:07.155328 24730 net.cpp:157] Top shape: 4 64 360 480 (44236800)
I0911 23:21:07.155339 24730 net.cpp:165] Memory required for data: 4963553280
I0911 23:21:07.155345 24730 layer_factory.hpp:77] Creating layer conv1_2_D_bn_tmp
I0911 23:21:07.155359 24730 net.cpp:100] Creating Layer conv1_2_D_bn_tmp
I0911 23:21:07.155365 24730 net.cpp:434] conv1_2_D_bn_tmp <- conv1_2_D
I0911 23:21:07.155375 24730 net.cpp:395] conv1_2_D_bn_tmp -> conv1_2_D (in-place)
I0911 23:21:07.155764 24730 net.cpp:150] Setting up conv1_2_D_bn_tmp
I0911 23:21:07.155773 24730 net.cpp:157] Top shape: 4 64 360 480 (44236800)
I0911 23:21:07.155777 24730 net.cpp:165] Memory required for data: 5140500480
I0911 23:21:07.155786 24730 layer_factory.hpp:77] Creating layer conv1_2_D_scale
I0911 23:21:07.155796 24730 net.cpp:100] Creating Layer conv1_2_D_scale
I0911 23:21:07.155802 24730 net.cpp:434] conv1_2_D_scale <- conv1_2_D
I0911 23:21:07.155805 24730 net.cpp:395] conv1_2_D_scale -> conv1_2_D (in-place)
I0911 23:21:07.155858 24730 layer_factory.hpp:77] Creating layer conv1_2_D_scale
I0911 23:21:07.157955 24730 net.cpp:150] Setting up conv1_2_D_scale
I0911 23:21:07.157970 24730 net.cpp:157] Top shape: 4 64 360 480 (44236800)
I0911 23:21:07.157975 24730 net.cpp:165] Memory required for data: 5317447680
I0911 23:21:07.157986 24730 layer_factory.hpp:77] Creating layer relu1_2_D
I0911 23:21:07.157994 24730 net.cpp:100] Creating Layer relu1_2_D
I0911 23:21:07.158000 24730 net.cpp:434] relu1_2_D <- conv1_2_D
I0911 23:21:07.158005 24730 net.cpp:395] relu1_2_D -> conv1_2_D (in-place)
I0911 23:21:07.158239 24730 net.cpp:150] Setting up relu1_2_D
I0911 23:21:07.158252 24730 net.cpp:157] Top shape: 4 64 360 480 (44236800)
I0911 23:21:07.158257 24730 net.cpp:165] Memory required for data: 5494394880
I0911 23:21:07.158262 24730 layer_factory.hpp:77] Creating layer conv1_1_1_D
I0911 23:21:07.158277 24730 net.cpp:100] Creating Layer conv1_1_1_D
I0911 23:21:07.158282 24730 net.cpp:434] conv1_1_1_D <- conv1_2_D
I0911 23:21:07.158304 24730 net.cpp:408] conv1_1_1_D -> conv1_1_1_D
I0911 23:21:07.160382 24730 net.cpp:150] Setting up conv1_1_1_D
I0911 23:21:07.160398 24730 net.cpp:157] Top shape: 4 2 360 480 (1382400)
I0911 23:21:07.160403 24730 net.cpp:165] Memory required for data: 5499924480
I0911 23:21:07.160410 24730 layer_factory.hpp:77] Creating layer conv1_1_1_D_conv1_1_1_D_0_split
I0911 23:21:07.160418 24730 net.cpp:100] Creating Layer conv1_1_1_D_conv1_1_1_D_0_split
I0911 23:21:07.160424 24730 net.cpp:434] conv1_1_1_D_conv1_1_1_D_0_split <- conv1_1_1_D
I0911 23:21:07.160430 24730 net.cpp:408] conv1_1_1_D_conv1_1_1_D_0_split -> conv1_1_1_D_conv1_1_1_D_0_split_0
I0911 23:21:07.160442 24730 net.cpp:408] conv1_1_1_D_conv1_1_1_D_0_split -> conv1_1_1_D_conv1_1_1_D_0_split_1
I0911 23:21:07.160495 24730 net.cpp:150] Setting up conv1_1_1_D_conv1_1_1_D_0_split
I0911 23:21:07.160502 24730 net.cpp:157] Top shape: 4 2 360 480 (1382400)
I0911 23:21:07.160507 24730 net.cpp:157] Top shape: 4 2 360 480 (1382400)
I0911 23:21:07.160511 24730 net.cpp:165] Memory required for data: 5510983680
I0911 23:21:07.160516 24730 layer_factory.hpp:77] Creating layer loss
I0911 23:21:07.160532 24730 net.cpp:100] Creating Layer loss
I0911 23:21:07.160538 24730 net.cpp:434] loss <- conv1_1_1_D_conv1_1_1_D_0_split_0
I0911 23:21:07.160543 24730 net.cpp:434] loss <- label_data_1_split_0
I0911 23:21:07.160549 24730 net.cpp:408] loss -> loss
I0911 23:21:07.160571 24730 layer_factory.hpp:77] Creating layer loss
I0911 23:21:07.165736 24730 net.cpp:150] Setting up loss
I0911 23:21:07.165751 24730 net.cpp:157] Top shape: (1)
I0911 23:21:07.165755 24730 net.cpp:160]     with loss weight 1
I0911 23:21:07.165793 24730 net.cpp:165] Memory required for data: 5510983684
I0911 23:21:07.165798 24730 layer_factory.hpp:77] Creating layer accuracy
I0911 23:21:07.165807 24730 net.cpp:100] Creating Layer accuracy
I0911 23:21:07.165817 24730 net.cpp:434] accuracy <- conv1_1_1_D_conv1_1_1_D_0_split_1
I0911 23:21:07.165822 24730 net.cpp:434] accuracy <- label_data_1_split_1
I0911 23:21:07.165832 24730 net.cpp:408] accuracy -> accuracy
I0911 23:21:07.165844 24730 net.cpp:408] accuracy -> per_class_accuracy
I0911 23:21:07.165897 24730 net.cpp:150] Setting up accuracy
I0911 23:21:07.165905 24730 net.cpp:157] Top shape: (1)
I0911 23:21:07.165910 24730 net.cpp:157] Top shape: 2 (2)
I0911 23:21:07.165913 24730 net.cpp:165] Memory required for data: 5510983696
I0911 23:21:07.165917 24730 net.cpp:228] accuracy does not need backward computation.
I0911 23:21:07.165921 24730 net.cpp:226] loss needs backward computation.
I0911 23:21:07.165927 24730 net.cpp:226] conv1_1_1_D_conv1_1_1_D_0_split needs backward computation.
I0911 23:21:07.165930 24730 net.cpp:226] conv1_1_1_D needs backward computation.
…
