…
  stage: ""
}
test_initialization: false
I0824 16:10:42.226086 41289 solver.cpp:91] Creating training net from net file: /disk2/nik/Analyzer/test/pocwisc1/caffe/model_segnet_final/train.prototxt
I0824 16:10:42.228953 41289 net.cpp:58] Initializing net from parameters: 
name: "VGG_ILSVRC_16_layer"
state {
  phase: TRAIN
  level: 0
  stage: ""
}
layer {
  name: "data"
  type: "HDF5Data"
  top: "data"
  top: "label"
  hdf5_data_param {
    source: "/disk2/nik/Analyzer/test/pocwisc1/HDF5Files/train_combined.txt"
    batch_size: 4
    shuffle: true
  }
}
layer {
  name: "conv1_1_1"
  type: "Convolution"
  bottom: "data"
  top: "conv1_1_1"
  param {
    lr_mult: 1
    decay_mult: 1
  }
  param {
    lr_mult: 2
    decay_mult: 0
  }
  convolution_param {
    num_output: 64
    pad: 1
    kernel_size: 3
    weight_filler {
      type: "msra"
    }
    bias_filler {
      type: "constant"
    }
  }
}
layer {
  name: "conv1_1_1_bn"
  type: "BatchNorm"
  bottom: "conv1_1_1"
  top: "conv1_1_1"
  batch_norm_param {
    use_global_stats: false
  }
}
layer {
  name: "conv1_1_1_scale"
  type: "Scale"
  bottom: "conv1_1_1"
  top: "conv1_1_1"
  scale_param {
    bias_term: true
  }
}
layer {
  name: "relu1_1"
  type: "ReLU"
  bottom: "conv1_1_1"
  top: "conv1_1_1"
}
layer {
  name: "conv1_2"
  type: "Convolution"
  bottom: "conv1_1_1"
  top: "conv1_2"
  param {
    lr_mult: 1
    decay_mult: 1
  }
  param {
    lr_mult: 2
    decay_mult: 0
  }
  convolution_param {
    num_output: 64
    pad: 1
    kernel_size: 3
    weight_filler {
      type: "msra"
    }
    bias_filler {
      type: "constant"
    }
  }
}
layer {
  name: "conv1_2_bn_tmp"
  type: "BatchNorm"
  bottom: "conv1_2"
  top: "conv1_2"
  batch_norm_param {
    use_global_stats: false
  }
}
layer {
  name: "conv1_2_scale"
  type: "Scale"
  bottom: "conv1_2"
  top: "conv1_2"
  scale_param {
    bias_term: true
  }
}
layer {
  name: "relu1_2"
  type: "ReLU"
  bottom: "conv1_2"
  top: "conv1_2"
}
layer {
  name: "pool1"
  type: "Pooling"
  bottom: "conv1_2"
  top: "pool1"
  top: "pool1_mask"
  pooling_param {
    pool: MAX
    kernel_size: 2
    stride: 2
  }
}
layer {
  name: "conv2_1"
  type: "Convolution"
  bottom: "pool1"
  top: "conv2_1"
  param {
    lr_mult: 1
    decay_mult: 1
  }
  param {
    lr_mult: 2
    decay_mult: 0
  }
  convolution_param {
    num_output: 128
    pad: 1
    kernel_size: 3
    weight_filler {
      type: "msra"
    }
    bias_filler {
      type: "constant"
    }
  }
}
layer {
  name: "conv2_1_bn_tmp"
  type: "BatchNorm"
  bottom: "conv2_1"
  top: "conv2_1"
  batch_norm_param {
    use_global_stats: false
  }
}
layer {
  name: "conv2_1_scale"
  type: "Scale"
  bottom: "conv2_1"
  top: "conv2_1"
  scale_param {
    bias_term: true
  }
}
layer {
  name: "relu2_1"
  type: "ReLU"
  bottom: "conv2_1"
  top: "conv2_1"
}
layer {
  name: "conv2_2"
  type: "Convolution"
  bottom: "conv2_1"
  top: "conv2_2"
  param {
    lr_mult: 1
    decay_mult: 1
  }
  param {
    lr_mult: 2
    decay_mult: 0
  }
  convolution_param {
    num_output: 128
    pad: 1
    kernel_size: 3
    weight_filler {
      type: "msra"
    }
    bias_filler {
      type: "constant"
    }
  }
}
layer {
  name: "conv2_2_bn_tmp"
  type: "BatchNorm"
  bottom: "conv2_2"
  top: "conv2_2"
  batch_norm_param {
    use_global_stats: false
  }
}
layer {
  name: "conv2_2_scale"
  type: "Scale"
  bottom: "conv2_2"
  top: "conv2_2"
  scale_param {
    bias_term: true
  }
}
layer {
  name: "relu2_2"
  type: "ReLU"
  bottom: "conv2_2"
  top: "conv2_2"
}
layer {
  name: "pool2"
  type: "Pooling"
  bottom: "conv2_2"
  top: "pool2"
  top: "pool2_mask"
  pooling_param {
    pool: MAX
    kernel_size: 2
    stride: 2
  }
}
layer {
  name: "conv3_1"
  type: "Convolution"
  bottom: "pool2"
  top: "conv3_1"
  param {
    lr_mult: 1
    decay_mult: 1
  }
  param {
    lr_mult: 2
    decay_mult: 0
  }
  convolution_param {
    num_output: 256
    pad: 1
    kernel_size: 3
    weight_filler {
      type: "msra"
    }
    bias_filler {
      type: "constant"
    }
  }
}
layer {
  name: "conv3_1_bn_tmp"
  type: "BatchNorm"
  bottom: "conv3_1"
  top: "conv3_1"
  batch_norm_param {
    use_global_stats: false
  }
}
layer {
  name: "conv3_1_scale"
  type: "Scale"
  bottom: "conv3_1"
  top: "conv3_1"
  scale_param {
    bias_term: true
  }
}
layer {
  name: "relu3_1"
  type: "ReLU"
  bottom: "conv3_1"
  top: "conv3_1"
}
layer {
  name: "conv3_2"
  type: "Convolution"
  bottom: "conv3_1"
  top: "conv3_2"
  param {
    lr_mult: 1
    decay_mult: 1
  }
  param {
    lr_mult: 2
    decay_mult: 0
  }
  convolution_param {
    num_output: 256
    pad: 1
    kernel_size: 3
    weight_filler {
      type: "msra"
    }
    bias_filler {
      type: "constant"
    }
  }
}
layer {
  name: "conv3_2_bn_tmp"
  type: "BatchNorm"
  bottom: "conv3_2"
  top: "conv3_2"
  batch_norm_param {
    use_global_stats: false
  }
}
layer {
  name: "conv3_2_scale"
  type: "Scale"
  bottom: "conv3_2"
  top: "conv3_2"
  scale_param {
    bias_term: true
  }
}
layer {
  name: "relu3_2"
  type: "ReLU"
  bottom: "conv3_2"
  top: "conv3_2"
}
layer {
  name: "conv3_3"
  type: "Convolution"
  bottom: "conv3_2"
  top: "conv3_3"
  param {
    lr_mult: 1
    decay_mult: 1
  }
  param {
    lr_mult: 2
    decay_mult: 0
  }
  convolution_param {
    num_output: 256
    pad: 1
    kernel_size: 3
    weight_filler {
      type: "msra"
    }
    bias_filler {
      type: "constant"
    }
  }
}
layer {
  name: "conv3_3_bn_tmp"
  type: "BatchNorm"
  bottom: "conv3_3"
  top: "conv3_3"
  batch_norm_param {
    use_global_stats: false
  }
}
layer {
  name: "conv3_3_scale"
  type: "Scale"
  bottom: "conv3_3"
  top: "conv3_3"
  scale_param {
    bias_term: true
  }
}
layer {
  name: "relu3_3"
  type: "ReLU"
  bottom: "conv3_3"
  top: "conv3_3"
}
layer {
  name: "pool3"
  type: "Pooling"
  bottom: "conv3_3"
  top: "pool3"
  top: "pool3_mask"
  pooling_param {
    pool: MAX
    kernel_size: 2
    stride: 2
  }
}
layer {
  name: "conv4_1"
  type: "Convolution"
  bottom: "pool3"
  top: "conv4_1"
  param {
    lr_mult: 1
    decay_mult: 1
  }
  param {
    lr_mult: 2
    decay_mult: 0
  }
  convolution_param {
    num_output: 512
    pad: 1
    kernel_size: 3
    weight_filler {
      type: "msra"
    }
    bias_filler {
      type: "constant"
    }
  }
}
layer {
  name: "conv4_1_bn_tmp"
  type: "BatchNorm"
  bottom: "conv4_1"
  top: "conv4_1"
  batch_norm_param {
    use_global_stats: false
  }
}
layer {
  name: "conv4_1_scale"
  type: "Scale"
  bottom: "conv4_1"
  top: "conv4_1"
  scale_param {
    bias_term: true
  }
}
layer {
  name: "relu4_1"
  type: "ReLU"
  bottom: "conv4_1"
  top: "conv4_1"
}
layer {
  name: "conv4_2"
  type: "Convolution"
  bottom: "conv4_1"
  top: "conv4_2"
  param {
    lr_mult: 1
    decay_mult: 1
  }
  param {
    lr_mult: 2
    decay_mult: 0
  }
  convolution_param {
    num_output: 512
    pad: 1
    kernel_size: 3
    weight_filler {
      type: "msra"
    }
    bias_filler {
      type: "constant"
    }
  }
}
layer {
  name: "conv4_2_bn_tmp"
  type: "BatchNorm"
  bottom: "conv4_2"
  top: "conv4_2"
  batch_norm_param {
    use_global_stats: false
  }
}
layer {
  name: "conv4_2_scale"
  type: "Scale"
  bottom: "conv4_2"
  top: "conv4_2"
  scale_param {
    bias_term: true
  }
}
layer {
  name: "relu4_2"
  type: "ReLU"
  bottom: "conv4_2"
  top: "conv4_2"
}
layer {
  name: "conv4_3"
  type: "Convolution"
  bottom: "conv4_2"
  top: "conv4_3"
  param {
    lr_mult: 1
    decay_mult: 1
  }
  param {
    lr_mult: 2
    decay_mult: 0
  }
  convolution_param {
    num_output: 512
    pad: 1
    kernel_size: 3
    weight_filler {
      type: "msra"
    }
    bias_filler {
      type: "constant"
    }
  }
}
layer {
  name: "conv4_3_bn_tmp"
  type: "BatchNorm"
  bottom: "conv4_3"
  top: "conv4_3"
  batch_norm_param {
    use_global_stats: false
  }
}
layer {
  name: "conv4_3_scale"
  type: "Scale"
  bottom: "conv4_3"
  top: "conv4_3"
  scale_param {
    bias_term: true
  }
}
layer {
  name: "relu4_3"
  type: "ReLU"
  bottom: "conv4_3"
  top: "conv4_3"
}
layer {
  name: "pool4"
  type: "Pooling"
  bottom: "conv4_3"
  top: "pool4"
  top: "pool4_mask"
  pooling_param {
    pool: MAX
    kernel_size: 2
    stride: 2
  }
}
layer {
  name: "conv5_1"
  type: "Convolution"
  bottom: "pool4"
  top: "conv5_1"
  param {
    lr_mult: 1
    decay_mult: 1
  }
  param {
    lr_mult: 2
    decay_mult: 0
  }
  convolution_param {
    num_output: 512
    pad: 1
    kernel_size: 3
    weight_filler {
      type: "msra"
    }
    bias_filler {
      type: "constant"
    }
  }
}
layer {
  name: "conv5_1_bn_tmp"
  type: "BatchNorm"
  bottom: "conv5_1"
  top: "conv5_1"
  batch_norm_param {
    use_global_stats: false
  }
}
layer {
  name: "conv5_1_scale"
  type: "Scale"
  bottom: "conv5_1"
  top: "conv5_1"
  scale_param {
    bias_term: true
  }
}
layer {
  name: "relu5_1"
  type: "ReLU"
  bottom: "conv5_1"
  top: "conv5_1"
}
layer {
  name: "conv5_2"
  type: "Convolution"
  bottom: "conv5_1"
  top: "conv5_2"
  param {
    lr_mult: 1
    decay_mult: 1
  }
  param {
    lr_mult: 2
    decay_mult: 0
  }
  convolution_param {
    num_output: 512
    pad: 1
    kernel_size: 3
    weight_filler {
      type: "msra"
    }
    bias_filler {
      type: "constant"
    }
  }
}
layer {
  name: "conv5_2_bn_tmp"
  type: "BatchNorm"
  bottom: "conv5_2"
  top: "conv5_2"
  batch_norm_param {
    use_global_stats: false
  }
}
layer {
  name: "conv5_2_scale"
  type: "Scale"
  bottom: "conv5_2"
  top: "conv5_2"
  scale_param {
    bias_term: true
  }
}
layer {
  name: "relu5_2"
  type: "ReLU"
  bottom: "conv5_2"
  top: "conv5_2"
}
layer {
  name: "conv5_3"
  type: "Convolution"
  bottom: "conv5_2"
  top: "conv5_3"
  param {
    lr_mult: 1
    decay_mult: 1
  }
  param {
    lr_mult: 2
    decay_mult: 0
  }
  convolution_param {
    num_output: 512
    pad: 1
    kernel_size: 3
    weight_filler {
      type: "msra"
    }
    bias_filler {
      type: "constant"
    }
  }
}
layer {
  name: "conv5_3_bn_tmp"
  type: "BatchNorm"
  bottom: "conv5_3"
  top: "conv5_3"
  batch_norm_param {
    use_global_stats: false
  }
}
layer {
  name: "conv5_3_scale"
  type: "Scale"
  bottom: "conv5_3"
  top: "conv5_3"
  scale_param {
    bias_term: true
  }
}
layer {
  name: "relu5_3"
  type: "ReLU"
  bottom: "conv5_3"
  top: "conv5_3"
}
layer {
  name: "pool5"
  type: "Pooling"
  bottom: "conv5_3"
  top: "pool5"
  top: "pool5_mask"
  pooling_param {
    pool: MAX
    kernel_size: 2
    stride: 2
  }
}
layer {
  name: "upsample5"
  type: "Upsample"
  bottom: "pool5"
  bottom: "pool5_mask"
  top: "pool5_D"
  upsample_param {
    scale: 2
    upsample_h: 23
    upsample_w: 30
  }
}
layer {
  name: "conv5_3_D"
  type: "Convolution"
  bottom: "pool5_D"
  top: "conv5_3_D"
  param {
    lr_mult: 1
    decay_mult: 1
  }
  param {
    lr_mult: 2
    decay_mult: 0
  }
  convolution_param {
    num_output: 512
    pad: 1
    kernel_size: 3
    weight_filler {
      type: "msra"
    }
    bias_filler {
      type: "constant"
    }
  }
}
layer {
  name: "conv5_3_D_bn_tmp"
  type: "BatchNorm"
  bottom: "conv5_3_D"
  top: "conv5_3_D"
  batch_norm_param {
    use_global_stats: false
  }
}
layer {
  name: "conv5_3_D_scale"
  type: "Scale"
  bottom: "conv5_3_D"
  top: "conv5_3_D"
  scale_param {
    bias_term: true
  }
}
layer {
  name: "relu5_3_D"
  type: "ReLU"
  bottom: "conv5_3_D"
  top: "conv5_3_D"
}
layer {
  name: "conv5_2_D"
  type: "Convolution"
  bottom: "conv5_3_D"
  top: "conv5_2_D"
  param {
    lr_mult: 1
    decay_mult: 1
  }
  param {
    lr_mult: 2
    decay_mult: 0
  }
  convolution_param {
    num_output: 512
    pad: 1
    kernel_size: 3
    weight_filler {
      type: "msra"
    }
    bias_filler {
      type: "constant"
    }
  }
}
layer {
  name: "conv5_2_D_bn_tmp"
  type: "BatchNorm"
  bottom: "conv5_2_D"
  top: "conv5_2_D"
  batch_norm_param {
    use_global_stats: false
  }
}
layer {
  name: "conv5_2_D_scale"
  type: "Scale"
  bottom: "conv5_2_D"
  top: "conv5_2_D"
  scale_param {
    bias_term: true
  }
}
layer {
  name: "relu5_2_D"
  type: "ReLU"
  bottom: "conv5_2_D"
  top: "conv5_2_D"
}
layer {
  name: "conv5_1_D"
  type: "Convolution"
  bottom: "conv5_2_D"
  top: "conv5_1_D"
  param {
    lr_mult: 1
    decay_mult: 1
  }
  param {
    lr_mult: 2
    decay_mult: 0
  }
  convolution_param {
    num_output: 512
    pad: 1
    kernel_size: 3
    weight_filler {
      type: "msra"
    }
    bias_filler {
      type: "constant"
    }
  }
}
layer {
  name: "conv5_1_D_bn_tmp"
  type: "BatchNorm"
  bottom: "conv5_1_D"
  top: "conv5_1_D"
  batch_norm_param {
    use_global_stats: false
  }
}
layer {
  name: "conv5_1_D_scale"
  type: "Scale"
  bottom: "conv5_1_D"
  top: "conv5_1_D"
  scale_param {
    bias_term: true
  }
}
layer {
  name: "relu5_1_D"
  type: "ReLU"
  bottom: "conv5_1_D"
  top: "conv5_1_D"
}
layer {
  name: "upsample4"
  type: "Upsample"
  bottom: "conv5_1_D"
  bottom: "pool4_mask"
  top: "pool4_D"
  upsample_param {
    scale: 2
    upsample_h: 45
    upsample_w: 60
  }
}
layer {
  name: "conv4_3_D"
  type: "Convolution"
  bottom: "pool4_D"
  top: "conv4_3_D"
  param {
    lr_mult: 1
    decay_mult: 1
  }
  param {
    lr_mult: 2
    decay_mult: 0
  }
  convolution_param {
    num_output: 512
    pad: 1
    kernel_size: 3
    weight_filler {
      type: "msra"
    }
    bias_filler {
      type: "constant"
    }
  }
}
layer {
  name: "conv4_3_D_bn_tmp"
  type: "BatchNorm"
  bottom: "conv4_3_D"
  top: "conv4_3_D"
  batch_norm_param {
    use_global_stats: false
  }
}
layer {
  name: "conv4_3_D_scale"
  type: "Scale"
  bottom: "conv4_3_D"
  top: "conv4_3_D"
  scale_param {
    bias_term: true
  }
}
layer {
  name: "relu4_3_D"
  type: "ReLU"
  bottom: "conv4_3_D"
  top: "conv4_3_D"
}
layer {
  name: "conv4_2_D"
  type: "Convolution"
  bottom: "conv4_3_D"
  top: "conv4_2_D"
  param {
    lr_mult: 1
    decay_mult: 1
  }
  param {
    lr_mult: 2
    decay_mult: 0
  }
  convolution_param {
    num_output: 512
    pad: 1
    kernel_size: 3
    weight_filler {
      type: "msra"
    }
    bias_filler {
      type: "constant"
    }
  }
}
layer {
  name: "conv4_2_D_bn_tmp"
  type: "BatchNorm"
  bottom: "conv4_2_D"
  top: "conv4_2_D"
  batch_norm_param {
    use_global_stats: false
  }
}
layer {
  name: "conv4_2_D_scale"
  type: "Scale"
  bottom: "conv4_2_D"
  top: "conv4_2_D"
  scale_param {
    bias_term: true
  }
}
layer {
  name: "relu4_2_D"
  type: "ReLU"
  bottom: "conv4_2_D"
  top: "conv4_2_D"
}
layer {
  name: "conv4_1_D"
  type: "Convolution"
  bottom: "conv4_2_D"
  top: "conv4_1_D"
  param {
    lr_mult: 1
    decay_mult: 1
  }
  param {
    lr_mult: 2
    decay_mult: 0
  }
  convolution_param {
    num_output: 256
    pad: 1
    kernel_size: 3
    weight_filler {
      type: "msra"
    }
    bias_filler {
      type: "constant"
    }
  }
}
layer {
  name: "conv4_1_D_bn_tmp"
  type: "BatchNorm"
  bottom: "conv4_1_D"
  top: "conv4_1_D"
  batch_norm_param {
    use_global_stats: false
  }
}
layer {
  name: "conv4_1_D_scale"
  type: "Scale"
  bottom: "conv4_1_D"
  top: "conv4_1_D"
  scale_param {
    bias_term: true
  }
}
layer {
  name: "relu4_1_D"
  type: "ReLU"
  bottom: "conv4_1_D"
  top: "conv4_1_D"
}
layer {
  name: "upsample3"
  type: "Upsample"
  bottom: "conv4_1_D"
  bottom: "pool3_mask"
  top: "pool3_D"
  upsample_param {
    scale: 2
  }
}
layer {
  name: "conv3_3_D"
  type: "Convolution"
  bottom: "pool3_D"
  top: "conv3_3_D"
  param {
    lr_mult: 1
    decay_mult: 1
  }
  param {
    lr_mult: 2
    decay_mult: 0
  }
  convolution_param {
    num_output: 256
    pad: 1
    kernel_size: 3
    weight_filler {
      type: "msra"
    }
    bias_filler {
      type: "constant"
    }
  }
}
layer {
  name: "conv3_3_D_bn_tmp"
  type: "BatchNorm"
  bottom: "conv3_3_D"
  top: "conv3_3_D"
  batch_norm_param {
    use_global_stats: false
  }
}
layer {
  name: "conv3_3_D_scale"
  type: "Scale"
  bottom: "conv3_3_D"
  top: "conv3_3_D"
  scale_param {
    bias_term: true
  }
}
layer {
  name: "relu3_3_D"
  type: "ReLU"
  bottom: "conv3_3_D"
  top: "conv3_3_D"
}
layer {
  name: "conv3_2_D"
  type: "Convolution"
  bottom: "conv3_3_D"
  top: "conv3_2_D"
  param {
    lr_mult: 1
    decay_mult: 1
  }
  param {
    lr_mult: 2
    decay_mult: 0
  }
  convolution_param {
    num_output: 256
    pad: 1
    kernel_size: 3
    weight_filler {
      type: "msra"
    }
    bias_filler {
      type: "constant"
    }
  }
}
layer {
  name: "conv3_2_D_bn_tmp"
  type: "BatchNorm"
  bottom: "conv3_2_D"
  top: "conv3_2_D"
  batch_norm_param {
    use_global_stats: false
  }
}
layer {
  name: "conv3_2_D_scale"
  type: "Scale"
  bottom: "conv3_2_D"
  top: "conv3_2_D"
  scale_param {
    bias_term: true
  }
}
layer {
  name: "relu3_2_D"
  type: "ReLU"
  bottom: "conv3_2_D"
  top: "conv3_2_D"
}
layer {
  name: "conv3_1_D"
  type: "Convolution"
  bottom: "conv3_2_D"
  top: "conv3_1_D"
  param {
    lr_mult: 1
    decay_mult: 1
  }
  param {
    lr_mult: 2
    decay_mult: 0
  }
  convolution_param {
    num_output: 128
    pad: 1
    kernel_size: 3
    weight_filler {
      type: "msra"
    }
    bias_filler {
      type: "constant"
    }
  }
}
layer {
  name: "conv3_1_D_bn_tmp"
  type: "BatchNorm"
  bottom: "conv3_1_D"
  top: "conv3_1_D"
  batch_norm_param {
    use_global_stats: false
  }
}
layer {
  name: "conv3_1_D_scale"
  type: "Scale"
  bottom: "conv3_1_D"
  top: "conv3_1_D"
  scale_param {
    bias_term: true
  }
}
layer {
  name: "relu3_1_D"
  type: "ReLU"
  bottom: "conv3_1_D"
  top: "conv3_1_D"
}
layer {
  name: "upsample2"
  type: "Upsample"
  bottom: "conv3_1_D"
  bottom: "pool2_mask"
  top: "pool2_D"
  upsample_param {
    scale: 2
  }
}
layer {
  name: "conv2_2_D"
  type: "Convolution"
  bottom: "pool2_D"
  top: "conv2_2_D"
  param {
    lr_mult: 1
    decay_mult: 1
  }
  param {
    lr_mult: 2
    decay_mult: 0
  }
  convolution_param {
    num_output: 128
    pad: 1
    kernel_size: 3
    weight_filler {
      type: "msra"
    }
    bias_filler {
      type: "constant"
    }
  }
}
layer {
  name: "conv2_2_D_bn_tmp"
  type: "BatchNorm"
  bottom: "conv2_2_D"
  top: "conv2_2_D"
  batch_norm_param {
    use_global_stats: false
  }
}
layer {
  name: "conv2_2_D_scale"
  type: "Scale"
  bottom: "conv2_2_D"
  top: "conv2_2_D"
  scale_param {
    bias_term: true
  }
}
layer {
  name: "relu2_2_D"
  type: "ReLU"
  bottom: "conv2_2_D"
  top: "conv2_2_D"
}
layer {
  name: "conv2_1_D"
  type: "Convolution"
  bottom: "conv2_2_D"
  top: "conv2_1_D"
  param {
    lr_mult: 1
    decay_mult: 1
  }
  param {
    lr_mult: 2
    decay_mult: 0
  }
  convolution_param {
    num_output: 64
    pad: 1
    kernel_size: 3
    weight_filler {
      type: "msra"
    }
    bias_filler {
      type: "constant"
    }
  }
}
layer {
  name: "conv2_1_D_bn_tmp"
  type: "BatchNorm"
  bottom: "conv2_1_D"
  top: "conv2_1_D"
  batch_norm_param {
    use_global_stats: false
  }
}
layer {
  name: "conv2_1_D_scale"
  type: "Scale"
  bottom: "conv2_1_D"
  top: "conv2_1_D"
  scale_param {
    bias_term: true
  }
}
layer {
  name: "relu2_1_D"
  type: "ReLU"
  bottom: "conv2_1_D"
  top: "conv2_1_D"
}
layer {
  name: "upsample1"
  type: "Upsample"
  bottom: "conv2_1_D"
  bottom: "pool1_mask"
  top: "pool1_D"
  upsample_param {
    scale: 2
  }
}
layer {
  name: "conv1_2_D"
  type: "Convolution"
  bottom: "pool1_D"
  top: "conv1_2_D"
  param {
    lr_mult: 1
    decay_mult: 1
  }
  param {
    lr_mult: 2
    decay_mult: 0
  }
  convolution_param {
    num_output: 64
    pad: 1
    kernel_size: 3
    weight_filler {
      type: "msra"
    }
    bias_filler {
      type: "constant"
    }
  }
}
layer {
  name: "conv1_2_D_bn_tmp"
  type: "BatchNorm"
  bottom: "conv1_2_D"
  top: "conv1_2_D"
  batch_norm_param {
    use_global_stats: false
  }
}
layer {
  name: "conv1_2_D_scale"
  type: "Scale"
  bottom: "conv1_2_D"
  top: "conv1_2_D"
  scale_param {
    bias_term: true
  }
}
layer {
  name: "relu1_2_D"
  type: "ReLU"
  bottom: "conv1_2_D"
  top: "conv1_2_D"
}
layer {
  name: "conv1_1_1_D"
  type: "Convolution"
  bottom: "conv1_2_D"
  top: "conv1_1_1_D"
  param {
    lr_mult: 1
    decay_mult: 1
  }
  param {
    lr_mult: 2
    decay_mult: 0
  }
  convolution_param {
    num_output: 2
    pad: 1
    kernel_size: 3
    weight_filler {
      type: "msra"
    }
    bias_filler {
      type: "constant"
    }
  }
}
layer {
  name: "loss"
  type: "SoftmaxWithLoss"
  bottom: "conv1_1_1_D"
  bottom: "label"
  top: "loss"
  loss_param {
    weight_by_label_freqs: true
    class_weighting: 0.7564
    class_weighting: 1.5572
  }
  softmax_param {
    engine: CAFFE
  }
}
layer {
  name: "accuracy"
  type: "Accuracy"
  bottom: "conv1_1_1_D"
  bottom: "label"
  top: "accuracy"
  top: "per_class_accuracy"
}
I0824 16:10:42.229506 41289 layer_factory.hpp:77] Creating layer data
I0824 16:10:42.229528 41289 net.cpp:100] Creating Layer data
I0824 16:10:42.229538 41289 net.cpp:408] data -> data
I0824 16:10:42.229568 41289 net.cpp:408] data -> label
I0824 16:10:42.229588 41289 hdf5_data_layer.cpp:79] Loading list of HDF5 filenames from: /disk2/nik/Analyzer/test/pocwisc1/HDF5Files/train_combined.txt
I0824 16:10:42.229660 41289 hdf5_data_layer.cpp:93] Number of HDF5 files: 49
I0824 16:10:42.230995 41289 hdf5.cpp:32] Datatype class: H5T_FLOAT
I0824 16:10:42.257323 41289 net.cpp:150] Setting up data
I0824 16:10:42.257360 41289 net.cpp:157] Top shape: 4 8 360 480 (5529600)
I0824 16:10:42.257378 41289 net.cpp:157] Top shape: 4 1 360 480 (691200)
I0824 16:10:42.257382 41289 net.cpp:165] Memory required for data: 24883200
I0824 16:10:42.257392 41289 layer_factory.hpp:77] Creating layer label_data_1_split
I0824 16:10:42.257411 41289 net.cpp:100] Creating Layer label_data_1_split
I0824 16:10:42.257423 41289 net.cpp:434] label_data_1_split <- label
I0824 16:10:42.257446 41289 net.cpp:408] label_data_1_split -> label_data_1_split_0
I0824 16:10:42.257458 41289 net.cpp:408] label_data_1_split -> label_data_1_split_1
I0824 16:10:42.257500 41289 net.cpp:150] Setting up label_data_1_split
I0824 16:10:42.257508 41289 net.cpp:157] Top shape: 4 1 360 480 (691200)
I0824 16:10:42.257513 41289 net.cpp:157] Top shape: 4 1 360 480 (691200)
I0824 16:10:42.257517 41289 net.cpp:165] Memory required for data: 30412800
I0824 16:10:42.257521 41289 layer_factory.hpp:77] Creating layer conv1_1_1
I0824 16:10:42.257542 41289 net.cpp:100] Creating Layer conv1_1_1
I0824 16:10:42.257549 41289 net.cpp:434] conv1_1_1 <- data
I0824 16:10:42.257555 41289 net.cpp:408] conv1_1_1 -> conv1_1_1
I0824 16:10:42.792306 41289 net.cpp:150] Setting up conv1_1_1
I0824 16:10:42.792341 41289 net.cpp:157] Top shape: 4 64 360 480 (44236800)
I0824 16:10:42.792347 41289 net.cpp:165] Memory required for data: 207360000
I0824 16:10:42.792379 41289 layer_factory.hpp:77] Creating layer conv1_1_1_bn
I0824 16:10:42.792395 41289 net.cpp:100] Creating Layer conv1_1_1_bn
I0824 16:10:42.792402 41289 net.cpp:434] conv1_1_1_bn <- conv1_1_1
I0824 16:10:42.792410 41289 net.cpp:395] conv1_1_1_bn -> conv1_1_1 (in-place)
I0824 16:10:42.792805 41289 net.cpp:150] Setting up conv1_1_1_bn
I0824 16:10:42.792814 41289 net.cpp:157] Top shape: 4 64 360 480 (44236800)
I0824 16:10:42.792824 41289 net.cpp:165] Memory required for data: 384307200
I0824 16:10:42.792837 41289 layer_factory.hpp:77] Creating layer conv1_1_1_scale
I0824 16:10:42.792850 41289 net.cpp:100] Creating Layer conv1_1_1_scale
I0824 16:10:42.792856 41289 net.cpp:434] conv1_1_1_scale <- conv1_1_1
I0824 16:10:42.792861 41289 net.cpp:395] conv1_1_1_scale -> conv1_1_1 (in-place)
I0824 16:10:42.792910 41289 layer_factory.hpp:77] Creating layer conv1_1_1_scale
I0824 16:10:42.794626 41289 net.cpp:150] Setting up conv1_1_1_scale
I0824 16:10:42.794641 41289 net.cpp:157] Top shape: 4 64 360 480 (44236800)
I0824 16:10:42.794651 41289 net.cpp:165] Memory required for data: 561254400
I0824 16:10:42.794659 41289 layer_factory.hpp:77] Creating layer relu1_1
I0824 16:10:42.794672 41289 net.cpp:100] Creating Layer relu1_1
I0824 16:10:42.794677 41289 net.cpp:434] relu1_1 <- conv1_1_1
I0824 16:10:42.794683 41289 net.cpp:395] relu1_1 -> conv1_1_1 (in-place)
I0824 16:10:42.794911 41289 net.cpp:150] Setting up relu1_1
I0824 16:10:42.794921 41289 net.cpp:157] Top shape: 4 64 360 480 (44236800)
I0824 16:10:42.794926 41289 net.cpp:165] Memory required for data: 738201600
I0824 16:10:42.794930 41289 layer_factory.hpp:77] Creating layer conv1_2
I0824 16:10:42.794944 41289 net.cpp:100] Creating Layer conv1_2
I0824 16:10:42.794948 41289 net.cpp:434] conv1_2 <- conv1_1_1
I0824 16:10:42.794955 41289 net.cpp:408] conv1_2 -> conv1_2
I0824 16:10:42.799194 41289 net.cpp:150] Setting up conv1_2
I0824 16:10:42.799211 41289 net.cpp:157] Top shape: 4 64 360 480 (44236800)
I0824 16:10:42.799221 41289 net.cpp:165] Memory required for data: 915148800
I0824 16:10:42.799232 41289 layer_factory.hpp:77] Creating layer conv1_2_bn_tmp
I0824 16:10:42.799245 41289 net.cpp:100] Creating Layer conv1_2_bn_tmp
I0824 16:10:42.799253 41289 net.cpp:434] conv1_2_bn_tmp <- conv1_2
I0824 16:10:42.799259 41289 net.cpp:395] conv1_2_bn_tmp -> conv1_2 (in-place)
I0824 16:10:42.800814 41289 net.cpp:150] Setting up conv1_2_bn_tmp
I0824 16:10:42.800829 41289 net.cpp:157] Top shape: 4 64 360 480 (44236800)
I0824 16:10:42.800838 41289 net.cpp:165] Memory required for data: 1092096000
I0824 16:10:42.800848 41289 layer_factory.hpp:77] Creating layer conv1_2_scale
I0824 16:10:42.800859 41289 net.cpp:100] Creating Layer conv1_2_scale
I0824 16:10:42.800865 41289 net.cpp:434] conv1_2_scale <- conv1_2
I0824 16:10:42.800871 41289 net.cpp:395] conv1_2_scale -> conv1_2 (in-place)
I0824 16:10:42.800914 41289 layer_factory.hpp:77] Creating layer conv1_2_scale
I0824 16:10:42.801287 41289 net.cpp:150] Setting up conv1_2_scale
I0824 16:10:42.801295 41289 net.cpp:157] Top shape: 4 64 360 480 (44236800)
I0824 16:10:42.801300 41289 net.cpp:165] Memory required for data: 1269043200
I0824 16:10:42.801306 41289 layer_factory.hpp:77] Creating layer relu1_2
I0824 16:10:42.801314 41289 net.cpp:100] Creating Layer relu1_2
I0824 16:10:42.801319 41289 net.cpp:434] relu1_2 <- conv1_2
I0824 16:10:42.801324 41289 net.cpp:395] relu1_2 -> conv1_2 (in-place)
I0824 16:10:42.801537 41289 net.cpp:150] Setting up relu1_2
I0824 16:10:42.801548 41289 net.cpp:157] Top shape: 4 64 360 480 (44236800)
I0824 16:10:42.801553 41289 net.cpp:165] Memory required for data: 1445990400
I0824 16:10:42.801558 41289 layer_factory.hpp:77] Creating layer pool1
I0824 16:10:42.801563 41289 layer_factory.cpp:91] cuDNN does not support multiple tops. Using Caffe's own pooling layer.
I0824 16:10:42.801570 41289 net.cpp:100] Creating Layer pool1
I0824 16:10:42.801575 41289 net.cpp:434] pool1 <- conv1_2
I0824 16:10:42.801581 41289 net.cpp:408] pool1 -> pool1
I0824 16:10:42.801591 41289 net.cpp:408] pool1 -> pool1_mask
I0824 16:10:42.801645 41289 net.cpp:150] Setting up pool1
I0824 16:10:42.801653 41289 net.cpp:157] Top shape: 4 64 180 240 (11059200)
I0824 16:10:42.801657 41289 net.cpp:157] Top shape: 4 64 180 240 (11059200)
I0824 16:10:42.801662 41289 net.cpp:165] Memory required for data: 1534464000
I0824 16:10:42.801666 41289 layer_factory.hpp:77] Creating layer conv2_1
I0824 16:10:42.801676 41289 net.cpp:100] Creating Layer conv2_1
I0824 16:10:42.801681 41289 net.cpp:434] conv2_1 <- pool1
I0824 16:10:42.801687 41289 net.cpp:408] conv2_1 -> conv2_1
I0824 16:10:42.807983 41289 net.cpp:150] Setting up conv2_1
I0824 16:10:42.808001 41289 net.cpp:157] Top shape: 4 128 180 240 (22118400)
I0824 16:10:42.808013 41289 net.cpp:165] Memory required for data: 1622937600
I0824 16:10:42.808022 41289 layer_factory.hpp:77] Creating layer conv2_1_bn_tmp
I0824 16:10:42.808030 41289 net.cpp:100] Creating Layer conv2_1_bn_tmp
I0824 16:10:42.808037 41289 net.cpp:434] conv2_1_bn_tmp <- conv2_1
I0824 16:10:42.808043 41289 net.cpp:395] conv2_1_bn_tmp -> conv2_1 (in-place)
I0824 16:10:42.808270 41289 net.cpp:150] Setting up conv2_1_bn_tmp
I0824 16:10:42.808279 41289 net.cpp:157] Top shape: 4 128 180 240 (22118400)
I0824 16:10:42.808284 41289 net.cpp:165] Memory required for data: 1711411200
I0824 16:10:42.808296 41289 layer_factory.hpp:77] Creating layer conv2_1_scale
I0824 16:10:42.808321 41289 net.cpp:100] Creating Layer conv2_1_scale
I0824 16:10:42.808326 41289 net.cpp:434] conv2_1_scale <- conv2_1
I0824 16:10:42.808331 41289 net.cpp:395] conv2_1_scale -> conv2_1 (in-place)
I0824 16:10:42.808372 41289 layer_factory.hpp:77] Creating layer conv2_1_scale
I0824 16:10:42.808548 41289 net.cpp:150] Setting up conv2_1_scale
I0824 16:10:42.808557 41289 net.cpp:157] Top shape: 4 128 180 240 (22118400)
I0824 16:10:42.808560 41289 net.cpp:165] Memory required for data: 1799884800
I0824 16:10:42.808568 41289 layer_factory.hpp:77] Creating layer relu2_1
I0824 16:10:42.808575 41289 net.cpp:100] Creating Layer relu2_1
I0824 16:10:42.808580 41289 net.cpp:434] relu2_1 <- conv2_1
I0824 16:10:42.808585 41289 net.cpp:395] relu2_1 -> conv2_1 (in-place)
I0824 16:10:42.809638 41289 net.cpp:150] Setting up relu2_1
I0824 16:10:42.809653 41289 net.cpp:157] Top shape: 4 128 180 240 (22118400)
I0824 16:10:42.809659 41289 net.cpp:165] Memory required for data: 1888358400
I0824 16:10:42.809664 41289 layer_factory.hpp:77] Creating layer conv2_2
I0824 16:10:42.809675 41289 net.cpp:100] Creating Layer conv2_2
I0824 16:10:42.809681 41289 net.cpp:434] conv2_2 <- conv2_1
I0824 16:10:42.809689 41289 net.cpp:408] conv2_2 -> conv2_2
I0824 16:10:42.817082 41289 net.cpp:150] Setting up conv2_2
I0824 16:10:42.817098 41289 net.cpp:157] Top shape: 4 128 180 240 (22118400)
I0824 16:10:42.817111 41289 net.cpp:165] Memory required for data: 1976832000
I0824 16:10:42.817119 41289 layer_factory.hpp:77] Creating layer conv2_2_bn_tmp
I0824 16:10:42.817131 41289 net.cpp:100] Creating Layer conv2_2_bn_tmp
I0824 16:10:42.817136 41289 net.cpp:434] conv2_2_bn_tmp <- conv2_2
I0824 16:10:42.817143 41289 net.cpp:395] conv2_2_bn_tmp -> conv2_2 (in-place)
I0824 16:10:42.817399 41289 net.cpp:150] Setting up conv2_2_bn_tmp
I0824 16:10:42.817409 41289 net.cpp:157] Top shape: 4 128 180 240 (22118400)
I0824 16:10:42.817412 41289 net.cpp:165] Memory required for data: 2065305600
I0824 16:10:42.817421 41289 layer_factory.hpp:77] Creating layer conv2_2_scale
I0824 16:10:42.817430 41289 net.cpp:100] Creating Layer conv2_2_scale
I0824 16:10:42.817440 41289 net.cpp:434] conv2_2_scale <- conv2_2
I0824 16:10:42.817446 41289 net.cpp:395] conv2_2_scale -> conv2_2 (in-place)
I0824 16:10:42.817486 41289 layer_factory.hpp:77] Creating layer conv2_2_scale
I0824 16:10:42.817667 41289 net.cpp:150] Setting up conv2_2_scale
I0824 16:10:42.817675 41289 net.cpp:157] Top shape: 4 128 180 240 (22118400)
I0824 16:10:42.817678 41289 net.cpp:165] Memory required for data: 2153779200
I0824 16:10:42.817685 41289 layer_factory.hpp:77] Creating layer relu2_2
I0824 16:10:42.817693 41289 net.cpp:100] Creating Layer relu2_2
I0824 16:10:42.817698 41289 net.cpp:434] relu2_2 <- conv2_2
I0824 16:10:42.817703 41289 net.cpp:395] relu2_2 -> conv2_2 (in-place)
I0824 16:10:42.817900 41289 net.cpp:150] Setting up relu2_2
I0824 16:10:42.817909 41289 net.cpp:157] Top shape: 4 128 180 240 (22118400)
I0824 16:10:42.817914 41289 net.cpp:165] Memory required for data: 2242252800
I0824 16:10:42.817919 41289 layer_factory.hpp:77] Creating layer pool2
I0824 16:10:42.817924 41289 layer_factory.cpp:91] cuDNN does not support multiple tops. Using Caffe's own pooling layer.
I0824 16:10:42.817930 41289 net.cpp:100] Creating Layer pool2
I0824 16:10:42.817935 41289 net.cpp:434] pool2 <- conv2_2
I0824 16:10:42.817941 41289 net.cpp:408] pool2 -> pool2
I0824 16:10:42.817950 41289 net.cpp:408] pool2 -> pool2_mask
I0824 16:10:42.817994 41289 net.cpp:150] Setting up pool2
I0824 16:10:42.818002 41289 net.cpp:157] Top shape: 4 128 90 120 (5529600)
I0824 16:10:42.818006 41289 net.cpp:157] Top shape: 4 128 90 120 (5529600)
I0824 16:10:42.818011 41289 net.cpp:165] Memory required for data: 2286489600
I0824 16:10:42.818014 41289 layer_factory.hpp:77] Creating layer conv3_1
I0824 16:10:42.818025 41289 net.cpp:100] Creating Layer conv3_1
I0824 16:10:42.818030 41289 net.cpp:434] conv3_1 <- pool2
I0824 16:10:42.818037 41289 net.cpp:408] conv3_1 -> conv3_1
I0824 16:10:42.830279 41289 net.cpp:150] Setting up conv3_1
I0824 16:10:42.830310 41289 net.cpp:157] Top shape: 4 256 90 120 (11059200)
I0824 16:10:42.830322 41289 net.cpp:165] Memory required for data: 2330726400
I0824 16:10:42.830330 41289 layer_factory.hpp:77] Creating layer conv3_1_bn_tmp
I0824 16:10:42.830339 41289 net.cpp:100] Creating Layer conv3_1_bn_tmp
I0824 16:10:42.830343 41289 net.cpp:434] conv3_1_bn_tmp <- conv3_1
I0824 16:10:42.830350 41289 net.cpp:395] conv3_1_bn_tmp -> conv3_1 (in-place)
I0824 16:10:42.830574 41289 net.cpp:150] Setting up conv3_1_bn_tmp
I0824 16:10:42.830581 41289 net.cpp:157] Top shape: 4 256 90 120 (11059200)
I0824 16:10:42.830585 41289 net.cpp:165] Memory required for data: 2374963200
I0824 16:10:42.830600 41289 layer_factory.hpp:77] Creating layer conv3_1_scale
I0824 16:10:42.830610 41289 net.cpp:100] Creating Layer conv3_1_scale
I0824 16:10:42.830617 41289 net.cpp:434] conv3_1_scale <- conv3_1
I0824 16:10:42.830622 41289 net.cpp:395] conv3_1_scale -> conv3_1 (in-place)
I0824 16:10:42.830665 41289 layer_factory.hpp:77] Creating layer conv3_1_scale
I0824 16:10:42.830802 41289 net.cpp:150] Setting up conv3_1_scale
I0824 16:10:42.830811 41289 net.cpp:157] Top shape: 4 256 90 120 (11059200)
I0824 16:10:42.830813 41289 net.cpp:165] Memory required for data: 2419200000
I0824 16:10:42.830821 41289 layer_factory.hpp:77] Creating layer relu3_1
I0824 16:10:42.830828 41289 net.cpp:100] Creating Layer relu3_1
I0824 16:10:42.830833 41289 net.cpp:434] relu3_1 <- conv3_1
I0824 16:10:42.830839 41289 net.cpp:395] relu3_1 -> conv3_1 (in-place)
I0824 16:10:42.831040 41289 net.cpp:150] Setting up relu3_1
I0824 16:10:42.831049 41289 net.cpp:157] Top shape: 4 256 90 120 (11059200)
I0824 16:10:42.831054 41289 net.cpp:165] Memory required for data: 2463436800
I0824 16:10:42.831058 41289 layer_factory.hpp:77] Creating layer conv3_2
I0824 16:10:42.831069 41289 net.cpp:100] Creating Layer conv3_2
I0824 16:10:42.831074 41289 net.cpp:434] conv3_2 <- conv3_1
I0824 16:10:42.831082 41289 net.cpp:408] conv3_2 -> conv3_2
I0824 16:10:42.854885 41289 net.cpp:150] Setting up conv3_2
I0824 16:10:42.854903 41289 net.cpp:157] Top shape: 4 256 90 120 (11059200)
I0824 16:10:42.854907 41289 net.cpp:165] Memory required for data: 2507673600
I0824 16:10:42.854923 41289 layer_factory.hpp:77] Creating layer conv3_2_bn_tmp
I0824 16:10:42.854934 41289 net.cpp:100] Creating Layer conv3_2_bn_tmp
I0824 16:10:42.854943 41289 net.cpp:434] conv3_2_bn_tmp <- conv3_2
I0824 16:10:42.854949 41289 net.cpp:395] conv3_2_bn_tmp -> conv3_2 (in-place)
I0824 16:10:42.855167 41289 net.cpp:150] Setting up conv3_2_bn_tmp
I0824 16:10:42.855175 41289 net.cpp:157] Top shape: 4 256 90 120 (11059200)
I0824 16:10:42.855180 41289 net.cpp:165] Memory required for data: 2551910400
I0824 16:10:42.855188 41289 layer_factory.hpp:77] Creating layer conv3_2_scale
I0824 16:10:42.855197 41289 net.cpp:100] Creating Layer conv3_2_scale
I0824 16:10:42.855206 41289 net.cpp:434] conv3_2_scale <- conv3_2
I0824 16:10:42.855211 41289 net.cpp:395] conv3_2_scale -> conv3_2 (in-place)
I0824 16:10:42.855254 41289 layer_factory.hpp:77] Creating layer conv3_2_scale
I0824 16:10:42.855397 41289 net.cpp:150] Setting up conv3_2_scale
I0824 16:10:42.855406 41289 net.cpp:157] Top shape: 4 256 90 120 (11059200)
I0824 16:10:42.855409 41289 net.cpp:165] Memory required for data: 2596147200
I0824 16:10:42.855417 41289 layer_factory.hpp:77] Creating layer relu3_2
I0824 16:10:42.855425 41289 net.cpp:100] Creating Layer relu3_2
I0824 16:10:42.855430 41289 net.cpp:434] relu3_2 <- conv3_2
I0824 16:10:42.855435 41289 net.cpp:395] relu3_2 -> conv3_2 (in-place)
I0824 16:10:42.855643 41289 net.cpp:150] Setting up relu3_2
I0824 16:10:42.855653 41289 net.cpp:157] Top shape: 4 256 90 120 (11059200)
I0824 16:10:42.855657 41289 net.cpp:165] Memory required for data: 2640384000
I0824 16:10:42.855661 41289 layer_factory.hpp:77] Creating layer conv3_3
I0824 16:10:42.855674 41289 net.cpp:100] Creating Layer conv3_3
I0824 16:10:42.855679 41289 net.cpp:434] conv3_3 <- conv3_2
I0824 16:10:42.855686 41289 net.cpp:408] conv3_3 -> conv3_3
I0824 16:10:42.878991 41289 net.cpp:150] Setting up conv3_3
I0824 16:10:42.879025 41289 net.cpp:157] Top shape: 4 256 90 120 (11059200)
I0824 16:10:42.879039 41289 net.cpp:165] Memory required for data: 2684620800
I0824 16:10:42.879047 41289 layer_factory.hpp:77] Creating layer conv3_3_bn_tmp
I0824 16:10:42.879062 41289 net.cpp:100] Creating Layer conv3_3_bn_tmp
I0824 16:10:42.879070 41289 net.cpp:434] conv3_3_bn_tmp <- conv3_3
I0824 16:10:42.879076 41289 net.cpp:395] conv3_3_bn_tmp -> conv3_3 (in-place)
I0824 16:10:42.879303 41289 net.cpp:150] Setting up conv3_3_bn_tmp
I0824 16:10:42.879312 41289 net.cpp:157] Top shape: 4 256 90 120 (11059200)
I0824 16:10:42.879315 41289 net.cpp:165] Memory required for data: 2728857600
I0824 16:10:42.879329 41289 layer_factory.hpp:77] Creating layer conv3_3_scale
I0824 16:10:42.879339 41289 net.cpp:100] Creating Layer conv3_3_scale
I0824 16:10:42.879344 41289 net.cpp:434] conv3_3_scale <- conv3_3
I0824 16:10:42.879350 41289 net.cpp:395] conv3_3_scale -> conv3_3 (in-place)
I0824 16:10:42.879395 41289 layer_factory.hpp:77] Creating layer conv3_3_scale
I0824 16:10:42.879541 41289 net.cpp:150] Setting up conv3_3_scale
I0824 16:10:42.879549 41289 net.cpp:157] Top shape: 4 256 90 120 (11059200)
I0824 16:10:42.879554 41289 net.cpp:165] Memory required for data: 2773094400
I0824 16:10:42.879561 41289 layer_factory.hpp:77] Creating layer relu3_3
I0824 16:10:42.879570 41289 net.cpp:100] Creating Layer relu3_3
I0824 16:10:42.879575 41289 net.cpp:434] relu3_3 <- conv3_3
I0824 16:10:42.879581 41289 net.cpp:395] relu3_3 -> conv3_3 (in-place)
I0824 16:10:42.879787 41289 net.cpp:150] Setting up relu3_3
I0824 16:10:42.879796 41289 net.cpp:157] Top shape: 4 256 90 120 (11059200)
I0824 16:10:42.879801 41289 net.cpp:165] Memory required for data: 2817331200
I0824 16:10:42.879806 41289 layer_factory.hpp:77] Creating layer pool3
I0824 16:10:42.879811 41289 layer_factory.cpp:91] cuDNN does not support multiple tops. Using Caffe's own pooling layer.
I0824 16:10:42.879824 41289 net.cpp:100] Creating Layer pool3
I0824 16:10:42.879829 41289 net.cpp:434] pool3 <- conv3_3
I0824 16:10:42.879837 41289 net.cpp:408] pool3 -> pool3
I0824 16:10:42.879847 41289 net.cpp:408] pool3 -> pool3_mask
I0824 16:10:42.879897 41289 net.cpp:150] Setting up pool3
I0824 16:10:42.879904 41289 net.cpp:157] Top shape: 4 256 45 60 (2764800)
I0824 16:10:42.879912 41289 net.cpp:157] Top shape: 4 256 45 60 (2764800)
I0824 16:10:42.879917 41289 net.cpp:165] Memory required for data: 2839449600
I0824 16:10:42.879920 41289 layer_factory.hpp:77] Creating layer conv4_1
I0824 16:10:42.879933 41289 net.cpp:100] Creating Layer conv4_1
I0824 16:10:42.879938 41289 net.cpp:434] conv4_1 <- pool3
I0824 16:10:42.879946 41289 net.cpp:408] conv4_1 -> conv4_1
I0824 16:10:42.927055 41289 net.cpp:150] Setting up conv4_1
I0824 16:10:42.927081 41289 net.cpp:157] Top shape: 4 512 45 60 (5529600)
I0824 16:10:42.927086 41289 net.cpp:165] Memory required for data: 2861568000
I0824 16:10:42.927096 41289 layer_factory.hpp:77] Creating layer conv4_1_bn_tmp
I0824 16:10:42.927114 41289 net.cpp:100] Creating Layer conv4_1_bn_tmp
I0824 16:10:42.927121 41289 net.cpp:434] conv4_1_bn_tmp <- conv4_1
I0824 16:10:42.927129 41289 net.cpp:395] conv4_1_bn_tmp -> conv4_1 (in-place)
I0824 16:10:42.927352 41289 net.cpp:150] Setting up conv4_1_bn_tmp
I0824 16:10:42.927361 41289 net.cpp:157] Top shape: 4 512 45 60 (5529600)
I0824 16:10:42.927364 41289 net.cpp:165] Memory required for data: 2883686400
I0824 16:10:42.927373 41289 layer_factory.hpp:77] Creating layer conv4_1_scale
I0824 16:10:42.927386 41289 net.cpp:100] Creating Layer conv4_1_scale
I0824 16:10:42.927393 41289 net.cpp:434] conv4_1_scale <- conv4_1
I0824 16:10:42.927399 41289 net.cpp:395] conv4_1_scale -> conv4_1 (in-place)
I0824 16:10:42.927448 41289 layer_factory.hpp:77] Creating layer conv4_1_scale
I0824 16:10:42.927582 41289 net.cpp:150] Setting up conv4_1_scale
I0824 16:10:42.927590 41289 net.cpp:157] Top shape: 4 512 45 60 (5529600)
I0824 16:10:42.927593 41289 net.cpp:165] Memory required for data: 2905804800
I0824 16:10:42.927600 41289 layer_factory.hpp:77] Creating layer relu4_1
I0824 16:10:42.927628 41289 net.cpp:100] Creating Layer relu4_1
I0824 16:10:42.927634 41289 net.cpp:434] relu4_1 <- conv4_1
I0824 16:10:42.927639 41289 net.cpp:395] relu4_1 -> conv4_1 (in-place)
I0824 16:10:42.927855 41289 net.cpp:150] Setting up relu4_1
I0824 16:10:42.927865 41289 net.cpp:157] Top shape: 4 512 45 60 (5529600)
I0824 16:10:42.927868 41289 net.cpp:165] Memory required for data: 2927923200
I0824 16:10:42.927872 41289 layer_factory.hpp:77] Creating layer conv4_2
I0824 16:10:42.927886 41289 net.cpp:100] Creating Layer conv4_2
I0824 16:10:42.927891 41289 net.cpp:434] conv4_2 <- conv4_1
I0824 16:10:42.927899 41289 net.cpp:408] conv4_2 -> conv4_2
I0824 16:10:43.012351 41289 net.cpp:150] Setting up conv4_2
I0824 16:10:43.012382 41289 net.cpp:157] Top shape: 4 512 45 60 (5529600)
I0824 16:10:43.012388 41289 net.cpp:165] Memory required for data: 2950041600
I0824 16:10:43.012399 41289 layer_factory.hpp:77] Creating layer conv4_2_bn_tmp
I0824 16:10:43.012413 41289 net.cpp:100] Creating Layer conv4_2_bn_tmp
I0824 16:10:43.012421 41289 net.cpp:434] conv4_2_bn_tmp <- conv4_2
I0824 16:10:43.012435 41289 net.cpp:395] conv4_2_bn_tmp -> conv4_2 (in-place)
I0824 16:10:43.012660 41289 net.cpp:150] Setting up conv4_2_bn_tmp
I0824 16:10:43.012668 41289 net.cpp:157] Top shape: 4 512 45 60 (5529600)
I0824 16:10:43.012672 41289 net.cpp:165] Memory required for data: 2972160000
I0824 16:10:43.012682 41289 layer_factory.hpp:77] Creating layer conv4_2_scale
I0824 16:10:43.012693 41289 net.cpp:100] Creating Layer conv4_2_scale
I0824 16:10:43.012699 41289 net.cpp:434] conv4_2_scale <- conv4_2
I0824 16:10:43.012706 41289 net.cpp:395] conv4_2_scale -> conv4_2 (in-place)
I0824 16:10:43.012748 41289 layer_factory.hpp:77] Creating layer conv4_2_scale
I0824 16:10:43.012884 41289 net.cpp:150] Setting up conv4_2_scale
I0824 16:10:43.012892 41289 net.cpp:157] Top shape: 4 512 45 60 (5529600)
I0824 16:10:43.012895 41289 net.cpp:165] Memory required for data: 2994278400
I0824 16:10:43.012903 41289 layer_factory.hpp:77] Creating layer relu4_2
I0824 16:10:43.012913 41289 net.cpp:100] Creating Layer relu4_2
I0824 16:10:43.012918 41289 net.cpp:434] relu4_2 <- conv4_2
I0824 16:10:43.012924 41289 net.cpp:395] relu4_2 -> conv4_2 (in-place)
I0824 16:10:43.014034 41289 net.cpp:150] Setting up relu4_2
I0824 16:10:43.014048 41289 net.cpp:157] Top shape: 4 512 45 60 (5529600)
I0824 16:10:43.014055 41289 net.cpp:165] Memory required for data: 3016396800
I0824 16:10:43.014060 41289 layer_factory.hpp:77] Creating layer conv4_3
I0824 16:10:43.014075 41289 net.cpp:100] Creating Layer conv4_3
I0824 16:10:43.014081 41289 net.cpp:434] conv4_3 <- conv4_2
I0824 16:10:43.014088 41289 net.cpp:408] conv4_3 -> conv4_3
I0824 16:10:43.101204 41289 net.cpp:150] Setting up conv4_3
I0824 16:10:43.101241 41289 net.cpp:157] Top shape: 4 512 45 60 (5529600)
I0824 16:10:43.101253 41289 net.cpp:165] Memory required for data: 3038515200
I0824 16:10:43.101287 41289 layer_factory.hpp:77] Creating layer conv4_3_bn_tmp
I0824 16:10:43.101305 41289 net.cpp:100] Creating Layer conv4_3_bn_tmp
I0824 16:10:43.101320 41289 net.cpp:434] conv4_3_bn_tmp <- conv4_3
I0824 16:10:43.101328 41289 net.cpp:395] conv4_3_bn_tmp -> conv4_3 (in-place)
I0824 16:10:43.101584 41289 net.cpp:150] Setting up conv4_3_bn_tmp
I0824 16:10:43.101593 41289 net.cpp:157] Top shape: 4 512 45 60 (5529600)
I0824 16:10:43.101598 41289 net.cpp:165] Memory required for data: 3060633600
I0824 16:10:43.101608 41289 layer_factory.hpp:77] Creating layer conv4_3_scale
I0824 16:10:43.101622 41289 net.cpp:100] Creating Layer conv4_3_scale
I0824 16:10:43.101629 41289 net.cpp:434] conv4_3_scale <- conv4_3
I0824 16:10:43.101634 41289 net.cpp:395] conv4_3_scale -> conv4_3 (in-place)
I0824 16:10:43.101681 41289 layer_factory.hpp:77] Creating layer conv4_3_scale
I0824 16:10:43.101822 41289 net.cpp:150] Setting up conv4_3_scale
I0824 16:10:43.101830 41289 net.cpp:157] Top shape: 4 512 45 60 (5529600)
I0824 16:10:43.101833 41289 net.cpp:165] Memory required for data: 3082752000
I0824 16:10:43.101842 41289 layer_factory.hpp:77] Creating layer relu4_3
I0824 16:10:43.101876 41289 net.cpp:100] Creating Layer relu4_3
I0824 16:10:43.101881 41289 net.cpp:434] relu4_3 <- conv4_3
I0824 16:10:43.101887 41289 net.cpp:395] relu4_3 -> conv4_3 (in-place)
I0824 16:10:43.102090 41289 net.cpp:150] Setting up relu4_3
I0824 16:10:43.102100 41289 net.cpp:157] Top shape: 4 512 45 60 (5529600)
I0824 16:10:43.102104 41289 net.cpp:165] Memory required for data: 3104870400
I0824 16:10:43.102109 41289 layer_factory.hpp:77] Creating layer pool4
I0824 16:10:43.102114 41289 layer_factory.cpp:91] cuDNN does not support multiple tops. Using Caffe's own pooling layer.
I0824 16:10:43.102121 41289 net.cpp:100] Creating Layer pool4
I0824 16:10:43.102126 41289 net.cpp:434] pool4 <- conv4_3
I0824 16:10:43.102136 41289 net.cpp:408] pool4 -> pool4
I0824 16:10:43.102146 41289 net.cpp:408] pool4 -> pool4_mask
I0824 16:10:43.102197 41289 net.cpp:150] Setting up pool4
I0824 16:10:43.102205 41289 net.cpp:157] Top shape: 4 512 23 30 (1413120)
I0824 16:10:43.102210 41289 net.cpp:157] Top shape: 4 512 23 30 (1413120)
I0824 16:10:43.102214 41289 net.cpp:165] Memory required for data: 3116175360
I0824 16:10:43.102217 41289 layer_factory.hpp:77] Creating layer conv5_1
I0824 16:10:43.102233 41289 net.cpp:100] Creating Layer conv5_1
I0824 16:10:43.102238 41289 net.cpp:434] conv5_1 <- pool4
I0824 16:10:43.102246 41289 net.cpp:408] conv5_1 -> conv5_1
I0824 16:10:43.187117 41289 net.cpp:150] Setting up conv5_1
I0824 16:10:43.187150 41289 net.cpp:157] Top shape: 4 512 23 30 (1413120)
I0824 16:10:43.187155 41289 net.cpp:165] Memory required for data: 3121827840
I0824 16:10:43.187175 41289 layer_factory.hpp:77] Creating layer conv5_1_bn_tmp
I0824 16:10:43.187192 41289 net.cpp:100] Creating Layer conv5_1_bn_tmp
I0824 16:10:43.187201 41289 net.cpp:434] conv5_1_bn_tmp <- conv5_1
I0824 16:10:43.187216 41289 net.cpp:395] conv5_1_bn_tmp -> conv5_1 (in-place)
I0824 16:10:43.187443 41289 net.cpp:150] Setting up conv5_1_bn_tmp
I0824 16:10:43.187451 41289 net.cpp:157] Top shape: 4 512 23 30 (1413120)
I0824 16:10:43.187455 41289 net.cpp:165] Memory required for data: 3127480320
I0824 16:10:43.187465 41289 layer_factory.hpp:77] Creating layer conv5_1_scale
I0824 16:10:43.187476 41289 net.cpp:100] Creating Layer conv5_1_scale
I0824 16:10:43.187481 41289 net.cpp:434] conv5_1_scale <- conv5_1
I0824 16:10:43.187489 41289 net.cpp:395] conv5_1_scale -> conv5_1 (in-place)
I0824 16:10:43.187537 41289 layer_factory.hpp:77] Creating layer conv5_1_scale
I0824 16:10:43.187661 41289 net.cpp:150] Setting up conv5_1_scale
I0824 16:10:43.187669 41289 net.cpp:157] Top shape: 4 512 23 30 (1413120)
I0824 16:10:43.187672 41289 net.cpp:165] Memory required for data: 3133132800
I0824 16:10:43.187680 41289 layer_factory.hpp:77] Creating layer relu5_1
I0824 16:10:43.187690 41289 net.cpp:100] Creating Layer relu5_1
I0824 16:10:43.187693 41289 net.cpp:434] relu5_1 <- conv5_1
I0824 16:10:43.187700 41289 net.cpp:395] relu5_1 -> conv5_1 (in-place)
I0824 16:10:43.187898 41289 net.cpp:150] Setting up relu5_1
I0824 16:10:43.187907 41289 net.cpp:157] Top shape: 4 512 23 30 (1413120)
I0824 16:10:43.187912 41289 net.cpp:165] Memory required for data: 3138785280
I0824 16:10:43.187916 41289 layer_factory.hpp:77] Creating layer conv5_2
I0824 16:10:43.187932 41289 net.cpp:100] Creating Layer conv5_2
I0824 16:10:43.187937 41289 net.cpp:434] conv5_2 <- conv5_1
I0824 16:10:43.187944 41289 net.cpp:408] conv5_2 -> conv5_2
I0824 16:10:43.272956 41289 net.cpp:150] Setting up conv5_2
I0824 16:10:43.272989 41289 net.cpp:157] Top shape: 4 512 23 30 (1413120)
I0824 16:10:43.272994 41289 net.cpp:165] Memory required for data: 3144437760
I0824 16:10:43.273005 41289 layer_factory.hpp:77] Creating layer conv5_2_bn_tmp
I0824 16:10:43.273025 41289 net.cpp:100] Creating Layer conv5_2_bn_tmp
I0824 16:10:43.273032 41289 net.cpp:434] conv5_2_bn_tmp <- conv5_2
I0824 16:10:43.273046 41289 net.cpp:395] conv5_2_bn_tmp -> conv5_2 (in-place)
I0824 16:10:43.273267 41289 net.cpp:150] Setting up conv5_2_bn_tmp
I0824 16:10:43.273273 41289 net.cpp:157] Top shape: 4 512 23 30 (1413120)
I0824 16:10:43.273300 41289 net.cpp:165] Memory required for data: 3150090240
I0824 16:10:43.273315 41289 layer_factory.hpp:77] Creating layer conv5_2_scale
I0824 16:10:43.273327 41289 net.cpp:100] Creating Layer conv5_2_scale
I0824 16:10:43.273332 41289 net.cpp:434] conv5_2_scale <- conv5_2
I0824 16:10:43.273339 41289 net.cpp:395] conv5_2_scale -> conv5_2 (in-place)
I0824 16:10:43.273414 41289 layer_factory.hpp:77] Creating layer conv5_2_scale
I0824 16:10:43.273542 41289 net.cpp:150] Setting up conv5_2_scale
I0824 16:10:43.273550 41289 net.cpp:157] Top shape: 4 512 23 30 (1413120)
I0824 16:10:43.273555 41289 net.cpp:165] Memory required for data: 3155742720
I0824 16:10:43.273561 41289 layer_factory.hpp:77] Creating layer relu5_2
I0824 16:10:43.273571 41289 net.cpp:100] Creating Layer relu5_2
I0824 16:10:43.273576 41289 net.cpp:434] relu5_2 <- conv5_2
I0824 16:10:43.273581 41289 net.cpp:395] relu5_2 -> conv5_2 (in-place)
I0824 16:10:43.273780 41289 net.cpp:150] Setting up relu5_2
I0824 16:10:43.273788 41289 net.cpp:157] Top shape: 4 512 23 30 (1413120)
I0824 16:10:43.273792 41289 net.cpp:165] Memory required for data: 3161395200
I0824 16:10:43.273795 41289 layer_factory.hpp:77] Creating layer conv5_3
I0824 16:10:43.273813 41289 net.cpp:100] Creating Layer conv5_3
I0824 16:10:43.273818 41289 net.cpp:434] conv5_3 <- conv5_2
I0824 16:10:43.273824 41289 net.cpp:408] conv5_3 -> conv5_3
I0824 16:10:43.359069 41289 net.cpp:150] Setting up conv5_3
I0824 16:10:43.359102 41289 net.cpp:157] Top shape: 4 512 23 30 (1413120)
I0824 16:10:43.359107 41289 net.cpp:165] Memory required for data: 3167047680
I0824 16:10:43.359127 41289 layer_factory.hpp:77] Creating layer conv5_3_bn_tmp
I0824 16:10:43.359140 41289 net.cpp:100] Creating Layer conv5_3_bn_tmp
I0824 16:10:43.359149 41289 net.cpp:434] conv5_3_bn_tmp <- conv5_3
I0824 16:10:43.359165 41289 net.cpp:395] conv5_3_bn_tmp -> conv5_3 (in-place)
I0824 16:10:43.359401 41289 net.cpp:150] Setting up conv5_3_bn_tmp
I0824 16:10:43.359410 41289 net.cpp:157] Top shape: 4 512 23 30 (1413120)
I0824 16:10:43.359413 41289 net.cpp:165] Memory required for data: 3172700160
I0824 16:10:43.359426 41289 layer_factory.hpp:77] Creating layer conv5_3_scale
I0824 16:10:43.359436 41289 net.cpp:100] Creating Layer conv5_3_scale
I0824 16:10:43.359441 41289 net.cpp:434] conv5_3_scale <- conv5_3
I0824 16:10:43.359447 41289 net.cpp:395] conv5_3_scale -> conv5_3 (in-place)
I0824 16:10:43.359498 41289 layer_factory.hpp:77] Creating layer conv5_3_scale
I0824 16:10:43.359633 41289 net.cpp:150] Setting up conv5_3_scale
I0824 16:10:43.359642 41289 net.cpp:157] Top shape: 4 512 23 30 (1413120)
I0824 16:10:43.359644 41289 net.cpp:165] Memory required for data: 3178352640
I0824 16:10:43.359652 41289 layer_factory.hpp:77] Creating layer relu5_3
I0824 16:10:43.359665 41289 net.cpp:100] Creating Layer relu5_3
I0824 16:10:43.359670 41289 net.cpp:434] relu5_3 <- conv5_3
I0824 16:10:43.359675 41289 net.cpp:395] relu5_3 -> conv5_3 (in-place)
I0824 16:10:43.359889 41289 net.cpp:150] Setting up relu5_3
I0824 16:10:43.359899 41289 net.cpp:157] Top shape: 4 512 23 30 (1413120)
I0824 16:10:43.359902 41289 net.cpp:165] Memory required for data: 3184005120
I0824 16:10:43.359907 41289 layer_factory.hpp:77] Creating layer pool5
I0824 16:10:43.359912 41289 layer_factory.cpp:91] cuDNN does not support multiple tops. Using Caffe's own pooling layer.
I0824 16:10:43.359921 41289 net.cpp:100] Creating Layer pool5
I0824 16:10:43.359926 41289 net.cpp:434] pool5 <- conv5_3
I0824 16:10:43.359933 41289 net.cpp:408] pool5 -> pool5
I0824 16:10:43.359942 41289 net.cpp:408] pool5 -> pool5_mask
I0824 16:10:43.359994 41289 net.cpp:150] Setting up pool5
I0824 16:10:43.360002 41289 net.cpp:157] Top shape: 4 512 12 15 (368640)
I0824 16:10:43.360005 41289 net.cpp:157] Top shape: 4 512 12 15 (368640)
I0824 16:10:43.360009 41289 net.cpp:165] Memory required for data: 3186954240
I0824 16:10:43.360013 41289 layer_factory.hpp:77] Creating layer upsample5
I0824 16:10:43.360026 41289 net.cpp:100] Creating Layer upsample5
I0824 16:10:43.360031 41289 net.cpp:434] upsample5 <- pool5
I0824 16:10:43.360059 41289 net.cpp:434] upsample5 <- pool5_mask
I0824 16:10:43.360069 41289 net.cpp:408] upsample5 -> pool5_D
I0824 16:10:43.360108 41289 net.cpp:150] Setting up upsample5
I0824 16:10:43.360116 41289 net.cpp:157] Top shape: 4 512 23 30 (1413120)
I0824 16:10:43.360118 41289 net.cpp:165] Memory required for data: 3192606720
I0824 16:10:43.360123 41289 layer_factory.hpp:77] Creating layer conv5_3_D
I0824 16:10:43.360141 41289 net.cpp:100] Creating Layer conv5_3_D
I0824 16:10:43.360146 41289 net.cpp:434] conv5_3_D <- pool5_D
I0824 16:10:43.360155 41289 net.cpp:408] conv5_3_D -> conv5_3_D
I0824 16:10:43.446179 41289 net.cpp:150] Setting up conv5_3_D
I0824 16:10:43.446213 41289 net.cpp:157] Top shape: 4 512 23 30 (1413120)
I0824 16:10:43.446216 41289 net.cpp:165] Memory required for data: 3198259200
I0824 16:10:43.446228 41289 layer_factory.hpp:77] Creating layer conv5_3_D_bn_tmp
I0824 16:10:43.446249 41289 net.cpp:100] Creating Layer conv5_3_D_bn_tmp
I0824 16:10:43.446257 41289 net.cpp:434] conv5_3_D_bn_tmp <- conv5_3_D
I0824 16:10:43.446271 41289 net.cpp:395] conv5_3_D_bn_tmp -> conv5_3_D (in-place)
I0824 16:10:43.446513 41289 net.cpp:150] Setting up conv5_3_D_bn_tmp
I0824 16:10:43.446522 41289 net.cpp:157] Top shape: 4 512 23 30 (1413120)
I0824 16:10:43.446526 41289 net.cpp:165] Memory required for data: 3203911680
I0824 16:10:43.446534 41289 layer_factory.hpp:77] Creating layer conv5_3_D_scale
I0824 16:10:43.446544 41289 net.cpp:100] Creating Layer conv5_3_D_scale
I0824 16:10:43.446549 41289 net.cpp:434] conv5_3_D_scale <- conv5_3_D
I0824 16:10:43.446557 41289 net.cpp:395] conv5_3_D_scale -> conv5_3_D (in-place)
I0824 16:10:43.446605 41289 layer_factory.hpp:77] Creating layer conv5_3_D_scale
I0824 16:10:43.446743 41289 net.cpp:150] Setting up conv5_3_D_scale
I0824 16:10:43.446751 41289 net.cpp:157] Top shape: 4 512 23 30 (1413120)
I0824 16:10:43.446754 41289 net.cpp:165] Memory required for data: 3209564160
I0824 16:10:43.446763 41289 layer_factory.hpp:77] Creating layer relu5_3_D
I0824 16:10:43.446776 41289 net.cpp:100] Creating Layer relu5_3_D
I0824 16:10:43.446781 41289 net.cpp:434] relu5_3_D <- conv5_3_D
I0824 16:10:43.446786 41289 net.cpp:395] relu5_3_D -> conv5_3_D (in-place)
I0824 16:10:43.447011 41289 net.cpp:150] Setting up relu5_3_D
I0824 16:10:43.447023 41289 net.cpp:157] Top shape: 4 512 23 30 (1413120)
I0824 16:10:43.447028 41289 net.cpp:165] Memory required for data: 3215216640
I0824 16:10:43.447034 41289 layer_factory.hpp:77] Creating layer conv5_2_D
I0824 16:10:43.447072 41289 net.cpp:100] Creating Layer conv5_2_D
I0824 16:10:43.447078 41289 net.cpp:434] conv5_2_D <- conv5_3_D
I0824 16:10:43.447084 41289 net.cpp:408] conv5_2_D -> conv5_2_D
I0824 16:10:43.533087 41289 net.cpp:150] Setting up conv5_2_D
I0824 16:10:43.533118 41289 net.cpp:157] Top shape: 4 512 23 30 (1413120)
I0824 16:10:43.533123 41289 net.cpp:165] Memory required for data: 3220869120
I0824 16:10:43.533135 41289 layer_factory.hpp:77] Creating layer conv5_2_D_bn_tmp
I0824 16:10:43.533156 41289 net.cpp:100] Creating Layer conv5_2_D_bn_tmp
I0824 16:10:43.533164 41289 net.cpp:434] conv5_2_D_bn_tmp <- conv5_2_D
I0824 16:10:43.533177 41289 net.cpp:395] conv5_2_D_bn_tmp -> conv5_2_D (in-place)
I0824 16:10:43.533453 41289 net.cpp:150] Setting up conv5_2_D_bn_tmp
I0824 16:10:43.533463 41289 net.cpp:157] Top shape: 4 512 23 30 (1413120)
I0824 16:10:43.533466 41289 net.cpp:165] Memory required for data: 3226521600
I0824 16:10:43.533478 41289 layer_factory.hpp:77] Creating layer conv5_2_D_scale
I0824 16:10:43.533493 41289 net.cpp:100] Creating Layer conv5_2_D_scale
I0824 16:10:43.533498 41289 net.cpp:434] conv5_2_D_scale <- conv5_2_D
I0824 16:10:43.533504 41289 net.cpp:395] conv5_2_D_scale -> conv5_2_D (in-place)
I0824 16:10:43.533555 41289 layer_factory.hpp:77] Creating layer conv5_2_D_scale
I0824 16:10:43.533690 41289 net.cpp:150] Setting up conv5_2_D_scale
I0824 16:10:43.533697 41289 net.cpp:157] Top shape: 4 512 23 30 (1413120)
I0824 16:10:43.533701 41289 net.cpp:165] Memory required for data: 3232174080
I0824 16:10:43.533731 41289 layer_factory.hpp:77] Creating layer relu5_2_D
I0824 16:10:43.533743 41289 net.cpp:100] Creating Layer relu5_2_D
I0824 16:10:43.533748 41289 net.cpp:434] relu5_2_D <- conv5_2_D
I0824 16:10:43.533753 41289 net.cpp:395] relu5_2_D -> conv5_2_D (in-place)
I0824 16:10:43.534843 41289 net.cpp:150] Setting up relu5_2_D
I0824 16:10:43.534860 41289 net.cpp:157] Top shape: 4 512 23 30 (1413120)
I0824 16:10:43.534865 41289 net.cpp:165] Memory required for data: 3237826560
I0824 16:10:43.534871 41289 layer_factory.hpp:77] Creating layer conv5_1_D
I0824 16:10:43.534888 41289 net.cpp:100] Creating Layer conv5_1_D
I0824 16:10:43.534894 41289 net.cpp:434] conv5_1_D <- conv5_2_D
I0824 16:10:43.534901 41289 net.cpp:408] conv5_1_D -> conv5_1_D
I0824 16:10:43.621390 41289 net.cpp:150] Setting up conv5_1_D
I0824 16:10:43.621429 41289 net.cpp:157] Top shape: 4 512 23 30 (1413120)
I0824 16:10:43.621434 41289 net.cpp:165] Memory required for data: 3243479040
I0824 16:10:43.621453 41289 layer_factory.hpp:77] Creating layer conv5_1_D_bn_tmp
I0824 16:10:43.621472 41289 net.cpp:100] Creating Layer conv5_1_D_bn_tmp
I0824 16:10:43.621487 41289 net.cpp:434] conv5_1_D_bn_tmp <- conv5_1_D
I0824 16:10:43.621496 41289 net.cpp:395] conv5_1_D_bn_tmp -> conv5_1_D (in-place)
I0824 16:10:43.621745 41289 net.cpp:150] Setting up conv5_1_D_bn_tmp
I0824 16:10:43.621753 41289 net.cpp:157] Top shape: 4 512 23 30 (1413120)
I0824 16:10:43.621757 41289 net.cpp:165] Memory required for data: 3249131520
I0824 16:10:43.621767 41289 layer_factory.hpp:77] Creating layer conv5_1_D_scale
I0824 16:10:43.621779 41289 net.cpp:100] Creating Layer conv5_1_D_scale
I0824 16:10:43.621785 41289 net.cpp:434] conv5_1_D_scale <- conv5_1_D
I0824 16:10:43.621790 41289 net.cpp:395] conv5_1_D_scale -> conv5_1_D (in-place)
I0824 16:10:43.621841 41289 layer_factory.hpp:77] Creating layer conv5_1_D_scale
I0824 16:10:43.621981 41289 net.cpp:150] Setting up conv5_1_D_scale
I0824 16:10:43.621989 41289 net.cpp:157] Top shape: 4 512 23 30 (1413120)
I0824 16:10:43.621994 41289 net.cpp:165] Memory required for data: 3254784000
I0824 16:10:43.622000 41289 layer_factory.hpp:77] Creating layer relu5_1_D
I0824 16:10:43.622009 41289 net.cpp:100] Creating Layer relu5_1_D
I0824 16:10:43.622014 41289 net.cpp:434] relu5_1_D <- conv5_1_D
I0824 16:10:43.622022 41289 net.cpp:395] relu5_1_D -> conv5_1_D (in-place)
I0824 16:10:43.622243 41289 net.cpp:150] Setting up relu5_1_D
I0824 16:10:43.622252 41289 net.cpp:157] Top shape: 4 512 23 30 (1413120)
I0824 16:10:43.622257 41289 net.cpp:165] Memory required for data: 3260436480
I0824 16:10:43.622263 41289 layer_factory.hpp:77] Creating layer upsample4
I0824 16:10:43.622272 41289 net.cpp:100] Creating Layer upsample4
I0824 16:10:43.622277 41289 net.cpp:434] upsample4 <- conv5_1_D
I0824 16:10:43.622288 41289 net.cpp:434] upsample4 <- pool4_mask
I0824 16:10:43.622297 41289 net.cpp:408] upsample4 -> pool4_D
I0824 16:10:43.622334 41289 net.cpp:150] Setting up upsample4
I0824 16:10:43.622341 41289 net.cpp:157] Top shape: 4 512 45 60 (5529600)
I0824 16:10:43.622344 41289 net.cpp:165] Memory required for data: 3282554880
I0824 16:10:43.622347 41289 layer_factory.hpp:77] Creating layer conv4_3_D
I0824 16:10:43.622365 41289 net.cpp:100] Creating Layer conv4_3_D
I0824 16:10:43.622371 41289 net.cpp:434] conv4_3_D <- pool4_D
I0824 16:10:43.622380 41289 net.cpp:408] conv4_3_D -> conv4_3_D
I0824 16:10:43.706794 41289 net.cpp:150] Setting up conv4_3_D
I0824 16:10:43.706833 41289 net.cpp:157] Top shape: 4 512 45 60 (5529600)
I0824 16:10:43.706841 41289 net.cpp:165] Memory required for data: 3304673280
I0824 16:10:43.706852 41289 layer_factory.hpp:77] Creating layer conv4_3_D_bn_tmp
I0824 16:10:43.706869 41289 net.cpp:100] Creating Layer conv4_3_D_bn_tmp
I0824 16:10:43.706877 41289 net.cpp:434] conv4_3_D_bn_tmp <- conv4_3_D
I0824 16:10:43.706889 41289 net.cpp:395] conv4_3_D_bn_tmp -> conv4_3_D (in-place)
I0824 16:10:43.707150 41289 net.cpp:150] Setting up conv4_3_D_bn_tmp
I0824 16:10:43.707159 41289 net.cpp:157] Top shape: 4 512 45 60 (5529600)
I0824 16:10:43.707187 41289 net.cpp:165] Memory required for data: 3326791680
I0824 16:10:43.707196 41289 layer_factory.hpp:77] Creating layer conv4_3_D_scale
I0824 16:10:43.707206 41289 net.cpp:100] Creating Layer conv4_3_D_scale
I0824 16:10:43.707212 41289 net.cpp:434] conv4_3_D_scale <- conv4_3_D
I0824 16:10:43.707217 41289 net.cpp:395] conv4_3_D_scale -> conv4_3_D (in-place)
I0824 16:10:43.707268 41289 layer_factory.hpp:77] Creating layer conv4_3_D_scale
I0824 16:10:43.707422 41289 net.cpp:150] Setting up conv4_3_D_scale
I0824 16:10:43.707430 41289 net.cpp:157] Top shape: 4 512 45 60 (5529600)
I0824 16:10:43.707433 41289 net.cpp:165] Memory required for data: 3348910080
I0824 16:10:43.707440 41289 layer_factory.hpp:77] Creating layer relu4_3_D
I0824 16:10:43.707454 41289 net.cpp:100] Creating Layer relu4_3_D
I0824 16:10:43.707459 41289 net.cpp:434] relu4_3_D <- conv4_3_D
I0824 16:10:43.707468 41289 net.cpp:395] relu4_3_D -> conv4_3_D (in-place)
I0824 16:10:43.707677 41289 net.cpp:150] Setting up relu4_3_D
I0824 16:10:43.707686 41289 net.cpp:157] Top shape: 4 512 45 60 (5529600)
I0824 16:10:43.707691 41289 net.cpp:165] Memory required for data: 3371028480
I0824 16:10:43.707695 41289 layer_factory.hpp:77] Creating layer conv4_2_D
I0824 16:10:43.707710 41289 net.cpp:100] Creating Layer conv4_2_D
I0824 16:10:43.707715 41289 net.cpp:434] conv4_2_D <- conv4_3_D
I0824 16:10:43.707726 41289 net.cpp:408] conv4_2_D -> conv4_2_D
I0824 16:10:43.792004 41289 net.cpp:150] Setting up conv4_2_D
I0824 16:10:43.792037 41289 net.cpp:157] Top shape: 4 512 45 60 (5529600)
I0824 16:10:43.792042 41289 net.cpp:165] Memory required for data: 3393146880
I0824 16:10:43.792052 41289 layer_factory.hpp:77] Creating layer conv4_2_D_bn_tmp
I0824 16:10:43.792068 41289 net.cpp:100] Creating Layer conv4_2_D_bn_tmp
I0824 16:10:43.792076 41289 net.cpp:434] conv4_2_D_bn_tmp <- conv4_2_D
I0824 16:10:43.792088 41289 net.cpp:395] conv4_2_D_bn_tmp -> conv4_2_D (in-place)
I0824 16:10:43.792338 41289 net.cpp:150] Setting up conv4_2_D_bn_tmp
I0824 16:10:43.792347 41289 net.cpp:157] Top shape: 4 512 45 60 (5529600)
I0824 16:10:43.792351 41289 net.cpp:165] Memory required for data: 3415265280
I0824 16:10:43.792359 41289 layer_factory.hpp:77] Creating layer conv4_2_D_scale
I0824 16:10:43.792374 41289 net.cpp:100] Creating Layer conv4_2_D_scale
I0824 16:10:43.792379 41289 net.cpp:434] conv4_2_D_scale <- conv4_2_D
I0824 16:10:43.792387 41289 net.cpp:395] conv4_2_D_scale -> conv4_2_D (in-place)
I0824 16:10:43.792433 41289 layer_factory.hpp:77] Creating layer conv4_2_D_scale
I0824 16:10:43.792582 41289 net.cpp:150] Setting up conv4_2_D_scale
I0824 16:10:43.792589 41289 net.cpp:157] Top shape: 4 512 45 60 (5529600)
I0824 16:10:43.792593 41289 net.cpp:165] Memory required for data: 3437383680
I0824 16:10:43.792600 41289 layer_factory.hpp:77] Creating layer relu4_2_D
I0824 16:10:43.792610 41289 net.cpp:100] Creating Layer relu4_2_D
I0824 16:10:43.792616 41289 net.cpp:434] relu4_2_D <- conv4_2_D
I0824 16:10:43.792620 41289 net.cpp:395] relu4_2_D -> conv4_2_D (in-place)
I0824 16:10:43.792829 41289 net.cpp:150] Setting up relu4_2_D
I0824 16:10:43.792840 41289 net.cpp:157] Top shape: 4 512 45 60 (5529600)
I0824 16:10:43.792845 41289 net.cpp:165] Memory required for data: 3459502080
I0824 16:10:43.792847 41289 layer_factory.hpp:77] Creating layer conv4_1_D
I0824 16:10:43.792861 41289 net.cpp:100] Creating Layer conv4_1_D
I0824 16:10:43.792867 41289 net.cpp:434] conv4_1_D <- conv4_2_D
I0824 16:10:43.792874 41289 net.cpp:408] conv4_1_D -> conv4_1_D
I0824 16:10:43.836871 41289 net.cpp:150] Setting up conv4_1_D
I0824 16:10:43.836892 41289 net.cpp:157] Top shape: 4 256 45 60 (2764800)
I0824 16:10:43.836896 41289 net.cpp:165] Memory required for data: 3470561280
I0824 16:10:43.836905 41289 layer_factory.hpp:77] Creating layer conv4_1_D_bn_tmp
I0824 16:10:43.836922 41289 net.cpp:100] Creating Layer conv4_1_D_bn_tmp
I0824 16:10:43.836930 41289 net.cpp:434] conv4_1_D_bn_tmp <- conv4_1_D
I0824 16:10:43.836941 41289 net.cpp:395] conv4_1_D_bn_tmp -> conv4_1_D (in-place)
I0824 16:10:43.837184 41289 net.cpp:150] Setting up conv4_1_D_bn_tmp
I0824 16:10:43.837213 41289 net.cpp:157] Top shape: 4 256 45 60 (2764800)
I0824 16:10:43.837222 41289 net.cpp:165] Memory required for data: 3481620480
I0824 16:10:43.837318 41289 layer_factory.hpp:77] Creating layer conv4_1_D_scale
I0824 16:10:43.837327 41289 net.cpp:100] Creating Layer conv4_1_D_scale
I0824 16:10:43.837332 41289 net.cpp:434] conv4_1_D_scale <- conv4_1_D
I0824 16:10:43.837338 41289 net.cpp:395] conv4_1_D_scale -> conv4_1_D (in-place)
I0824 16:10:43.837414 41289 layer_factory.hpp:77] Creating layer conv4_1_D_scale
I0824 16:10:43.837558 41289 net.cpp:150] Setting up conv4_1_D_scale
I0824 16:10:43.837566 41289 net.cpp:157] Top shape: 4 256 45 60 (2764800)
I0824 16:10:43.837570 41289 net.cpp:165] Memory required for data: 3492679680
I0824 16:10:43.837577 41289 layer_factory.hpp:77] Creating layer relu4_1_D
I0824 16:10:43.837587 41289 net.cpp:100] Creating Layer relu4_1_D
I0824 16:10:43.837592 41289 net.cpp:434] relu4_1_D <- conv4_1_D
I0824 16:10:43.837597 41289 net.cpp:395] relu4_1_D -> conv4_1_D (in-place)
I0824 16:10:43.837812 41289 net.cpp:150] Setting up relu4_1_D
I0824 16:10:43.837823 41289 net.cpp:157] Top shape: 4 256 45 60 (2764800)
I0824 16:10:43.837828 41289 net.cpp:165] Memory required for data: 3503738880
I0824 16:10:43.837832 41289 layer_factory.hpp:77] Creating layer upsample3
I0824 16:10:43.837841 41289 net.cpp:100] Creating Layer upsample3
I0824 16:10:43.837846 41289 net.cpp:434] upsample3 <- conv4_1_D
I0824 16:10:43.837851 41289 net.cpp:434] upsample3 <- pool3_mask
I0824 16:10:43.837858 41289 net.cpp:408] upsample3 -> pool3_D
I0824 16:10:43.837867 41289 upsample_layer.cpp:27] Params 'pad_out_{}_' are deprecated. Please declare upsample height and width useing the upsample_h, upsample_w parameters.
I0824 16:10:43.837898 41289 net.cpp:150] Setting up upsample3
I0824 16:10:43.837904 41289 net.cpp:157] Top shape: 4 256 90 120 (11059200)
I0824 16:10:43.837908 41289 net.cpp:165] Memory required for data: 3547975680
I0824 16:10:43.837911 41289 layer_factory.hpp:77] Creating layer conv3_3_D
I0824 16:10:43.837929 41289 net.cpp:100] Creating Layer conv3_3_D
I0824 16:10:43.837934 41289 net.cpp:434] conv3_3_D <- pool3_D
I0824 16:10:43.837940 41289 net.cpp:408] conv3_3_D -> conv3_3_D
I0824 16:10:43.861582 41289 net.cpp:150] Setting up conv3_3_D
I0824 16:10:43.861600 41289 net.cpp:157] Top shape: 4 256 90 120 (11059200)
I0824 16:10:43.861604 41289 net.cpp:165] Memory required for data: 3592212480
I0824 16:10:43.861614 41289 layer_factory.hpp:77] Creating layer conv3_3_D_bn_tmp
I0824 16:10:43.861625 41289 net.cpp:100] Creating Layer conv3_3_D_bn_tmp
I0824 16:10:43.861630 41289 net.cpp:434] conv3_3_D_bn_tmp <- conv3_3_D
I0824 16:10:43.861635 41289 net.cpp:395] conv3_3_D_bn_tmp -> conv3_3_D (in-place)
I0824 16:10:43.861901 41289 net.cpp:150] Setting up conv3_3_D_bn_tmp
I0824 16:10:43.861910 41289 net.cpp:157] Top shape: 4 256 90 120 (11059200)
I0824 16:10:43.861920 41289 net.cpp:165] Memory required for data: 3636449280
I0824 16:10:43.861929 41289 layer_factory.hpp:77] Creating layer conv3_3_D_scale
I0824 16:10:43.861938 41289 net.cpp:100] Creating Layer conv3_3_D_scale
I0824 16:10:43.861946 41289 net.cpp:434] conv3_3_D_scale <- conv3_3_D
I0824 16:10:43.861954 41289 net.cpp:395] conv3_3_D_scale -> conv3_3_D (in-place)
I0824 16:10:43.862005 41289 layer_factory.hpp:77] Creating layer conv3_3_D_scale
I0824 16:10:43.862174 41289 net.cpp:150] Setting up conv3_3_D_scale
I0824 16:10:43.862185 41289 net.cpp:157] Top shape: 4 256 90 120 (11059200)
I0824 16:10:43.862190 41289 net.cpp:165] Memory required for data: 3680686080
I0824 16:10:43.862197 41289 layer_factory.hpp:77] Creating layer relu3_3_D
I0824 16:10:43.862206 41289 net.cpp:100] Creating Layer relu3_3_D
I0824 16:10:43.862211 41289 net.cpp:434] relu3_3_D <- conv3_3_D
I0824 16:10:43.862216 41289 net.cpp:395] relu3_3_D -> conv3_3_D (in-place)
I0824 16:10:43.862437 41289 net.cpp:150] Setting up relu3_3_D
I0824 16:10:43.862447 41289 net.cpp:157] Top shape: 4 256 90 120 (11059200)
I0824 16:10:43.862452 41289 net.cpp:165] Memory required for data: 3724922880
I0824 16:10:43.862469 41289 layer_factory.hpp:77] Creating layer conv3_2_D
I0824 16:10:43.862485 41289 net.cpp:100] Creating Layer conv3_2_D
I0824 16:10:43.862490 41289 net.cpp:434] conv3_2_D <- conv3_3_D
I0824 16:10:43.862499 41289 net.cpp:408] conv3_2_D -> conv3_2_D
I0824 16:10:43.886478 41289 net.cpp:150] Setting up conv3_2_D
I0824 16:10:43.886497 41289 net.cpp:157] Top shape: 4 256 90 120 (11059200)
I0824 16:10:43.886500 41289 net.cpp:165] Memory required for data: 3769159680
I0824 16:10:43.886529 41289 layer_factory.hpp:77] Creating layer conv3_2_D_bn_tmp
I0824 16:10:43.886538 41289 net.cpp:100] Creating Layer conv3_2_D_bn_tmp
I0824 16:10:43.886548 41289 net.cpp:434] conv3_2_D_bn_tmp <- conv3_2_D
I0824 16:10:43.886555 41289 net.cpp:395] conv3_2_D_bn_tmp -> conv3_2_D (in-place)
I0824 16:10:43.886816 41289 net.cpp:150] Setting up conv3_2_D_bn_tmp
I0824 16:10:43.886823 41289 net.cpp:157] Top shape: 4 256 90 120 (11059200)
I0824 16:10:43.886827 41289 net.cpp:165] Memory required for data: 3813396480
I0824 16:10:43.886835 41289 layer_factory.hpp:77] Creating layer conv3_2_D_scale
I0824 16:10:43.886852 41289 net.cpp:100] Creating Layer conv3_2_D_scale
I0824 16:10:43.886858 41289 net.cpp:434] conv3_2_D_scale <- conv3_2_D
I0824 16:10:43.886863 41289 net.cpp:395] conv3_2_D_scale -> conv3_2_D (in-place)
I0824 16:10:43.886914 41289 layer_factory.hpp:77] Creating layer conv3_2_D_scale
I0824 16:10:43.887075 41289 net.cpp:150] Setting up conv3_2_D_scale
I0824 16:10:43.887084 41289 net.cpp:157] Top shape: 4 256 90 120 (11059200)
I0824 16:10:43.887087 41289 net.cpp:165] Memory required for data: 3857633280
I0824 16:10:43.887094 41289 layer_factory.hpp:77] Creating layer relu3_2_D
I0824 16:10:43.887100 41289 net.cpp:100] Creating Layer relu3_2_D
I0824 16:10:43.887104 41289 net.cpp:434] relu3_2_D <- conv3_2_D
I0824 16:10:43.887111 41289 net.cpp:395] relu3_2_D -> conv3_2_D (in-place)
I0824 16:10:43.888212 41289 net.cpp:150] Setting up relu3_2_D
I0824 16:10:43.888226 41289 net.cpp:157] Top shape: 4 256 90 120 (11059200)
I0824 16:10:43.888232 41289 net.cpp:165] Memory required for data: 3901870080
I0824 16:10:43.888236 41289 layer_factory.hpp:77] Creating layer conv3_1_D
I0824 16:10:43.888249 41289 net.cpp:100] Creating Layer conv3_1_D
I0824 16:10:43.888254 41289 net.cpp:434] conv3_1_D <- conv3_2_D
I0824 16:10:43.888272 41289 net.cpp:408] conv3_1_D -> conv3_1_D
I0824 16:10:43.902027 41289 net.cpp:150] Setting up conv3_1_D
I0824 16:10:43.902043 41289 net.cpp:157] Top shape: 4 128 90 120 (5529600)
I0824 16:10:43.902048 41289 net.cpp:165] Memory required for data: 3923988480
I0824 16:10:43.902065 41289 layer_factory.hpp:77] Creating layer conv3_1_D_bn_tmp
I0824 16:10:43.902079 41289 net.cpp:100] Creating Layer conv3_1_D_bn_tmp
I0824 16:10:43.902086 41289 net.cpp:434] conv3_1_D_bn_tmp <- conv3_1_D
I0824 16:10:43.902092 41289 net.cpp:395] conv3_1_D_bn_tmp -> conv3_1_D (in-place)
I0824 16:10:43.902354 41289 net.cpp:150] Setting up conv3_1_D_bn_tmp
I0824 16:10:43.902361 41289 net.cpp:157] Top shape: 4 128 90 120 (5529600)
I0824 16:10:43.902365 41289 net.cpp:165] Memory required for data: 3946106880
I0824 16:10:43.902374 41289 layer_factory.hpp:77] Creating layer conv3_1_D_scale
I0824 16:10:43.902385 41289 net.cpp:100] Creating Layer conv3_1_D_scale
I0824 16:10:43.902395 41289 net.cpp:434] conv3_1_D_scale <- conv3_1_D
I0824 16:10:43.902403 41289 net.cpp:395] conv3_1_D_scale -> conv3_1_D (in-place)
I0824 16:10:43.902449 41289 layer_factory.hpp:77] Creating layer conv3_1_D_scale
I0824 16:10:43.902614 41289 net.cpp:150] Setting up conv3_1_D_scale
I0824 16:10:43.902622 41289 net.cpp:157] Top shape: 4 128 90 120 (5529600)
I0824 16:10:43.902626 41289 net.cpp:165] Memory required for data: 3968225280
I0824 16:10:43.902632 41289 layer_factory.hpp:77] Creating layer relu3_1_D
I0824 16:10:43.902639 41289 net.cpp:100] Creating Layer relu3_1_D
I0824 16:10:43.902643 41289 net.cpp:434] relu3_1_D <- conv3_1_D
I0824 16:10:43.902647 41289 net.cpp:395] relu3_1_D -> conv3_1_D (in-place)
I0824 16:10:43.902869 41289 net.cpp:150] Setting up relu3_1_D
I0824 16:10:43.902894 41289 net.cpp:157] Top shape: 4 128 90 120 (5529600)
I0824 16:10:43.902900 41289 net.cpp:165] Memory required for data: 3990343680
I0824 16:10:43.902904 41289 layer_factory.hpp:77] Creating layer upsample2
I0824 16:10:43.902910 41289 net.cpp:100] Creating Layer upsample2
I0824 16:10:43.902915 41289 net.cpp:434] upsample2 <- conv3_1_D
I0824 16:10:43.902921 41289 net.cpp:434] upsample2 <- pool2_mask
I0824 16:10:43.902928 41289 net.cpp:408] upsample2 -> pool2_D
I0824 16:10:43.902937 41289 upsample_layer.cpp:27] Params 'pad_out_{}_' are deprecated. Please declare upsample height and width useing the upsample_h, upsample_w parameters.
I0824 16:10:43.902973 41289 net.cpp:150] Setting up upsample2
I0824 16:10:43.902981 41289 net.cpp:157] Top shape: 4 128 180 240 (22118400)
I0824 16:10:43.902987 41289 net.cpp:165] Memory required for data: 4078817280
I0824 16:10:43.902997 41289 layer_factory.hpp:77] Creating layer conv2_2_D
I0824 16:10:43.903012 41289 net.cpp:100] Creating Layer conv2_2_D
I0824 16:10:43.903017 41289 net.cpp:434] conv2_2_D <- pool2_D
I0824 16:10:43.903024 41289 net.cpp:408] conv2_2_D -> conv2_2_D
I0824 16:10:43.910713 41289 net.cpp:150] Setting up conv2_2_D
I0824 16:10:43.910729 41289 net.cpp:157] Top shape: 4 128 180 240 (22118400)
I0824 16:10:43.910740 41289 net.cpp:165] Memory required for data: 4167290880
I0824 16:10:43.910748 41289 layer_factory.hpp:77] Creating layer conv2_2_D_bn_tmp
I0824 16:10:43.910758 41289 net.cpp:100] Creating Layer conv2_2_D_bn_tmp
I0824 16:10:43.910763 41289 net.cpp:434] conv2_2_D_bn_tmp <- conv2_2_D
I0824 16:10:43.910769 41289 net.cpp:395] conv2_2_D_bn_tmp -> conv2_2_D (in-place)
I0824 16:10:43.911068 41289 net.cpp:150] Setting up conv2_2_D_bn_tmp
I0824 16:10:43.911077 41289 net.cpp:157] Top shape: 4 128 180 240 (22118400)
I0824 16:10:43.911082 41289 net.cpp:165] Memory required for data: 4255764480
I0824 16:10:43.911089 41289 layer_factory.hpp:77] Creating layer conv2_2_D_scale
I0824 16:10:43.911100 41289 net.cpp:100] Creating Layer conv2_2_D_scale
I0824 16:10:43.911109 41289 net.cpp:434] conv2_2_D_scale <- conv2_2_D
I0824 16:10:43.911114 41289 net.cpp:395] conv2_2_D_scale -> conv2_2_D (in-place)
I0824 16:10:43.911164 41289 layer_factory.hpp:77] Creating layer conv2_2_D_scale
I0824 16:10:43.912611 41289 net.cpp:150] Setting up conv2_2_D_scale
I0824 16:10:43.912626 41289 net.cpp:157] Top shape: 4 128 180 240 (22118400)
I0824 16:10:43.912634 41289 net.cpp:165] Memory required for data: 4344238080
I0824 16:10:43.912642 41289 layer_factory.hpp:77] Creating layer relu2_2_D
I0824 16:10:43.912655 41289 net.cpp:100] Creating Layer relu2_2_D
I0824 16:10:43.912662 41289 net.cpp:434] relu2_2_D <- conv2_2_D
I0824 16:10:43.912668 41289 net.cpp:395] relu2_2_D -> conv2_2_D (in-place)
I0824 16:10:43.912901 41289 net.cpp:150] Setting up relu2_2_D
I0824 16:10:43.912910 41289 net.cpp:157] Top shape: 4 128 180 240 (22118400)
I0824 16:10:43.912914 41289 net.cpp:165] Memory required for data: 4432711680
I0824 16:10:43.912919 41289 layer_factory.hpp:77] Creating layer conv2_1_D
I0824 16:10:43.912936 41289 net.cpp:100] Creating Layer conv2_1_D
I0824 16:10:43.912942 41289 net.cpp:434] conv2_1_D <- conv2_2_D
I0824 16:10:43.912948 41289 net.cpp:408] conv2_1_D -> conv2_1_D
I0824 16:10:43.918212 41289 net.cpp:150] Setting up conv2_1_D
I0824 16:10:43.918228 41289 net.cpp:157] Top shape: 4 64 180 240 (11059200)
I0824 16:10:43.918238 41289 net.cpp:165] Memory required for data: 4476948480
I0824 16:10:43.918247 41289 layer_factory.hpp:77] Creating layer conv2_1_D_bn_tmp
I0824 16:10:43.918254 41289 net.cpp:100] Creating Layer conv2_1_D_bn_tmp
I0824 16:10:43.918259 41289 net.cpp:434] conv2_1_D_bn_tmp <- conv2_1_D
I0824 16:10:43.918267 41289 net.cpp:395] conv2_1_D_bn_tmp -> conv2_1_D (in-place)
I0824 16:10:43.918565 41289 net.cpp:150] Setting up conv2_1_D_bn_tmp
I0824 16:10:43.918572 41289 net.cpp:157] Top shape: 4 64 180 240 (11059200)
I0824 16:10:43.918576 41289 net.cpp:165] Memory required for data: 4521185280
I0824 16:10:43.918586 41289 layer_factory.hpp:77] Creating layer conv2_1_D_scale
I0824 16:10:43.918609 41289 net.cpp:100] Creating Layer conv2_1_D_scale
I0824 16:10:43.918615 41289 net.cpp:434] conv2_1_D_scale <- conv2_1_D
I0824 16:10:43.918623 41289 net.cpp:395] conv2_1_D_scale -> conv2_1_D (in-place)
I0824 16:10:43.918673 41289 layer_factory.hpp:77] Creating layer conv2_1_D_scale
I0824 16:10:43.918890 41289 net.cpp:150] Setting up conv2_1_D_scale
I0824 16:10:43.918900 41289 net.cpp:157] Top shape: 4 64 180 240 (11059200)
I0824 16:10:43.918905 41289 net.cpp:165] Memory required for data: 4565422080
I0824 16:10:43.918911 41289 layer_factory.hpp:77] Creating layer relu2_1_D
I0824 16:10:43.918920 41289 net.cpp:100] Creating Layer relu2_1_D
I0824 16:10:43.918925 41289 net.cpp:434] relu2_1_D <- conv2_1_D
I0824 16:10:43.918931 41289 net.cpp:395] relu2_1_D -> conv2_1_D (in-place)
I0824 16:10:43.919155 41289 net.cpp:150] Setting up relu2_1_D
I0824 16:10:43.919164 41289 net.cpp:157] Top shape: 4 64 180 240 (11059200)
I0824 16:10:43.919168 41289 net.cpp:165] Memory required for data: 4609658880
I0824 16:10:43.919173 41289 layer_factory.hpp:77] Creating layer upsample1
I0824 16:10:43.919184 41289 net.cpp:100] Creating Layer upsample1
I0824 16:10:43.919189 41289 net.cpp:434] upsample1 <- conv2_1_D
I0824 16:10:43.919194 41289 net.cpp:434] upsample1 <- pool1_mask
I0824 16:10:43.919200 41289 net.cpp:408] upsample1 -> pool1_D
I0824 16:10:43.919209 41289 upsample_layer.cpp:27] Params 'pad_out_{}_' are deprecated. Please declare upsample height and width useing the upsample_h, upsample_w parameters.
I0824 16:10:43.919241 41289 net.cpp:150] Setting up upsample1
I0824 16:10:43.919248 41289 net.cpp:157] Top shape: 4 64 360 480 (44236800)
I0824 16:10:43.919251 41289 net.cpp:165] Memory required for data: 4786606080
I0824 16:10:43.919255 41289 layer_factory.hpp:77] Creating layer conv1_2_D
I0824 16:10:43.919268 41289 net.cpp:100] Creating Layer conv1_2_D
I0824 16:10:43.919273 41289 net.cpp:434] conv1_2_D <- pool1_D
I0824 16:10:43.919283 41289 net.cpp:408] conv1_2_D -> conv1_2_D
I0824 16:10:43.923745 41289 net.cpp:150] Setting up conv1_2_D
I0824 16:10:43.923761 41289 net.cpp:157] Top shape: 4 64 360 480 (44236800)
I0824 16:10:43.923771 41289 net.cpp:165] Memory required for data: 4963553280
I0824 16:10:43.923779 41289 layer_factory.hpp:77] Creating layer conv1_2_D_bn_tmp
I0824 16:10:43.923791 41289 net.cpp:100] Creating Layer conv1_2_D_bn_tmp
I0824 16:10:43.923797 41289 net.cpp:434] conv1_2_D_bn_tmp <- conv1_2_D
I0824 16:10:43.923804 41289 net.cpp:395] conv1_2_D_bn_tmp -> conv1_2_D (in-place)
I0824 16:10:43.924196 41289 net.cpp:150] Setting up conv1_2_D_bn_tmp
I0824 16:10:43.924204 41289 net.cpp:157] Top shape: 4 64 360 480 (44236800)
I0824 16:10:43.924211 41289 net.cpp:165] Memory required for data: 5140500480
I0824 16:10:43.924218 41289 layer_factory.hpp:77] Creating layer conv1_2_D_scale
I0824 16:10:43.924227 41289 net.cpp:100] Creating Layer conv1_2_D_scale
I0824 16:10:43.924232 41289 net.cpp:434] conv1_2_D_scale <- conv1_2_D
I0824 16:10:43.924237 41289 net.cpp:395] conv1_2_D_scale -> conv1_2_D (in-place)
I0824 16:10:43.924289 41289 layer_factory.hpp:77] Creating layer conv1_2_D_scale
I0824 16:10:43.926347 41289 net.cpp:150] Setting up conv1_2_D_scale
I0824 16:10:43.926362 41289 net.cpp:157] Top shape: 4 64 360 480 (44236800)
I0824 16:10:43.926367 41289 net.cpp:165] Memory required for data: 5317447680
I0824 16:10:43.926378 41289 layer_factory.hpp:77] Creating layer relu1_2_D
I0824 16:10:43.926386 41289 net.cpp:100] Creating Layer relu1_2_D
I0824 16:10:43.926391 41289 net.cpp:434] relu1_2_D <- conv1_2_D
I0824 16:10:43.926400 41289 net.cpp:395] relu1_2_D -> conv1_2_D (in-place)
I0824 16:10:43.926645 41289 net.cpp:150] Setting up relu1_2_D
I0824 16:10:43.926656 41289 net.cpp:157] Top shape: 4 64 360 480 (44236800)
I0824 16:10:43.926661 41289 net.cpp:165] Memory required for data: 5494394880
I0824 16:10:43.926664 41289 layer_factory.hpp:77] Creating layer conv1_1_1_D
I0824 16:10:43.926681 41289 net.cpp:100] Creating Layer conv1_1_1_D
I0824 16:10:43.926689 41289 net.cpp:434] conv1_1_1_D <- conv1_2_D
I0824 16:10:43.926712 41289 net.cpp:408] conv1_1_1_D -> conv1_1_1_D
I0824 16:10:43.928807 41289 net.cpp:150] Setting up conv1_1_1_D
I0824 16:10:43.928822 41289 net.cpp:157] Top shape: 4 2 360 480 (1382400)
I0824 16:10:43.928827 41289 net.cpp:165] Memory required for data: 5499924480
I0824 16:10:43.928834 41289 layer_factory.hpp:77] Creating layer conv1_1_1_D_conv1_1_1_D_0_split
I0824 16:10:43.928848 41289 net.cpp:100] Creating Layer conv1_1_1_D_conv1_1_1_D_0_split
I0824 16:10:43.928853 41289 net.cpp:434] conv1_1_1_D_conv1_1_1_D_0_split <- conv1_1_1_D
I0824 16:10:43.928859 41289 net.cpp:408] conv1_1_1_D_conv1_1_1_D_0_split -> conv1_1_1_D_conv1_1_1_D_0_split_0
I0824 16:10:43.928869 41289 net.cpp:408] conv1_1_1_D_conv1_1_1_D_0_split -> conv1_1_1_D_conv1_1_1_D_0_split_1
I0824 16:10:43.928923 41289 net.cpp:150] Setting up conv1_1_1_D_conv1_1_1_D_0_split
I0824 16:10:43.928930 41289 net.cpp:157] Top shape: 4 2 360 480 (1382400)
I0824 16:10:43.928936 41289 net.cpp:157] Top shape: 4 2 360 480 (1382400)
I0824 16:10:43.928939 41289 net.cpp:165] Memory required for data: 5510983680
I0824 16:10:43.928946 41289 layer_factory.hpp:77] Creating layer loss
I0824 16:10:43.928961 41289 net.cpp:100] Creating Layer loss
I0824 16:10:43.928966 41289 net.cpp:434] loss <- conv1_1_1_D_conv1_1_1_D_0_split_0
I0824 16:10:43.928972 41289 net.cpp:434] loss <- label_data_1_split_0
I0824 16:10:43.928977 41289 net.cpp:408] loss -> loss
I0824 16:10:43.928998 41289 layer_factory.hpp:77] Creating layer loss
I0824 16:10:43.934216 41289 net.cpp:150] Setting up loss
I0824 16:10:43.934231 41289 net.cpp:157] Top shape: (1)
I0824 16:10:43.934234 41289 net.cpp:160]     with loss weight 1
I0824 16:10:43.934273 41289 net.cpp:165] Memory required for data: 5510983684
I0824 16:10:43.934278 41289 layer_factory.hpp:77] Creating layer accuracy
I0824 16:10:43.934291 41289 net.cpp:100] Creating Layer accuracy
I0824 16:10:43.934298 41289 net.cpp:434] accuracy <- conv1_1_1_D_conv1_1_1_D_0_split_1
I0824 16:10:43.934303 41289 net.cpp:434] accuracy <- label_data_1_split_1
I0824 16:10:43.934310 41289 net.cpp:408] accuracy -> accuracy
I0824 16:10:43.934322 41289 net.cpp:408] accuracy -> per_class_accuracy
I0824 16:10:43.934378 41289 net.cpp:150] Setting up accuracy
I0824 16:10:43.934386 41289 net.cpp:157] Top shape: (1)
I0824 16:10:43.934389 41289 net.cpp:157] Top shape: 2 (2)
I0824 16:10:43.934392 41289 net.cpp:165] Memory required for data: 5510983696
I0824 16:10:43.934396 41289 net.cpp:228] accuracy does not need backward computation.
I0824 16:10:43.934401 41289 net.cpp:226] loss needs backward computation.
I0824 16:10:43.934407 41289 net.cpp:226] conv1_1_1_D_conv1_1_1_D_0_split needs backward computation.
I0824 16:10:43.934411 41289 net.cpp:226] conv1_1_1_D needs backward computation.
…
